trained_models/model.pt (torch, 101816 bytes, 14 tensors)

weight f4 [128, 3, 3, 3]
0	0xbd326dca	-0.043561734
1	0x3db8ab79	0.09017081
2	0xbe026b6f	-0.12736295
3	0x3e1e25cb	0.15444104
4	0x3d603790	0.05474049
5	0xbdfdf55f	-0.124003164
6	0x3e085da9	0.13316979
7	0x3df00518	0.117197216
8	0xbd6db795	-0.058036406
9	0x3e59a0dd	0.2125277
10	0x3de937d8	0.113876045
11	0xbd12ca79	-0.035837624
12	0x3b4921dc	0.0030690348
13	0x3d86ffd5	0.06591765
14	0xbe018d4c	-0.12651557
15	0x3b920a59	0.0044568
16	0xbdf39b93	-0.11894908
17	0x3d707cc6	0.058712743
18	0xbe05b37e	-0.13056752
19	0x3bd48cc2	0.006486506
20	0xbc24d819	-0.010061287
21	0x3e1eaad5	0.15494855
22	0xbdca7df2	-0.098873034
23	0x3de1a0e0	0.110170126
24	0xbb1c7285	-0.002387197
25	0xbd9ad005	-0.07559208
26	0x3e2b7882	0.16745189
27	0x3d806014	0.062683254
28	0xbe18fef3	-0.14941005
29	0xbdb3f48f	-0.0878688
30	0x3d678f5e	0.05653321
31	0x3db53cad	0.088494636
32	0xbdfb0295	-0.12256352
33	0xbcf12686	-0.029437315
34	0xbe2a7e88	-0.1664983
35	0xbdf98fcd	-0.12185631
36	0xbe4574d1	-0.19282843
37	0x3e6bcd41	0.23027517
38	0x3e7724e1	0.24135162
39	0x3d656cf4	0.05601211
40	0x3de8f0ab	0.11374029
41	0x3ea56f2a	0.32311374
42	0xbc640345	-0.013916795
43	0xbbc26ee8	-0.005933631
44	0xbd6f2d04	-0.05839254
45	0xbe23b65f	-0.15987538
46	0x3dd54589	0.104136534
47	0xbab0ba31	-0.0013483224
48	0xbe24804a	-0.16064563
49	0xbdac7b9a	-0.084220126
50	0x3b66cf97	0.0035218948
51	0x3d6aba57	0.057306614
52	0xbbb06f5b	-0.0053843684
53	0xbdede2b1	-0.116155036
54	0x3be74431	0.0070576896
55	0x39118a56	0.00013879812
56	0xbda08656	-0.078381225
57	0x3dd4b54c	0.10386142
58	0x3dc1b91a	0.094591334
59	0x3e06f013	0.13177519
60	0xbd8e8637	-0.06959193
61	0x3d489358	0.048968643
62	0x3dce08f1	0.10060299
63	0xbe4648af	-0.19363664
64	0xbd7574ea	-0.05992595
65	0x3ce87ef0	0.028380841
66	0xbc70788c	-0.014677178
67	0xbe18f95e	-0.14938876
68	0x3e05519b	0.13019411
69	0x3d83f7ab	0.06443723
70	0xbded8d5d	-0.115992285
71	0xbe2f61a9	-0.17127098
72	0xbdb901c0	-0.09033537
73	0xbd3eedd4	-0.04661353
74	0x3c5adabf	0.013357817
75	0xbd8d9da0	-0.0691483
76	0x3e100156	0.1406301
77	0xbc4d75c8	-0.012540288
78	0x3d6e6452	0.05820114
79	0xbc3b57ab	-0.011434476
80	0x3e355fae	0.1771228
81	0x3dd962ff	0.10614585
82	0x3e33cd34	0.17558748
83	0xbd93a442	-0.07209064
84	0xbb798c94	-0.0038078176
85	0x3d8cacbe	0.068688855
86	0x3d1ba425	0.037998337
87	0x3e205e82	0.15661052
88	0x3d55e3f3	0.052219342
89	0x3e1e9e94	0.1549018
90	0x3dd72350	0.10504782
91	0xbe2a4e6e	-0.16631481
92	0x3dd45271	0.10367287
93	0x3e0c02e8	0.13672984
94	0x3e15ee27	0.14641629
95	0x3d98501e	0.07437156
96	0xbe715aaf	-0.2356975
97	0xbe61f191	-0.22064807
98	0xbe00ae07	-0.12566386
99	0xbd76ac7c	-0.060223088
100	0x3c613c1b	0.01374724
101	0x3ca4e5a8	0.02012904
102	0x3e11cb61	0.14237739
103	0xbe33dd0d	-0.17564793
104	0x3e079f7b	0.1324443
105	0xbd55cb93	-0.052196097
106	0x3b5d945e	0.0033810358
107	0x3d408663	0.04700316
108	0xbe0001d8	-0.12500703
109	0x3e27b8d9	0.16379108
110	0xbc91be65	-0.017790982
111	0xbdaffda6	-0.085933015
112	0x3e442cae	0.19157669
113	0xbcb824bf	-0.02247846
114	0x3dad89e7	0.084735684
115	0xbdf05c4c	-0.11736354
116	0x3e0df8ef	0.13864492
117	0x3d65581f	0.055992242
118	0xbe0ce3f0	-0.13758826
119	0x3e1a2724	0.15053993
120	0x3e24d40a	0.16096511
121	0x3c3a4f8b	0.011371504
122	0x3d67eef3	0.056624364
123	0xbdb6a29a	-0.089177325
124	0x3e924fd1	0.2857652
125	0xbe14dc86	-0.14537248
126	0x3c8a6458	0.01689355
127	0xbd5dce67	-0.05415192
128	0x3e1beabf	0.15226267
129	0xbe58e4bc	-0.21181005
130	0xbe6a266c	-0.2286622
131	0x3dc2ed4f	0.09517919
132	0xbe323c21	-0.1740575
133	0xbe1156dd	-0.14193292
134	0x3e30ca7e	0.17264745
135	0x3e3d686c	0.18496865
136	0xbe0e8655	-0.13918431
137	0x3dfbad7a	0.122889474
138	0x3dbfbe93	0.09362521
139	0xbdf5cc1b	-0.12001821
140	0xbe35e037	-0.17761312
141	0xbda0b9b9	-0.07847924
142	0xbd517512	-0.051137038
143	0x3cccd40f	0.025003461
144	0x3e3d6ccd	0.18498535
145	0x3ddc75d8	0.107646644
146	0x3e27ba8c	0.16379756
147	0xbe54588a	-0.207369
148	0x3d8dad46	0.06917815
149	0xbc12eac6	-0.008967107
150	0x3dd896c9	0.10575635
151	0xbddc88f1	-0.10768307
152	0x3d809267	0.06277924
153	0x3c3be6f4	0.011468638
154	0xbd94445b	-0.072396
155	0xbce3c787	-0.027805103
156	0x3e35013e	0.17676255
157	0xbd858656	-0.06519763
158	0x3e364d07	0.17802821
159	0x3de93e81	0.11388875
160	0x3ccf8abe	0.025334712
161	0xbde9735c	-0.11398956
162	0x3e332174	0.1749323
163	0xbdd7ec71	-0.105431445
164	0xbddaa6a6	-0.10676317
165	0x3d6a1317	0.05714711
166	0x3e395b00	0.1810112
167	0x3d5dc01c	0.054138288
168	0xbd445dfc	-0.047941193
169	0xbe17196a	-0.14755788
170	0x3b75657c	0.0037444523
171	0xbdce88d7	-0.10084694
172	0x3e0e16cb	0.13875882
173	0xbe3483ef	-0.17628454
174	0x3d820abc	0.06349704
175	0xbdaf2abc	-0.08553073
176	0x3e6be2cb	0.23035733
177	0xbc2c56ae	-0.010518713
178	0x3dbc0629	0.091808625
179	0xbe25ebd9	-0.1620325
180	0x3cc52131	0.024063678
181	0x3ddb8738	0.1071915
182	0x3e30aaa9	0.17252602
183	0x3a8c9f68	0.0010728659
184	0xbcd1c74f	-0.025607733
185	0xbdc5c408	-0.096565306
186	0x3dcc6247	0.099796824
187	0x3d9255b4	0.07145253
188	0xbdc7bb70	-0.09752548
189	0xbe21864c	-0.15773886
190	0x3db96e32	0.09054221
191	0x3dfb4a0d	0.122699834
192	0x3e12b4b8	0.14326751
193	0x3d666d52	0.0562566
194	0xbe237287	-0.15961657
195	0x3d736f24	0.059432164
196	0xbddb2956	-0.107012436
197	0xbc778f42	-0.015109839
198	0x3e1d61fd	0.15369411
199	0x3dde34be	0.108499035
200	0x3bed3dc4	0.007240029
201	0x3dfb19fa	0.12260814
202	0xbdf0d355	-0.117590584
203	0xbe4aeb16	-0.1981624
204	0x3c271565	0.010197972
205	0x3e54cdfb	0.207817
206	0xbdd1c5e7	-0.10242825
207	0x3dca3db6	0.09875052
208	0x3cd6abe0	0.026205003
209	0xbe18a488	-0.14906514
210	0x3e186d00	0.1488533
211	0x3ce2a3d4	0.02766601
212	0xbe049912	-0.12949017
213	0xbe258a85	-0.16166122
214	0xbd7a7a2e	-0.061151676
215	0xbe13205d	-0.14367814
216	0xbe1a35a9	-0.15059532
217	0xbd312289	-0.043245826
218	0xbd91de83	-0.07122519
219	0xbaf7e408	-0.0018912563
220	0xbd4112ab	-0.047136944
221	0xbc28de42	-0.010306897
222	0x3da24274	0.07922831
223	0xbe17069c	-0.14748615
224	0xbca27d9b	-0.019835284
225	0xbe1177ea	-0.142059
226	0x3e0fe0ee	0.14050648
227	0x3d0c0b8e	0.034190707
228	0xbb9eca52	-0.004845896
229	0xbdebdab6	-0.11516325
230	0xbdf56ef2	-0.11984052
231	0xbd12ce6c	-0.03584139
232	0x3da0a241	0.078434475
233	0xbe211f77	-0.15734659
234	0x3ddbb47a	0.107277825
235	0x3e0a2b0d	0.13492985
236	0x3d8b5a38	0.06804317
237	0x3bc2947f	0.0059381123
238	0x3d48048e	0.04883247
239	0x3d30c05a	0.04315219
240	0x3cc7e7bf	0.024402497
241	0xbd50c6ff	-0.050971027
242	0xbe436c3e	-0.1908426
243	0xbdba6d69	-0.091028996
244	0xbd680d97	-0.056653585
245	0xbd06bb00	-0.03289318
246	0x3c59864d	0.013276649
247	0x3dd89c07	0.10576635
248	0xbe37a320	-0.17933321
249	0x3e21a737	0.15786444
250	0xbe3140ff	-0.1730995
251	0xbd00214a	-0.031281747
252	0xbc505a0e	-0.012716783
253	0x3e4e005f	0.20117329
254	0xbdcfa9bf	-0.101397984
255	0xbe1a54a7	-0.15071355

bias f4 [128]
0	0xbc598680	-0.013276696
1	0x3ddcf8f5	0.10789672
2	0xbdb35bb9	-0.08757729
3	0xbdd321e6	-0.103092
4	0x3e54d96f	0.2078607
5	0xbe10af93	-0.14129476
6	0x3e271afa	0.16318884
7	0x3d8749b6	0.06605856
8	0xbe4208e7	-0.18948708
9	0x3d85f1b0	0.06540239
10	0x3e445834	0.19174272
11	0x3db82eea	0.08993323
12	0x3dc6ad8b	0.097010694
13	0xbcad82e7	-0.021180583
14	0x3e4acf9d	0.1980576
15	0x3e18ff76	0.149412
16	0x3dc776df	0.0973947
17	0x3e400a34	0.18753892
18	0x3daa1d2d	0.08306346
19	0xbdbba58f	-0.09162437
20	0x3d8e778a	0.06956394
21	0x3d65fb74	0.056148008
22	0xbe286eb8	-0.16448486
23	0xbdfceceb	-0.12349876
24	0xbcf1388f	-0.029445915
25	0xbd72d949	-0.05928925
26	0x3bede629	0.0072601032
27	0x3dbefd81	0.09325696
28	0x3d833e32	0.06408347
29	0x3e6dd02f	0.23223947
30	0xbd3bda31	-0.04586238
31	0xbe405363	-0.1878181
32	0x3e63161b	0.22176401
33	0xbe149713	-0.14510755
34	0x3db8e691	0.09028352
35	0x3c4bd058	0.01243981
36	0x3db457e4	0.08805826
37	0xbdcdb079	-0.10043425
38	0x3d8857bc	0.06657359
39	0x3dc66102	0.096864715
40	0x3e3d4a8a	0.18485466
41	0xbe0f38c6	-0.13986501
42	0x3dda8e56	0.1067168
43	0xbe0c9da7	-0.13732015
44	0xbd9e8642	-0.077404514
45	0xbe25de5b	-0.16198103
46	0x3c971ad4	0.01844541
47	0xbdab2138	-0.08355945
48	0x3ded7d4f	0.11596166
49	0xbe2fd2b8	-0.17170227
50	0x3d2d9881	0.042381767
51	0xbcd2970c	-0.02570679
52	0xbd7d30dc	-0.061814174
53	0x3aa1d309	0.0012346219
54	0xbd8ecb28	-0.06972343
55	0x3de932b4	0.11386624
56	0x3d90459e	0.070445284
57	0x3db6d9fc	0.08928296
58	0xbd0b2b98	-0.03397712
59	0xbdf8e05e	-0.1215217
60	0xbca9bb2d	-0.020719135
61	0x394a333e	0.0001928331
62	0xbaed0fd9	-0.0018086388
63	0x3d967c88	0.07347971
64	0x3e2424c4	0.1602965
65	0xbe3bd8f0	-0.18344474
66	0xbe3dbff7	-0.1853026
67	0xbdcfbb37	-0.1014313
68	0xbc79ae7f	-0.015239357
69	0xbdb8d69d	-0.09025309
70	0x3e1a866f	0.15090345
71	0x3db42b5c	0.08797333
72	0x3e07db7b	0.13267319
73	0x3d221f08	0.039580375
74	0xbde3df43	-0.11126568
75	0x3d45610d	0.048188258
76	0x3e08a614	0.13344604
77	0x3d614d63	0.055005442
78	0xbcd5f1e1	-0.026116313
79	0xbe06d623	-0.13167624
80	0x3df987fc	0.1218414
81	0x3dc4e5cb	0.09614142
82	0xbd80b1ae	-0.0628389
83	0x3da05a09	0.07829673
84	0xbc4a2231	-0.012337253
85	0xbdf60316	-0.12012307
86	0xbe19d80e	-0.15023825
87	0x3d1dfb94	0.03857
88	0x3e296a72	0.16544512
89	0x3d086c70	0.03330654
90	0xbe147640	-0.14498234
91	0xbe2fd628	-0.17171538
92	0x3e44b3c5	0.19209202
93	0x3d8b8ea9	0.0681432
94	0x3dd28233	0.1027874
95	0xbd24e5c5	-0.040258188
96	0xbdf2c7e4	-0.11854532
97	0x3e0c6653	0.13710909
98	0xbaa1e1a5	-0.0012350573
99	0xbbf155ac	-0.007364949
100	0xbdc4487b	-0.09584137
101	0x3d61b685	0.055105705
102	0x3e13ce87	0.14434253
103	0x3e00da55	0.12583287
104	0x3d3ad4e9	0.045613203
105	0xbdf93294	-0.1216785
106	0x3dff92d8	0.1247918
107	0x3c734a7c	0.014849301
108	0x3daf4ee7	0.08559971
109	0xbe127e9f	-0.14306115
110	0x39c47004	0.0003746749
111	0x3d9d3b73	0.07677355
112	0x3cabc671	0.020968648
113	0x3dc9bbde	0.09850286
114	0xbd314e16	-0.04328736
115	0x3de3c2a5	0.1112111
116	0xbe458a9b	-0.19291155
117	0x3d9fb584	0.07798293
118	0x3d79a80b	0.060951274
119	0x3e3437f6	0.17599472
120	0x3e310619	0.17287482
121	0xbd4fcc77	-0.050732102
122	0xbdf8af01	-0.12142754
123	0xbc9db27b	-0.019250145
124	0xbd59e8fd	-0.05320071
125	0xbe14d7fe	-0.1453552
126	0x3a8151eb	0.0009866332
127	0x3d4a1e61	0.049345378

weight f4 [8, 128, 3, 3]
0	0xbbc4ebdf	-0.0060095633
1	0xbbc71994	-0.006076047
2	0x3ca226f6	0.019793969
3	0xbc9b27a3	-0.018939799
4	0xbab9ba1f	-0.0014169848
5	0xbb596308	-0.00331706
6	0x3b896cac	0.004193863
7	0x3c81af27	0.01583059
8	0x3c8e8ea4	0.017402
9	0xbc6e4d05	-0.01454473
10	0x3c028801	0.007966996
11	0x3c9bba36	0.01900969
12	0xbb92321b	-0.0044615394
13	0xbc02b502	-0.007977726
14	0x3c827314	0.015924014
15	0x3d10958e	0.035298876
16	0xbb5f114a	-0.0034037405
17	0xbcec00aa	-0.02880891
18	0xbcb3cfea	-0.021949727
19	0xbcac575d	-0.021037752
20	0x3bbe67cc	0.0058107134
21	0x3b8af88d	0.0042410553
22	0x3c442ab9	0.0119730765
23	0xbc2a3fb2	-0.010391163
24	0xbbb855a1	-0.005625442
25	0xba71de6b	-0.0009226563
26	0xbcd159b4	-0.02555547
27	0xbc64aa34	-0.013956595
28	0xbc2d9381	-0.01059425
29	0x3bb0243f	0.0053754146
30	0xbc243b28	-0.01002387
31	0xbc3da486	-0.01157487
32	0xb976e556	-0.00023545822
33	0xbb4601c8	-0.0030213464
34	0xbb79d101	-0.003811896
35	0x3cca7e94	0.02471856
36	0xbce1f29f	-0.027581511
37	0x3c5c029e	0.013428358
38	0x3c8303d9	0.015993046
39	0xbc099bd9	-0.008398973
40	0x3bff2300	0.0077861547
41	0x3ce3daa2	0.027814213
42	0xbc9139f5	-0.017727831
43	0x3ca4eda2	0.020132843
44	0xbd179af2	-0.037013
45	0xbcbaf98b	-0.02282407
46	0xbc184150	-0.009292915
47	0xbc5c9150	-0.01346238
48	0xbb978fb8	-0.004625287
49	0xba507182	-0.00079514843
50	0x3c550f9a	0.013004208
51	0x3c5318b4	0.012884308
52	0xbbfd386b	-0.007727673
53	0xbbe43331	-0.0069641103
54	0x3cc18c60	0.023626506
55	0x3ccfcbda	0.025365759
56	0xbbf40ad1	-0.0074475785
57	0xbbd27df1	-0.006423705
58	0xbbcc4022	-0.006233231
59	0xbcd2df2b	-0.02574118
60	0x3c640a93	0.013918537
61	0xbc8b4a92	-0.017003331
62	0x3cb6ee12	0.022330318
63	0x3c7d64e1	0.015465946
64	0xbbddf2d0	-0.0067733303
65	0x3ccb3f77	0.024810536
66	0x3cb7405d	0.022369558
67	0xbac9c421	-0.0015393534
68	0x3c417629	0.011807957
69	0x3c21f3d3	0.009884792
70	0xbd0c5d87	-0.034268882
71	0xbc8fe36e	-0.017564502
72	0xbc5c89e9	-0.013460615
73	0x3c73b4f4	0.014874686
74	0x3bba9e9d	0.0056951777
75	0xbb90eaf4	-0.00442254
76	0xbc086400	-0.008324623
77	0xbb1f51e3	-0.0024310283
78	0xbbc8f797	-0.0061330306
79	0x3bd0ec67	0.0063758376
80	0xbccfc6fc	-0.025363438
81	0xbccaa32f	-0.024736015
82	0x3b9aabdf	0.0047201957
83	0x3bfaab97	0.0076498496
84	0x3c7c12e5	0.015385364
85	0x3ca3aa2c	0.019978605
86	0x3c10878f	0.008821382
87	0xbb68abd2	-0.0035502804
88	0x3b8bbc03	0.004264356
89	0x3bc2d22a	0.0059454637
90	0x3cbace4b	0.022803446
91	0x3b8e350b	0.0043398193
92	0x3a07130a	0.00051526783
93	0xba0b65fe	-0.0005317627
94	0x3c1a86e0	0.009431571
95	0xbc94895a	-0.0181319
96	0x3c9d88b9	0.019230234
97	0xbcc44fa7	-0.023963762
98	0x3c44a9ef	0.012003406
99	0x3c712a0f	0.0147195
100	0x3ccd689e	0.0250743
101	0xbbb96672	-0.0056579644
102	0x3cc8c187	0.024506344
103	0x3b9a5619	0.0047099707
104	0xbc4a66a9	-0.012353578
105	0x3aab1597	0.0013052699
106	0xbc30510f	-0.010761513
107	0xba8c236a	-0.0010691707
108	0xbc79fae0	-0.015257567
109	0x3c7ac146	0.015304869
110	0xbcdd5c7d	-0.02702164
111	0x3c49b7a4	0.01231185
112	0xbc0a0e9c	-0.008426335
113	0xbc008719	-0.00784471
114	0xbc940768	-0.018069938
115	0x3cabbefe	0.020965096
116	0x3caac42f	0.0208455
117	0x3afb994c	0.0019195466
118	0xbca5fb43	-0.020261412
119	0x3b042127	0.0020161362
120	0x3d116429	0.03549591
121	0xbce76c61	-0.028249921
122	0xbc9c3816	-0.019069713
123	0xbb6cc830	-0.0036130063
124	0x3c076b20	0.008265287
125	0x3c1f879f	0.009736924
126	0x3c82ea64	0.015980907
127	0xbc833166	-0.016014766
128	0xbc8cb1d1	-0.017174633
129	0xbc8ad022	-0.016944949
130	0x3c5005a6	0.012696659
131	0xbd1c2821	-0.038124207
132	0xbc182c38	-0.009287886
133	0xbc945f74	-0.018111922
134	0x3cabcb5a	0.020970989
135	0xbc1ecbc8	-0.00969214
136	0xba24478a	-0.00062667637
137	0xbc9eedf5	-0.019400576
138	0xbbf19404	-0.007372381
139	0x3c7fa8d1	0.015604214
140	0xbcdf2b5b	-0.027242353
141	0x3c4fa323	0.012673172
142	0xbd545d6e	-0.051846914
143	0xbb70237c	-0.0036642244
144	0x3c0cc0d1	0.008590893
145	0x3c2e7a9e	0.010649351
146	0x3c400bec	0.011721592
147	0xbbd04bbd	-0.006356685
148	0xbb9f61d6	-0.004863958
149	0x3cb9584a	0.022625107
150	0xbbecad0f	-0.0072227786
151	0xbc8bbbc3	-0.017057305
152	0xbbf62650	-0.0075118914
153	0xbc4abc1d	-0.012373951
154	0xbc425ed1	-0.011863426
155	0xbc40d8df	-0.011770456
156	0xbc37805f	-0.01120004
157	0xbc8fd72c	-0.017558657
158	0xbb580c77	-0.0032966414
159	0xba22024d	-0.00061801524
160	0xbb4b14b9	-0.0030987693
161	0x3c6ee7f1	0.014581666
162	0xbc64d9e5	-0.013967966
163	0xbcdbc7e6	-0.026828717
164	0xbcf11ec6	-0.02943362
165	0x3c84acf1	0.016195746
166	0xbc87957c	-0.016550772
167	0x3c6af31e	0.01434019
168	0xbc8ed16a	-0.01743384
169	0x3ccb3ccb	0.024809262
170	0xbc26ed53	-0.010188418
171	0xbca1315b	-0.019676855
172	0xbc5085e5	-0.012727235
173	0xbc64e2ca	-0.013970086
174	0xbc672ff0	-0.01411055
175	0xbc699766	-0.014257288
176	0x3cb75c1a	0.022382785
177	0x3c6f3661	0.014600367
178	0xbb01ca00	-0.001980424
179	0xbb673fb5	-0.0035285775
180	0x3caca03a	0.021072496
181	0x3c4a98a0	0.01236549
182	0x3cbbb4f0	0.022913426
183	0xbca5bfc5	-0.020233044
184	0xbb191ab0	-0.0023361854
185	0x3d11dbf9	0.035610173
186	0xbcc47a16	-0.023983996
187	0x3bb5c624	0.005547302
188	0x3c0b8f20	0.00851801
189	0x3ab6bf0c	0.0013942434
190	0xbc6f097b	-0.014589663
191	0xbb54ef82	-0.003249139
192	0x3c226748	0.0099123195
193	0x3b98bb44	0.0046609957
194	0xbcf5bd68	-0.029997543
195	0xbc813652	-0.015772972
196	0x3d1b2e39	0.03788588
197	0xbd4f64f9	-0.050633404
198	0xbafdc17d	-0.0019360032
199	0xbc63b98b	-0.013899217
200	0x3bc1a823	0.005909936
201	0x3c1fb706	0.009748226
202	0xbc940354	-0.018067993
203	0x3ad2ffcb	0.0016097961
204	0xbaba432e	-0.0014210695
205	0xbbe360d9	-0.0069390354
206	0xbca00bdd	-0.019536907
207	0xbc8b596c	-0.017010413
208	0x3b484aa4	0.0030562067
209	0x3d02ed53	0.03196461
210	0x3ca0378e	0.01955774
211	0xbcca0550	-0.024660736
212	0xbb549a7d	-0.0032440715
213	0xbca1e5e9	-0.01976295
214	0x3ca968d3	0.020679867
215	0x3cebff60	0.028808296
216	0xbc414a53	-0.011797505
217	0x3ca61c62	0.020277206
218	0xbbdbde81	-0.006709874
219	0x3a59ccfa	0.0008308437
220	0x3afd3e6b	0.001932097
221	0x3cefd92a	0.029278357
222	0x3cd59b26	0.026074957
223	0x3a5357ad	0.0008062076
224	0xbc3d1341	-0.011540235
225	0x3cb1684b	0.021656176
226	0xbb9b581f	-0.0047407295
227	0x3af2ee03	0.0018534068
228	0x3c4f5461	0.012654395
229	0x3c533891	0.012891904
230	0x3bc4e9b0	0.006009303
231	0xbd012e9c	-0.03153859
232	0x3c71ee99	0.014766359
233	0xbcc92646	-0.024554383
234	0xbbed8114	-0.0072480533
235	0xbc52c1cc	-0.012863588
236	0xbb5f130a	-0.0034038448
237	0x3cd6d493	0.02622441
238	0xbc81b688	-0.015834108
239	0xbcbab413	-0.022790944
240	0x3c8779bb	0.016537538
241	0x3c9c6a9a	0.0190938
242	0x3c10be7a	0.008834476
243	0x3b1b051b	0.0023654166
244	0x3bd6c32a	0.006554027
245	0x3c160c5d	0.009158221
246	0x3cb8c8b7	0.022556646
247	0x3c71bb20	0.014754087
248	0x3c330059	0.010925376
249	0x3c0fea2e	0.00878386
250	0x3c3d8357	0.011566958
251	0xbc2ab512	-0.010419147
252	0x3a20433e	0.00061135355
253	0x3cc8b17b	0.024498692
254	0x3c35bd9c	0.01109257
255	0xbca41dc8	-0.020033732

bias f4 [8]
0	0x3c9dea43	0.019276744
1	0x3988a6ff	0.00026064363
2	0x3c77d350	0.015126064
3	0xbca21751	-0.019786509
4	0xbc336620	-0.0109496415
5	0xbc30eb50	-0.01079829
6	0x3ab8468d	0.0014059112
7	0xbcbbe855	-0.022937933

weight f4 [8]
0	0x3f95df73	1.1708816
1	0x3f88039c	1.0626101
2	0x3f99ed38	1.2025518
3	0x3f864a98	1.0491514
4	0x3f89f828	1.0778856
5	0x3f8d0556	1.1017253
6	0x3f8d931f	1.1060523
7	0x3f886b52	1.0657752

bias f4 [8]
0	0xbaaf5327	-0.0013376222
1	0x3de78176	0.113039896
2	0x3e095841	0.13412572
3	0x3e085674	0.13314229
4	0x3df3a344	0.11896375
5	0x3dff61c3	0.124698184
6	0x3dd30cc2	0.10305168
7	0x3e033766	0.12814102

running_mean f4 [8]
0	0x3d048315	0.032351572
1	0xbd0dc75e	-0.03461396
2	0xbe535fa6	-0.20641956
3	0xbf303078	-0.6882396
4	0xbebe9b4e	-0.37227863
5	0xbe026a3e	-0.1273584
6	0x3c3cc1ea	0.011520842
7	0xbe870019	-0.26367262

running_var f4 [8]
0	0x3f790bcf	0.97283643
1	0x402edefa	2.7323594
2	0x3fe8bb0a	1.818208
3	0x4056f212	3.3585248
4	0x40066f32	2.1005368
5	0x3fbe881e	1.488529
6	0x3f7572ef	0.958785
7	0x3fe7586d	1.807386

weight f4 [64, 128]
0	0xbc349200	-0.011021137
1	0xbcd63685	-0.026149044
2	0x3d7ba742	0.061438806
3	0xbb97cfcc	-0.0046329256
4	0x3c7b43db	0.015336002
5	0x3daa576e	0.08317457
6	0x3da8132c	0.08206782
7	0x3d5b7952	0.053582497
8	0x3d2c54c9	0.042073045
9	0x3da2c01d	0.07946799
10	0xbd0c2afb	-0.034220677
11	0x3daa2dc3	0.083095096
12	0xbd491fb2	-0.049102493
13	0xbd98424c	-0.0743452
14	0xbb1a4a33	-0.0023542761
15	0xbdb6f8f6	-0.08934204
16	0xbd4f3ab5	-0.050593097
17	0x3db376ad	0.0876287
18	0x3de0753d	0.109598614
19	0xbc02dbf8	-0.007987015
20	0xbd978bb8	-0.07399696
21	0x3bc79381	0.006090582
22	0x3db76116	0.089540645
23	0xbd3c341c	-0.045948133
24	0xbd25d9b1	-0.04049081
25	0xbb61481f	-0.0034375263
26	0x3da217cb	0.079146944
27	0x3d0d1c53	0.03445084
28	0x3dbae92d	0.09126506
29	0x3d087cb2	0.033322044
30	0x3dd2c948	0.102922976
31	0x3dc740e4	0.09729174
32	0xbdc5e0d9	-0.09662027
33	0x3d6fdbef	0.058559354
34	0x3ddd3ae1	0.10802246
35	0x3dd800c6	0.105470225
36	0x3db8c052	0.09021057
37	0x3d141fd6	0.036163174
38	0xbda958df	-0.08268904
39	0xbd0ae4d1	-0.033909623
40	0xbcb524db	-0.0221123
41	0xbd34c9f6	-0.044137917
42	0x3d14e558	0.03635153
43	0xbe2d3ac3	-0.16916947
44	0x3c33babe	0.010969816
45	0x3c17da90	0.009268418
46	0x3dda53a4	0.106604844
47	0xbd6a3e78	-0.05718848
48	0xbd16073a	-0.036627986
49	0x3d190a8a	0.037363566
50	0x3d52e095	0.05148371
51	0xbd06990c	-0.0328608
52	0xbdddb4e6	-0.10825519
53	0x3d475a4a	0.04867009
54	0xbd5647c3	-0.05231453
55	0xbd0d35c8	-0.034475118
56	0x3d9264bf	0.07148122
57	0x3da4fa98	0.080556095
58	0x3d45f165	0.048325915
59	0x3dacc9c1	0.08436919
60	0x3d967828	0.07347137
61	0xbd0b0adf	-0.033945914
62	0x3dd3008b	0.10302838
63	0xbd8e34e3	-0.06943681
64	0xbda76486	-0.0817347
65	0xbde267a8	-0.11054927
66	0x3cf8b0d4	0.030357756
67	0x3ca4da6f	0.020123689
68	0xbd1a008b	-0.037598174
69	0xbc41f334	-0.011837769
70	0xbd585ca7	-0.052822735
71	0x3b99366d	0.0046756775
72	0xbd93eda1	-0.072230585
73	0x3dc53747	0.09629684
74	0xbc813790	-0.015773565
75	0x3c9195e1	0.017771663
76	0x3cf2e2cb	0.029649159
77	0xbbebb6c7	-0.0071934196
78	0x3d75dc36	0.060024463
79	0x3d9a6efe	0.07540701
80	0x3ddc2fad	0.10751281
81	0x3dbdfa7a	0.0927629
82	0x3d9a8785	0.075453795
83	0x3c891d37	0.016737564
84	0xbd935544	-0.071939975
85	0xbd99c7e7	-0.075088315
86	0x3d6a40cc	0.0571907
87	0x3c977ae2	0.018491212
88	0x3d5a40eb	0.053284567
89	0xbd38ee41	-0.04514909
90	0x3cee4ebe	0.029090282
91	0x3da4fd88	0.0805617
92	0x3d816784	0.06318572
93	0xbb80ae0a	-0.003926997
94	0x3c3eba5f	0.011641114
95	0xbb969507	-0.004595402
96	0x3d92515f	0.071444266
97	0xbd018db8	-0.031629294
98	0x3d6788a8	0.05652681
99	0x3c44c807	0.012010581
100	0x3cbe880b	0.02325823
101	0xbc729c90	-0.014807835
102	0xbcebc26c	-0.028779231
103	0xbdcfdf94	-0.10150066
104	0x3d2b2985	0.041787643
105	0x3d92cfc0	0.071685314
106	0xbd489a8e	-0.04897552
107	0x3d801b1a	0.06255169
108	0x3d87f397	0.06638258
109	0xbc2e4688	-0.010636933
110	0x3d772c22	0.060344823
111	0x3dae4d3f	0.08510827
112	0xbd07b45e	-0.033130996
113	0xbd5032e8	-0.050829798
114	0xbdc79724	-0.09745625
115	0xbd4b037b	-0.049563866
116	0x3d8fe039	0.07025189
117	0x3dc6bd68	0.09704095
118	0x3ae0cbde	0.0017150601
119	0xbd60dad6	-0.0548962
120	0x3cf79443	0.030222064
121	0x3d4f9545	0.050679464
122	0xbd9ab59f	-0.07554173
123	0xbdb9867b	-0.09058853
124	0xbd2611d1	-0.040544335
125	0xbde31015	-0.11087052
126	0xbd874773	-0.06605425
127	0xbd98d427	-0.0746234
128	0xbda3a5d8	-0.079906166
129	0xbd288589	-0.041142974
130	0xbdad6c38	-0.08467907
131	0xbcc0f626	-0.023554873
132	0xbbee5ce9	-0.0072742593
133	0x3d1858a4	0.03719391
134	0x3cac0210	0.020997077
135	0x3ce6fa4b	0.02819552
136	0xbce51888	-0.027965799
137	0x3d867a7c	0.06566331
138	0xbdbd60a3	-0.092469476
139	0x3c7d100d	0.015445721
140	0xbdc1fa66	-0.09471588
141	0x3d7f7ac8	0.062372953
142	0xbd536e03	-0.051618587
143	0xbc093e17	-0.00837662
144	0x3d856c82	0.06514837
145	0x3d813490	0.063088536
146	0x3d92d875	0.07170192
147	0x3d9159c0	0.070971966
148	0x3d83394a	0.064074114
149	0x3b640c98	0.0034797546
150	0x3d6d7bc4	0.05797936
151	0x3dafdc8e	0.08586989
152	0x3cc1f11c	0.02367454
153	0x3d3adb72	0.045619436
154	0x3d0b2a13	0.033975672
155	0x3db61dda	0.088924125
156	0x3de4ec89	0.11177928
157	0x3dccdd62	0.10003163
158	0x3d81ef33	0.06344452
159	0xbbbb364c	-0.00571326
160	0x3da100db	0.07861491
161	0x3d1da85f	0.03849065
162	0x3e3439cc	0.17600173
163	0x3e3fbeb3	0.1872509
164	0xbcbc5529	-0.022989826
165	0xbe1809a5	-0.14847429
166	0xbd92ea6a	-0.07173617
167	0xbd928c45	-0.071556605
168	0x3bf0258f	0.007328696
169	0x3d5367c0	0.051612616
170	0x3c45a5da	0.012063468
171	0xbd9e9884	-0.07743934
172	0x3dc7802f	0.09741246
173	0xbb89e06c	-0.0042076614
174	0xbd12335d	-0.035693515
175	0xbcef0469	-0.029176908
176	0x3c5c46c5	0.013444607
177	0x3dd4987b	0.10380646
178	0x3e099a0f	0.13437675
179	0x3d66f09d	0.05638181
180	0x3d44f931	0.04808921
181	0x3daf05f1	0.08546055
182	0x3d6087b0	0.0548169
183	0xbd347325	-0.044055123
184	0x3d2dff75	0.04247995
185	0x3e0808e6	0.13284644
186	0x3db97939	0.090563245
187	0x3cdf47c1	0.027255895
188	0x3dfb050c	0.12256822
189	0x3c382bdf	0.011240928
190	0x3d8fc32e	0.070196494
191	0x3d82c71d	0.06385634
192	0x3d8bc289	0.06824214
193	0x3d120da5	0.035657544
194	0x3d582017	0.05276498
195	0xbd45ab08	-0.04825881
196	0x3c869789	0.01642968
197	0x3cd8f593	0.026484286
198	0x3d527925	0.051385064
199	0x3d0000c9	0.03125075
200	0x3e14c277	0.14527307
201	0xbcd8f18f	-0.026482372
202	0x3c82a2c0	0.015946746
203	0xbb8659c3	-0.004100056
204	0xbcde2b17	-0.027120156
205	0xbd8079af	-0.06273209
206	0x3ceac760	0.028659523
207	0x3de5264b	0.111889444
208	0x3da5e11e	0.08099578
209	0xbb9a7f25	-0.004714864
210	0x3d794113	0.060853075
211	0x3cdc4690	0.026889116
212	0xbe0ec09a	-0.13940659
213	0x3d91c640	0.07117891
214	0x3d95661d	0.07294867
215	0x3dd13e6f	0.102169864
216	0x3d3f470f	0.046698626
217	0x3e12fa4d	0.14353295
218	0x3dd61da1	0.1045487
219	0x3da5374f	0.0806719
220	0x3cb8402f	0.022491543
221	0xbd228f17	-0.039687242
222	0xbd5c6f70	-0.053817213
223	0x3e0983d4	0.13429195
224	0x3c892a90	0.016743928
225	0xbd69dd9b	-0.057096105
226	0xbd4a772a	-0.04943005
227	0xbd037c92	-0.03210122
228	0x3dbf5b54	0.09343591
229	0x3ddf930f	0.10916721
230	0xbc430482	-0.01190293
231	0xbc8f76f9	-0.017512785
232	0x3d274c8c	0.040844485
233	0xbcd71a48	-0.026257649
234	0xbd21f1a3	-0.039537083
235	0xbd9c0d37	-0.07619708
236	0x3d911a28	0.07085067
237	0xbbe570fd	-0.0070019946
238	0x3e2ef911	0.17087199
239	0x3e211d01	0.1573372
240	0x3d67ab0c	0.056559607
241	0x3da2814b	0.07934817
242	0xbd1a6306	-0.037692092
243	0x3d9a9375	0.075476564
244	0x3dd951de	0.10611318
245	0x3c118681	0.008882166
246	0x3d9a0df6	0.07522194
247	0x3d8ba8f9	0.06819338
248	0x3e01d71a	0.12679711
249	0x3db7d16c	0.08975491
250	0x3dbb7cd3	0.09154668
251	0x3dacf3b8	0.08444923
252	0x3d8371d8	0.06418198
253	0xbbcd1bc4	-0.0062594134
254	0x3d14efb5	0.036361415
255	0x3d53dc26	0.05172362

bias f4 [64]
0	0x3c9ff01d	0.019523675
1	0x3dc56a38	0.096394
2	0x3e125d46	0.14293393
3	0xbd88cbaa	-0.06679471
4	0x3d20cdde	0.03925883
5	0x3df0d935	0.11760179
6	0xbc8c8463	-0.01715297
7	0x3c928a87	0.01788832
8	0x3b608436	0.0034258491
9	0xbd303fdd	-0.043029655
10	0x3dcbc24f	0.09949171
11	0xbd7bd54d	-0.061482716
12	0xbd8f83e1	-0.07007576
13	0x3d7fb50d	0.062428523
14	0x3d65a5f1	0.056066457
15	0x3d67d1c9	0.05659655
16	0xbb7d61ea	-0.0038663098
17	0x3e1100fe	0.14160535
18	0x3c1f82dd	0.00973579
19	0x3d6206ca	0.055182256
20	0x3d8e65bb	0.06952997
21	0xbd7100fb	-0.058838826
22	0xbd010437	-0.03149816
23	0x3dc6e664	0.09711912
24	0x3bf246e3	0.0073937043
25	0x3d84a132	0.06476058
26	0xbd52d67d	-0.051474083
27	0xbdd9d0be	-0.106355175
28	0x3da80c57	0.08205479
29	0x3ca70d15	0.02039198
30	0x3d841d12	0.06450857
31	0xbdafe745	-0.08589033
32	0xbdc5a040	-0.09649706
33	0xbbc65ece	-0.006053782
34	0x3d000474	0.031254247
35	0x3e07d20e	0.13263723
36	0x3cc89f22	0.024489943
37	0xbd9fb0ad	-0.0779737
38	0xbd0a4a62	-0.033762343
39	0x3d9a150f	0.07523548
40	0x3d16af5b	0.036788326
41	0x3e00cb98	0.12577665
42	0x3dce4fd7	0.10073822
43	0x3d10b675	0.035330255
44	0x3d8bbf5e	0.0682361
45	0x3bca1ed0	0.006168224
46	0x3d092b29	0.033488426
47	0x3c948e77	0.018134339
48	0x3a22fbf0	0.0006217351
49	0x3e055cf7	0.13023745
50	0x3d8b293e	0.06794976
51	0x3cd1c386	0.025605928
52	0xbda3ed00	-0.080041885
53	0x3e00892a	0.12552324
54	0x3ca42569	0.02003737
55	0x3e1576e1	0.1459613
56	0xbb215ed6	-0.0024623177
57	0x3db317c8	0.0874477
58	0x3e051bc6	0.12998876
59	0x3d25981e	0.040428273
60	0x3e05ca96	0.13065562
61	0x3ccd803a	0.025085557
62	0x3d87de40	0.06634188
63	0x3d0472c5	0.032336015

weight f4 [32, 64]
0	0xbd540143	-0.051759016
1	0x3ba09596	0.0049006445
2	0x3dd56704	0.10420039
3	0x3d3ff107	0.04686072
4	0x3ce7173a	0.028209317
5	0x3d5944e0	0.0530442
6	0x3c599c9d	0.013281968
7	0x3cbd30ad	0.0230945
8	0x3d375bc5	0.044765253
9	0xbdbf9519	-0.0935461
10	0x3dacc3a8	0.08435756
11	0x3b5ea0f4	0.0033970447
12	0x3d470593	0.0485893
13	0x3d9202bc	0.07129428
14	0x3e17fe0b	0.14843003
15	0x3e1feb26	0.15617046
16	0x3db9ace1	0.09066177
17	0x3e3df976	0.18552193
18	0xbd1dab18	-0.038493246
19	0xbd4aed3a	-0.049542643
20	0x3e003987	0.12521945
21	0x3bc98a36	0.006150509
22	0xbe16430d	-0.14674015
23	0xbe27d7bf	-0.16390894
24	0xbd344476	-0.044010602
25	0x3c9907c5	0.018680463
26	0xbcc0c6ee	-0.023532357
27	0x3bd92c1f	0.006627574
28	0x3dc74c93	0.09731402
29	0xbdcd3990	-0.10020745
30	0x3e23e22b	0.16004245
31	0x3c10aa6d	0.008829695
32	0x3dc82bd0	0.097739816
33	0x3e445366	0.19172439
34	0xbd0a2cff	-0.033734318
35	0x3e1043a2	0.140883
36	0x3d9d22aa	0.07672627
37	0x3da86fdc	0.082244605
38	0xbcec01de	-0.028809484
39	0xbd301c40	-0.04299569
40	0x3dc651e8	0.09683591
41	0xbd5a9d32	-0.05337257
42	0x3c398fcd	0.011325789
43	0xbdbc38cf	-0.09190523
44	0x3e0f9479	0.14021482
45	0xbda8f476	-0.08249752
46	0x3d04317c	0.032273754
47	0x3e12d35f	0.14338444
48	0xbc626a0c	-0.013819229
49	0x3ddef574	0.1088666
50	0xbd69fcc4	-0.05712582
51	0xbd71a4e0	-0.058995128
52	0xbd8832f1	-0.06650341
53	0xbc69efd9	-0.014278376
54	0xba3cd793	-0.0007203754
55	0x3c6a0c16	0.014285108
56	0xbdf2d930	-0.118578315
57	0x3d93c2df	0.07214903
58	0xbd2a3cc6	-0.041561864
59	0xbdb5ed4b	-0.08883151
60	0xbced01ad	-0.028931463
61	0xbd3afa5d	-0.04564892
62	0x3e593fab	0.21215694
63	0xbde6e75b	-0.11274596
64	0x3d8ee8de	0.0697801
65	0xbd8c48ee	-0.06849848
66	0x3d242dce	0.040082745
67	0x3ddf9ba2	0.109183565
68	0xbd9b6239	-0.07587094
69	0xbc137953	-0.009001094
70	0x3aa88edb	0.0012859957
71	0xbd3ff466	-0.046863936
72	0x3d581846	0.052757524
73	0xbe06a42e	-0.13148567
74	0x3b81fa7d	0.003966628
75	0xbdbdd795	-0.09269635
76	0x3d7cb2d8	0.061693996
77	0xbdea8f3b	-0.114531
78	0xbbe59112	-0.007005819
79	0xbda65218	-0.08121127
80	0x3d5fe5ab	0.054662388
81	0x3b24affa	0.0025129304
82	0x3d16369a	0.036673166
83	0xbd82f115	-0.06393639
84	0xbd96b176	-0.07358067
85	0xbc07c287	-0.008286125
86	0x3d5c17b8	0.053733557
87	0x3d28e31c	0.041232213
88	0xbdb51905	-0.08842663
89	0x3dabbc3f	0.083855145
90	0xbc838953	-0.016056692
91	0x3d85d6f8	0.06535143
92	0xbd884f04	-0.06655696
93	0xbde73925	-0.11290196
94	0xbbb9cfd6	-0.005670528
95	0xbdac2f48	-0.08407456
96	0xbcacdec2	-0.021102313
97	0xbda56b6c	-0.0807713
98	0xba2337d6	-0.0006226277
99	0xbb19a70a	-0.002344551
100	0x3d8ff55a	0.07029219
101	0x3cd96884	0.026539095
102	0xbe03e203	-0.12879185
103	0x3dcb6823	0.09931972
104	0x3d373ccc	0.044735715
105	0xbd94623b	-0.072452985
106	0xbd30692e	-0.043069057
107	0x3d97cafb	0.07411762
108	0xbc85ad7c	-0.016318075
109	0xbd3b795b	-0.04577003
110	0x3cd7ed89	0.026358383
111	0xbddc60ca	-0.107606485
112	0xbca4be81	-0.02011037
113	0xbbf0f45f	-0.00735335
114	0x3d0326f2	0.032019563
115	0xbdf650e8	-0.120271504
116	0xbd9fb715	-0.07798592
117	0x3d124b07	0.035716083
118	0x3d968124	0.0734885
119	0xbdd0670d	-0.101759054
120	0xbda630e9	-0.081147976
121	0xbdcb3c7f	-0.09923648
122	0xbd4a9cb2	-0.049465843
123	0x3d6ccf46	0.05781486
124	0xbd360c01	-0.04444504
125	0x3d5cc7a5	0.053901333
126	0x3cb33a11	0.021878274
127	0xbdc6ea7b	-0.09712692
128	0xbd8f130c	-0.06986055
129	0xbcbe3df2	-0.023222897
130	0x3d213ce7	0.03936472
131	0xbd18cca9	-0.037304554
132	0xbd2904d5	-0.041264374
133	0x3dd9dee5	0.10638217
134	0x3c5d1c6e	0.013495548
135	0xbd526f02	-0.051375397
136	0xbddfa3e2	-0.1091993
137	0x3e3cbb6f	0.18430875
138	0x3db7ad9f	0.089686625
139	0xbde5e99f	-0.112262
140	0x3e04812d	0.12939902
141	0x3dc73aa0	0.09727979
142	0x3d2c790c	0.042107627
143	0xbe0897e7	-0.13339196
144	0xbd75e9ef	-0.06003755
145	0x3d0b36f8	0.03398797
146	0x3da590d9	0.08084268
147	0x3d1d3bf2	0.038387246
148	0x3d93eb1b	0.07222577
149	0x3d972ea3	0.07381942
150	0xbd6b24ff	-0.05740833
151	0x3d84d373	0.06485643
152	0xbdf74961	-0.12074543
153	0xbd8993ef	-0.06717669
154	0x3de31fe2	0.110900655
155	0xbdf9fe36	-0.1220669
156	0x3dc9166d	0.098187305
157	0x3db0d311	0.08634008
158	0xbde0c6f6	-0.10975449
159	0xbcc904e0	-0.024538457
160	0xbe2bbf01	-0.16772081
161	0x3d99f517	0.0751745
162	0x3e257ecc	0.1616165
163	0x3cbfbee2	0.02340645
164	0x3e090393	0.1338027
165	0xbdd0a713	-0.10188117
166	0x3d557367	0.05211201
167	0x3df9ee67	0.12203675
168	0x3d40057d	0.046880234
169	0x3dbb7447	0.091530375
170	0xbd34032b	-0.043948334
171	0x3e883312	0.26601464
172	0xbd6b8cfb	-0.057507496
173	0xbe209b66	-0.1568428
174	0x3cc5a347	0.024125708
175	0x3d14ef90	0.036361277
176	0x3d15893b	0.036507826
177	0x3e1407fa	0.14456168
178	0xbc8b8854	-0.01703278
179	0xbd8a677d	-0.0675802
180	0x3dcf270c	0.101148695
181	0x3db560aa	0.08856328
182	0x3e12a066	0.14319
183	0x3de2c32f	0.110723846
184	0xbcfa7a7b	-0.030575981
185	0x3cbf8aaa	0.02338155
186	0x3d598d0b	0.053113025
187	0x3cb09d96	0.021559518
188	0x3db9b3d6	0.09067504
189	0xbd8697ed	-0.06571946
190	0xbd958546	-0.073008105
191	0x3d996ecb	0.07491835
192	0xbca60bd3	-0.02026931
193	0x3e0127d4	0.1261285
194	0xbd7ea04d	-0.062164593
195	0xbcdc19cf	-0.026867775
196	0xbcd1cb88	-0.025609747
197	0x3db16d21	0.08663393
198	0xbc8e1832	-0.017345522
199	0x3caf6e3f	0.021414874
200	0x3dacb57a	0.084330514
201	0x3d81feda	0.06347437
202	0x3ca11248	0.019662037
203	0xbdceb4ac	-0.10093054
204	0x3d0ede5f	0.03488004
205	0x3df3e974	0.11909762
206	0xbdb5fd58	-0.08886212
207	0xbc603a8c	-0.013685834
208	0xbdcd15cb	-0.10013922
209	0x3e2c1ce2	0.16807893
210	0x3e17e833	0.1483467
211	0x3e01798d	0.12644024
212	0x3cbe632b	0.023240646
213	0xbcc18dcc	-0.023627184
214	0xbdcee2cb	-0.10101851
215	0x3dea3813	0.114364766
216	0xbd786a93	-0.060648512
217	0x3d515896	0.051109873
218	0x3e4b02c5	0.19825275
219	0xbb8badf1	-0.004262679
220	0xbcccd46a	-0.02500363
221	0x3d99d6b3	0.07511654
222	0xbd8b4dc2	-0.068019405
223	0xbdd2b796	-0.102889225
224	0xbe42801b	-0.18994181
225	0x3e0653b0	0.13117862
226	0x3da9fe84	0.08300498
227	0x3e06ca8d	0.13163204
228	0x3e38c6af	0.18044542
229	0xbd7ffe28	-0.06249824
230	0xbdd36322	-0.103216425
231	0xbb03dc9e	-0.0020120512
232	0xbd9fcb06	-0.078023955
233	0x3e0f5d7b	0.14000504
234	0x3e36d479	0.1785449
235	0x3e816b4f	0.25277182
236	0xbc8a946b	-0.016916474
237	0x3c5607f8	0.013063423
238	0x3db22098	0.08697623
239	0xbc4a7b79	-0.01235854
240	0x3d11b7e4	0.035575762
241	0xbd819ea2	-0.06329085
242	0x3d7a4161	0.061097506
243	0xbd069460	-0.032856345
244	0xbd26cc6d	-0.0407223
245	0x3e097a27	0.13425504
246	0x3ca5f6cf	0.02025929
247	0xbd8dcae5	-0.06923465
248	0x3d701106	0.058609985
249	0xbd3b580f	-0.045738276
250	0x3db3f287	0.08786493
251	0x3d5d423c	0.054018244
252	0x3d57eb7f	0.05271482
253	0x3dc5021f	0.09619545
254	0xbd0299d5	-0.031884987
255	0x3d88e734	0.066847235

bias f4 [32]
0	0x3e183eb7	0.14867674
1	0xbc9ed14f	-0.019386915
2	0x3d4d5597	0.050130453
3	0x3d84a7b4	0.06477299
4	0x3d3d84bb	0.04626916
5	0x3e46ea91	0.19425417
6	0x3a3de0e2	0.0007243288
7	0xbc35145d	-0.011052218
8	0xbcd3643c	-0.025804631
9	0x3d486d8f	0.04893261
10	0xbd710aea	-0.0588483
11	0x3de621ee	0.1123694
12	0xbd62c597	-0.055364218
13	0x3d25b6fb	0.040457707
14	0x3dcf9065	0.10134963
15	0x3e322abd	0.17399116
16	0xbd033749	-0.032035146
17	0x3da6b0e0	0.08139205
18	0xbd42e524	-0.047581807
19	0x3d63cfe8	0.055618197
20	0x3e19e69e	0.1502938
21	0xbe07c7cf	-0.13259815
22	0x3bc5cc94	0.0060363505
23	0x3df8bc02	0.12145235
24	0xbc99f95c	-0.018795662
25	0xbc3de83e	-0.011591015
26	0xbe0d5443	-0.13801675
27	0xbd80d5b5	-0.062907614
28	0x3e03f8df	0.12887906
29	0x3da45ce0	0.08025527
30	0xbc7ca481	-0.01542008
31	0xbde55319	-0.1119749

weight f4 [10, 32]
0	0x3dbff820	0.09373498
1	0xbc644c16	-0.013934156
2	0x3dd790b7	0.10525649
3	0x3e215b1a	0.15757409
4	0x3da7ecce	0.08199464
5	0x3e5fef30	0.21868587
6	0xbdf734e0	-0.12070632
7	0x3e5e6e6f	0.21721815
8	0x3db681a0	0.08911443
9	0xbe4532e8	-0.192577
10	0xbdc85862	-0.09782483
11	0xbcf3a97c	-0.029743902
12	0xbe7ab096	-0.24481425
13	0xbe1a148a	-0.15046898
14	0x3e1e22af	0.15442918
15	0x3e1013d5	0.14070065
16	0x3d843487	0.06455331
17	0xbe881cad	-0.26584378
18	0xbd4c8954	-0.049935654
19	0xbe04387e	-0.12912175
20	0x3d6eeabb	0.058329325
21	0xbdeacbbc	-0.114646405
22	0x3e835711	0.25652364
23	0xbdbb0983	-0.091326736
24	0x3d81371f	0.06309342
25	0x3e08740f	0.13325523
26	0xbe21830f	-0.15772651
27	0xbe13d63e	-0.14437196
28	0x3e252132	0.16125944
29	0x3e070d9b	0.13188784
30	0x3e4508ac	0.1924159
31	0xbdf72426	-0.12067442
32	0x3e489d65	0.19591291
33	0xbe0e1b73	-0.13877659
34	0xbdb3cf70	-0.087798
35	0xbc0689da	-0.008211577
36	0xbd97b582	-0.07407667
37	0x3ce8c710	0.028415233
38	0xbe241cad	-0.16026564
39	0xbcee1632	-0.029063318
40	0xbdf0b5a6	-0.11753397
41	0xbe5d00d8	-0.21582353
42	0x3e30c9a0	0.17264414
43	0xbdea05b4	-0.11426869
44	0x3e59df64	0.21276623
45	0x3e7314ca	0.23738399
46	0x3e3b34a9	0.18281807
47	0xb929dd5d	-0.0001619956
48	0x3d74e14b	0.05978517
49	0xbdabd50e	-0.08390246
50	0xbd51b49a	-0.051197626
51	0x3d8a814c	0.06762943
52	0x3e37ec1b	0.17961161
53	0xbdaa9886	-0.08329873
54	0xbd2b9af0	-0.041895807
55	0x3e4c55a2	0.19954541
56	0xbdee0e8d	-0.11623869
57	0xbe1a9a28	-0.15097868
58	0x3e1e84e4	0.15480381
59	0xbd9ccdea	-0.076564625
60	0x3e16d1b3	0.14728431
61	0x3dc9d0e1	0.098542936
62	0xbc93b40b	-0.018030187
63	0x3d82f918	0.06395167
64	0xbddffa54	-0.10936418
65	0x3df9c563	0.12195852
66	0xbc09c4f6	-0.008408776
67	0xbd8274bc	-0.063699216
68	0x3d8fee32	0.07027854
69	0x3df5f924	0.120104104
70	0xbdaa3608	-0.08311087
71	0x3da808e9	0.082048245
72	0x3db5cd22	0.088770166
73	0x3e43a145	0.19104488
74	0x3e5e1f36	0.21691594
75	0xbe24a40e	-0.16078207
76	0xbe2a5bc1	-0.16636564
77	0x3de5fbe3	0.11229684
78	0x3e00f4e5	0.1259342
79	0x3cd256b0	0.025676101
80	0xbe06f1eb	-0.13178222
81	0x3d3250fb	0.04353426
82	0xbe89c8d6	-0.26911038
83	0x3c2b45aa	0.010453621
84	0x3c6f8857	0.014619908
85	0xbce379e0	-0.027768075
86	0x3e289d8a	0.16466346
87	0x3e0a1e08	0.13488019
88	0x3de10cbc	0.10988757
89	0x3e21eaf4	0.15812284
90	0x3bc31bec	0.0059542563
91	0x3da6a534	0.08136979
92	0xbd79c3e5	-0.060977835
93	0x3e0d2a6b	0.13785712
94	0xbe1102c5	-0.14161213
95	0xbe32e0a5	-0.17468508
96	0x3deee8af	0.116654746
97	0xbc058382	-0.00814903
98	0xbb9ef746	-0.0048512546
99	0x3c88b495	0.01668767
100	0xbdc4467d	-0.09583757
101	0xbdbe80bf	-0.093019
102	0x3dd1923b	0.102329694
103	0xbe28fbbb	-0.16502278
104	0xbd46bc81	-0.048519615
105	0xbdbe3bcb	-0.09288748
106	0xbd7bf41c	-0.061512098
107	0x3df27b62	0.1183994
108	0x3ba224e3	0.004948245
109	0x3e199a40	0.15000248
110	0xbe392639	-0.18080987
111	0xbc144d96	-0.009051701
112	0x3d3f5ed1	0.046721283
113	0xbc493771	-0.012281285
114	0xbe03d8d1	-0.12875678
115	0x3de2280e	0.11042796
116	0xbe144e83	-0.14483075
117	0x3dad6965	0.08467368
118	0x3d4f6d0d	0.05064111
119	0xbe3bf329	-0.18354477
120	0x3dabc2c3	0.08386757
121	0xbd2816a6	-0.041037224
122	0xbd958e0f	-0.07302486
123	0xbcb1f67e	-0.021723982
124	0x3d961ba8	0.07329494
125	0xbcdee000	-0.02720642
126	0xbd32077f	-0.04346418
127	0x3e2e3be7	0.17015038
128	0x3e37a98b	0.1793577
129	0xbdb3c272	-0.08777322
130	0xbdca7a54	-0.098866135
131	0xbe833a52	-0.25630432
132	0x3d728317	0.05920705
133	0xbd87f2a9	-0.066380806
134	0xbcb19ef5	-0.021682242
135	0x3e34c8b0	0.17654681
136	0x3dc0a019	0.09405536
137	0x3dd02ca6	0.10164766
138	0x3e2d0eab	0.16900127
139	0x3de5c1e6	0.11218624
140	0xbd007afa	-0.03136728
141	0xbe8e80e2	-0.27832705
142	0xbc22b854	-0.009931643
143	0x3d218201	0.039430622
144	0xbdc3c8ea	-0.09559806
145	0xbd406777	-0.04697367
146	0x3da149d7	0.07875412
147	0x3e5c29a8	0.21500266
148	0x3cccbfe2	0.02499384
149	0xbcfa43b3	-0.03054986
150	0xbe5432eb	-0.20722549
151	0x3d182b3d	0.03715061
152	0x3d18546f	0.037189897
153	0x3e28fcb3	0.16502647
154	0x3c047708	0.00808502
155	0xbe2c1265	-0.16803892
156	0xbe04a6c7	-0.12954246
157	0xbd9f4772	-0.07777299
158	0xbe39abb3	-0.18131904
159	0x3e236826	0.15957698
160	0xbe4b294f	-0.19839977
161	0x3e15984a	0.14608875
162	0xbe04aaf1	-0.12955834
163	0xbe1ce62e	-0.15322182
164	0x3c4cc6f2	0.012498604
165	0x3d1aed4d	0.037823964
166	0xbd127edb	-0.03576551
167	0xbb9c68b4	-0.004773224
168	0xbe3f0eb2	-0.1865795
169	0x3df73b46	0.120718524
170	0x3da05abf	0.078298084
171	0xbe462d69	-0.1935326
172	0x3d853866	0.06504898
173	0xbb803242	-0.003912241
174	0xbe34832f	-0.17628168
175	0x3d14894a	0.03626374
176	0xbe2dd255	-0.16974767
177	0xbe2569eb	-0.16153686
178	0xbd7eb8d6	-0.062187992
179	0xbd9a1671	-0.075238116
180	0xbd3155f5	-0.043294866
181	0x3dc27612	0.094951764
182	0xbbd6240f	-0.0065350602
183	0xbd3e4b8c	-0.046458766
184	0x3d04a856	0.0323871
185	0x3cd15191	0.02555159
186	0x3c1283b3	0.008942532
187	0xbdf48f93	-0.11941447
188	0xbdb22438	-0.086983144
189	0xbd561023	-0.052261483
190	0xbe2f2b50	-0.17106366
191	0x3d3b5550	0.045735657
192	0xbe2e2563	-0.1700645
193	0xbdae5e06	-0.08514027
194	0xbcad4974	-0.02115319
195	0x3e0c774f	0.13717388
196	0x3ce0f711	0.02746156
197	0xbe42d25c	-0.19025558
198	0xb8ba5fc2	-8.8870074e-05
199	0x3daafd1d	0.08349059
200	0xbde7e2c6	-0.113225505
201	0x3cca4c70	0.024694651
202	0x3db9178f	0.090376966
203	0xbda9ad61	-0.082850225
204	0x3d0883a2	0.03332866
205	0xbdc50ad2	-0.096212044
206	0xbd57ab90	-0.05265385
207	0x3dfe227a	0.1240892
208	0xbe541db4	-0.20714456
209	0xbd91b792	-0.071150914
210	0x3dae12ec	0.08499703
211	0x3c9cbed2	0.019133959
212	0xbe06f5ef	-0.13179754
213	0xbda7aa03	-0.08186724
214	0xbdea4c60	-0.114403486
215	0xbe488ed8	-0.1958574
216	0x3d9286b1	0.071545966
217	0xbe3109f7	-0.17288958
218	0x3dbc3af4	0.09190932
219	0xbd6325ff	-0.055456158
220	0xbe12c430	-0.14332652
221	0xbe04ba48	-0.12961686
222	0xbb9dc95b	-0.004815263
223	0x3d3165f1	0.04331011
224	0x3e04e29a	0.12977067
225	0x3c82bfac	0.015960537
226	0xbe24078c	-0.16018504
227	0x3df39d3c	0.118952245
228	0x3deafd47	0.1147409
229	0xbc1b7c45	-0.009490077
230	0xbe100cbf	-0.14067362
231	0xbe01e869	-0.12686314
232	0xbd91f974	-0.071276575
233	0x3d9a8f81	0.075469024
234	0x3e134210	0.1438067
235	0xbdf449d9	-0.11928148
236	0xbe6419d5	-0.22275479
237	0xbe027ed7	-0.12743698
238	0xbd7a775b	-0.061148982
239	0xbc1b5003	-0.0094795255
240	0xbe383aa2	-0.17991117
241	0xbd9fd071	-0.07803429
242	0x3da51742	0.08061077
243	0xbda048de	-0.07826398
244	0xbe3aa78c	-0.18227977
245	0x3be770ff	0.0070630307
246	0xbd27d778	-0.04097697
247	0x3a63d6b9	0.0008691359
248	0xbd4b25e2	-0.049596675
249	0x3dc9d326	0.098547265
250	0xbe07065e	-0.13186023
251	0x3d8659ef	0.06560122
252	0x3d92015e	0.07129167
253	0xbdfba826	-0.12287931
254	0x3d0a22e2	0.033724673
255	0x3dca44e9	0.09876425

bias f4 [10]
0	0x3d1cefd9	0.038314674
1	0x3de0158d	0.109416105
2	0xbded739b	-0.115943156
3	0xbe06f1bc	-0.13178152
4	0xbd718e15	-0.05897339
5	0xbd80669b	-0.062695704
6	0xbda7128d	-0.08157835
7	0x3dab4bff	0.083641045
8	0x3dd5f03f	0.10446214
9	0xbe272046	-0.16320905
