trained_models/model.pt (torch, 42135 bytes, 6 tensors)

weight f4 [8, 3, 3, 3]
0.0930727 0.007007814 0.1145893 0.026800036 -0.01869863 0.1541331 0.105014086 -0.1134334
0.05577069 -51.43634 -77.54904 -88.729996 -56.755093 61.25499 40.026127 24.258377
71.203865 73.192795 52.550022 69.10968 57.24033 53.387806 67.62925 36.12876
5.543191 66.39869 -53.74868 0.06731321 -0.0016627556 0.034265403 -0.15664093 0.14289829
0.1321951 0.017275732 -0.03531685 0.15208808 52.156326 32.823402 36.066303 -68.241356
73.86627 74.166695 -18.677929 37.616383 33.33301 39.61304 41.147312 71.77076
-41.313473 -7.280867 -38.244 44.94977 3.377738 69.69413 -0.03355978 -0.15539186
-0.10157623 0.15418084 0.062017433 -0.09436036 -0.010734303 0.035502907 0.097997 -78.480644
26.599974 79.667915 -81.10731 -84.14169 32.857662 68.09341 35.685844 77.30022
16.828636 -30.131634 -37.31775 -19.684277 38.3877 56.35051 -71.329445 -32.8694
-56.112915 0.15588681 -0.04692769 0.035799935 0.0056076734 0.16831495 0.17392561 -0.008049281
-0.048701897 -0.054570764 -68.068825 58.500935 38.45816 -26.193485 39.92328 -42.575905
-15.085982 -8.098227 -44.341507 -62.848053 -47.804787 71.9892 29.292536 -34.924232
-56.83251 19.592897 -4.1081343 -73.70488 -0.08773345 -0.09820756 -0.014187532 0.15871446
0.053839218 0.05431767 -0.048803326 -0.06341881 -0.098002255 -35.562733 8.281552 92.756775
70.689896 -6.969126 -61.620323 51.795498 -79.77432 7.3425813 60.703655 57.047596
32.18569 -33.075966 -23.278625 53.425327 -53.24392 -28.495653 58.02113 -0.10978516
0.14832832 -0.0028006937 -0.028859938 -0.08256493 0.009643969 -0.1858102 -0.1005957 -0.016856378
-18.523785 51.43869 75.86732 12.577392 37.738808 87.96395 -85.83814 20.956692
55.186413 33.802803 83.48798 38.791862 53.09267 -2.9241943 54.821342 -55.599403
-29.376074 -48.30575 0.11532461 0.055958424 0.12816031 0.099868715 0.1748491 -0.08413277
0.08800641 -0.10437536 0.033105303 41.302864 -18.630444 11.439909 -1.7292224 -41.611404
-69.1327 3.590791 69.175575 57.985054 35.616962 39.071663 22.723753 -64.65335
-37.084713 42.080894 73.90641 -61.392345 -57.89489 -0.1630504 -0.03776034 -0.12835741
0.058124248 0.12722243 -0.012848714 0.18857436 0.06321539 -0.15799545 -50.95283 74.728905
-48.98804 -89.60809 -46.1016 65.06013 42.978615 64.47673 23.180473 57.445667
56.768715 30.212175 34.068665 70.499916 61.24895 -61.447712 -74.66442 -57.260456
00000000: e69c be3d cea1 e53b cbad ea3d c08b db3c
00000010: df2d 99bc 11d5 1d3e a011 d73d c54f e8bd
00000020: cf6f 643d d0be 4dc2 1c19 9bc2 c275 b1c2
00000030: 3705 63c2 1c05 7542 c11a 2042 2811 c241
00000040: 6168 8e42 b662 9242 3933 5242 2838 8a42
00000050: 19f6 6442 1d8d 5542 2d42 8742 da83 1042
00000060: d261 b140 21cc 8442 a6fe 56c2 82db 893d
00000070: d2f0 d9ba e159 0c3d 7b66 20be ee53 123e
00000080: 275e 073e d685 8d3c 67a8 10bd fabc 1b3e
00000090: 14a0 5042 2a4b 0342 e543 1042 937b 88c2
000000a0: 88bb 9342 5955 9442 666c 95c1 2d77 1642
000000b0: 0155 0542 c173 1e42 d996 2442 a18a 8f42
000000c0: ff40 25c2 ddfc e8c0 dbf9 18c2 91cc 3342
000000d0: dc2c 5840 6563 8b42 fb75 09bd 0b1f 1fbe
000000e0: 3307 d0bd 95e1 1d3e fe05 7e3d 0140 c1bd
000000f0: eede 2fbc 7f6b 113d a7b2 c83d 17f6 9cc2
00000100: bfcc d441 f955 9f42 f136 a2c2 8c48 a8c2
00000110: 3f6e 0342 d32f 8842 4ebe 0e42 b699 9a42
00000120: 0ca1 8641 960d f1c1 6045 15c2 6679 9dc1
00000130: 018d 1942 ec66 6142 ada8 8ec2 447a 03c2
00000140: a073 60c2 cba0 1f3e 4037 40bd f4a2 123d
00000150: 93c0 b73b c15a 2c3e 8e19 323e 22e1 03bc
00000160: a47b 47bd 9885 5fbd 3d23 88c2 f500 6a42
00000170: 28d5 1942 428c d1c1 70b1 1f42 ba4d 2ac2
00000180: 2f60 71c1 5692 01c1 b45d 31c2 6864 7bc2
00000190: 1a38 3fc2 78fa 8f42 1d57 ea41 6ab2 0bc2
000001a0: 7e54 63c2 41be 9c41 d675 83c0 e668 93c2
000001b0: 98ad b3bd 0c21 c9bd d272 68bc 0b86 223e
000001c0: 8386 5c3d 357c 5e3d ffe5 47bd b9e1 81bd
000001d0: 68b5 c8bd 3d40 0ec2 3d81 0441 7883 b942
000001e0: 3a61 8d42 1503 dfc0 367b 76c2 972e 4f42
000001f0: 748c 9fc2 6df6 ea40 8bd0 7242 bd30 6442
00000200: 26be 0042 ca4d 04c2 a03a bac1 89b3 5542
00000210: c6f9 54c2 19f7 e3c1 a315 6842 0bd7 e0bd
00000220: 61e3 173e d88b 37bb ad6b ecbc cd17 a9bd
00000230: bd01 1e3c 0745 3ebe 1e05 cebd 6316 8abc
00000240: b630 94c1 38c1 4d42 11bc 9742 ff3c 4941
00000250: 8af4 1642 8bed af42 21ad abc2 4ea7 a741
00000260: e3be 5c42 1236 0742 d9f9 a642 de2a 1b42
00000270: e55e 5442 0026 3bc0 0e49 5b42 ca65 5ec2
00000280: 3302 ebc1 1739 41c2 4f2f ec3d a934 653d
00000290: 753c 033e f887 cc3d a40b 333e cd4d acbd
000002a0: b43c b43d c0c2 d5bd 6d99 073d 2236 2542
000002b0: 260b 95c1 de09 3741 2957 ddbf 1472 26c2
000002c0: f143 8ac2 85cf 6540 e559 8a42 b2f0 6742
000002d0: c577 0e42 6249 1c42 3fca b541 844e 81c2
000002e0: bf56 14c2 d652 2842 15d0 9342 c391 75c2
000002f0: 5e94 67c2 aff6 26be 96aa 1abd 2070 03be
00000300: b113 6e3d 9946 023e 6a83 52bc a319 413e
00000310: 1277 813d 8fc9 21be b3cf 4bc2 3375 9542
00000320: c1f3 43c2 5837 b3c2 0a68 38c2 c91e 8242
00000330: 1aea 2b42 16f4 8042 9c71 b941 5dc8 6542
00000340: 2a13 6342 89b2 f141 5046 0842 f5ff 8c42
00000350: edfe 7442 75ca 75c2 2f54 95c2 b50a 65c2

bias f4 [8]
38.1029 45.46862 -48.064156 25.82226 -88.172356 -85.61825 32.901108 -84.348656
00000000: 5f69 1842 dedf 3542 b241 40c2 fd93 ce41
00000010: 3f58 b0c2 8b3c abc2 bc9a 0342 83b2 a8c2

weight f4 [32, 288]
30.442755 12.979995 -23.65216 -79.01948 -76.47479 -44.7563 23.33464 1.1872965
-84.39661 -64.12279 -49.43066 19.549173 57.400543 75.65061 -43.938934 -74.356476
-51.53943 62.648582 35.47758 -14.154629 65.36603 73.47577 72.77826 64.878555
58.554688 65.32851 43.951885 45.1228 46.473114 59.68617 74.031555 79.825775
61.107933 41.674355 36.57207 -9.741972 71.29879 93.404015 91.42546 86.08494
68.838036 57.118404 43.50761 47.1061 94.97689 -42.14577 38.78674 -89.34398
29.936134 35.40441 83.590645 -38.83162 -20.349155 -34.908966 31.078985 18.813942
66.67338 -63.31349 -69.43645 -15.947671 49.561283 47.00846 -53.652245 -41.579216
-66.431366 -28.716341 18.417452 -74.468414 54.416035 56.3058 54.93535 60.622574
-48.661144 48.581913 0.03300429 67.28728 73.43474 80.29682 -29.43186 44.881935
79.48664 -64.66495 -62.630787 -76.095665 54.274193 52.382298 33.419754 -47.562878
29.892195 -61.507084 -15.238213 -5.1494856 -11.024372 -33.199085 -51.01456 -50.87079
42.57305 -28.109411 51.87057 64.771645 -3.5005558 20.238153 -44.478123 -54.040768
-34.636864 81.780235 36.023106 -53.628445 68.20718 -70.76834 -75.293076 -82.96614
-24.756376 -21.76144 79.26688 -61.483814 -69.693016 -76.49422 -60.394695 -75.06007
53.996944 -76.34097 -53.587864 -64.21162 -47.866783 -70.40466 -25.364738 6.3312707
-22.961239 -34.57077 -48.391953 -67.55722 61.55665 -26.575066 -10.153489 -11.638613
-27.349058 43.45643 -35.828262 62.826244 -41.019135 -24.628658 -48.83016 38.42693
55.45823 -64.85795 -85.73375 -29.177568 -44.78739 -28.77847 52.362263 -64.72918
-74.45404 -62.21264 -76.53069 -37.689323 86.91135 -21.352188 -61.92067 -54.089954
-68.322235 -79.12922 64.41902 -57.864807 -31.583275 -25.829205 -31.587145 -70.17597
43.390118 -68.74286 -33.249542 -29.194706 -37.174347 52.197422 62.103992 57.170815
70.997406 57.343994 13.308128 31.623604 26.125942 19.935492 12.878679 48.92043
16.998415 58.33308 49.646328 63.54994 67.33871 -48.935055 -67.408165 -26.4549
62.991753 62.075275 58.809147 69.95912 44.05273 35.282036 41.198418 73.713234
86.83207 75.607086 46.19059 -5.6267037 24.76593 -53.31517 29.964659 74.850334
57.772167 66.81545 -37.13585 -59.901947 16.447533 42.086575 22.803421 12.744607
82.01996 79.23027 58.37019 5.6709046 -14.01718 81.40956 80.17952 80.44329
50.63693 -57.735146 -66.53095 20.956505 45.808567 33.030968 -56.384445 26.756823
24.429178 -50.238274 48.580048 41.725574 55.90222 45.14886 49.6826 -44.75503
33.576588 30.285763 -67.41065 67.01528 72.77078 -47.085266 60.261024 24.577766
55.78405 58.959415 72.04795 -92.215164 21.953735 0.48158467 21.355913 -60.345413
00000000: c38a f341 0fae 4f41 a037 bdc1 f909 9ec2
00000010: 18f3 98c2 7406 33c2 58ad ba41 55f9 973f
00000020: 10cb a8c2 de3e 80c2 ffb8 45c2 b564 9c41
00000030: 289a 6542 1d4d 9742 78c1 2fc2 84b6 94c2
00000040: 6028 4ec2 2698 7a42 0be9 0d42 5c79 62c1
00000050: 68bb 8242 98f3 9242 788e 9142 d2c1 8142
00000060: 0038 6a42 32a8 8242 bbce 2f42 bf7d 3442
00000070: 78e4 3942 a3be 6e42 2810 9442 cca6 9f42
00000080: 866e 7442 8ab2 2642 cd49 1242 1edf 1bc1
00000090: fb98 8e42 dbce ba42 d6d9 b642 7d2b ac42
000000a0: 13ad 8942 3f79 6442 cb07 2e42 a56c 3c42
000000b0: 2bf4 bd42 4595 28c2 9f25 1b42 1eb0 b2c2
000000c0: 347d ef41 1e9e 0d42 692e a742 9453 1bc2
000000d0: 12cb a2c1 c8a2 0bc2 c3a1 f841 f482 9641
000000e0: c558 8542 0441 7dc2 76df 8ac2 a929 7fc1
000000f0: c13e 4642 aa08 3c42 e69b 56c2 1e51 26c2
00000100: dcdc 84c2 11bb e5c1 f156 9341 d4ef 94c2
00000110: 05aa 5942 2439 6142 ccbd 5b42 847d 7242
00000120: 03a5 42c2 e153 4242 822f 073d 1693 8642
00000130: 96de 9242 f997 a042 7374 ebc1 1a87 3342
00000140: 29f9 9e42 7454 81c2 ed85 7ac2 fb30 98c2
00000150: c618 5942 7987 5142 d4ad 0542 6340 3ec2
00000160: 3723 ef41 4107 76c2 b8cf 73c1 96c8 a4c0
00000170: d463 30c1 ddcb 04c2 e90e 4cc2 b07b 4bc2
00000180: ce4a 2a42 13e0 e0c1 777b 4f42 158b 8142
00000190: 1b09 60c0 bde7 a141 99e9 31c2 bf29 58c2
000001a0: 268c 0ac2 7b8f a342 a917 1042 8783 56c2
000001b0: 136a 8842 6489 8dc2 0e96 96c2 aaee a5c2
000001c0: 0f0d c6c1 6e17 aec1 a488 9e42 6def 75c2
000001d0: d362 8bc2 0afd 98c2 2b94 71c2 c11e 96c2
000001e0: dffc 5742 94ae 98c2 f959 56c2 596c 80c2
000001f0: 9677 3fc2 30cf 8cc2 fcea cac1 c599 ca40
00000200: 9eb0 b7c1 7848 0ac2 5c91 41c2 4c1d 87c2
00000210: 023a 7642 bc99 d4c1 b174 22c1 c237 3ac1
00000220: dfca dac1 62d3 2d42 2450 0fc2 134e 7b42
00000230: 9813 24c2 7e07 c5c1 1552 43c2 2db5 1942
00000240: 3ad5 5d42 45b7 81c2 ae77 abc2 a96b e9c1
00000250: 4a26 33c2 4e3a e6c1 f572 5142 5775 81c2
00000260: 78e8 94c2 bed9 78c2 b70f 99c2 dec1 16c2
00000270: 9cd2 ad42 48d1 aac1 c4ae 77c2 1d5c 58c2
00000280: fca4 88c2 2942 9ec2 8ad6 8042 9075 67c2
00000290: 8caa fcc1 36a2 cec1 79b2 fcc1 195a 8cc2
000002a0: 7b8f 2d42 587c 89c2 88ff 04c2 c28e e9c1
000002b0: 88b2 14c2 29ca 5042 7d6a 7842 eaae 6442
000002c0: acfe 8d42 4060 6542 18ee 5441 24fd fc41
000002d0: ee01 d141 e37b 9f41 120f 4e41 85ae 4342
000002e0: c1fc 8741 1355 6942 d795 4642 2333 7e42
000002f0: 6bad 8642 7fbd 43c2 fbd0 86c2 a3a3 d3c1
00000300: 8ef7 7b42 154d 7842 913c 6b42 12eb 8b42
00000310: ff35 3042 ce20 0d42 2ecb 2442 2d6d 9342
00000320: 05aa ad42 d436 9742 2ac3 3842 f50d b4c0
00000330: a020 c641 bc42 55c2 9fb7 ef41 5fb3 9542
00000340: b316 6742 83a1 8542 1c8b 14c2 989b 6fc2
00000350: 8c94 8341 a758 2842 686d b641 e9e9 4b41
00000360: 380a a442 e675 9e42 137b 6942 0d78 b540
00000370: 5f46 60c1 b2d1 a242 ea5b a042 f7e2 a042
00000380: 378c 4a42 caf0 66c2 d90f 85c2 eca6 a741
00000390: f93b 3742 b61f 0442 ac89 61c2 f90d d641
000003a0: f56e c341 fef3 48c2 f851 4242 fde6 2642
000003b0: e09b 5f42 6f98 3442 fbba 4642 2705 33c2
000003c0: 6d4e 0642 3e49 f241 41d2 86c2 d307 8642
000003d0: a48a 9142 5057 3cc2 4a0b 7142 449f c441
000003e0: de22 5f42 71d6 6b42 8d18 9042 2a6e b8c2
000003f0: 40a1 af41 4492 f63e e9d8 aa41 b461 71c2

bias f4 [32]
-29.931116 -30.454136 17.881931 18.719854 51.69319 -30.853765 30.492577 30.016375
30.179537 60.682858 6.6386023 -30.104227 -41.762665 70.174805 -29.901596 -18.089012
3.6456065 44.47548 -43.892056 -75.47403 -4.755354 27.483656 30.041262 -29.937342
54.654095 -30.310549 30.035473 13.061815 -30.34433 30.116081 29.946743 30.005968
00000000: ed72 efc1 12a2 f3c1 320e 8f41 43c2 9541
00000010: d4c5 4e42 83d4 f6c1 ccf0 f341 8921 f041
00000020: b16f f141 3fbb 7242 6e6f d440 75d5 f0c1
00000030: f80c 27c2 8059 8c42 7836 efc1 4cb6 90c1
00000040: 9e51 6940 e4e6 3142 7791 2fc2 b4f2 96c2
00000050: dc2b 98c0 87de db41 8154 f041 ad7f efc1
00000060: cb9d 5a42 017c f2c1 a648 f041 32fd 5041
00000070: 30c1 f2c1 bced f041 ee92 ef41 390c f041

weight f4 [3, 32]
26.651432 7.977446 -6.6483097 40.05598 8.602302 -27.266447 28.53451 -17.886591
1.3861669 -26.810434 -23.698784 19.515575 -43.91489 3.8799992 -14.517262 -6.5995736
-49.143677 -0.43477324 -15.453477 -27.435434 -24.092379 -30.205011 -7.3742523 9.326963
13.21809 -11.207002 -24.342604 -34.320377 10.566812 -4.7734203 -20.050156 -4.6336184
-29.475208 -33.946224 27.473186 -44.076912 -25.888693 36.87619 -36.70047 6.2278037
16.357615 30.849718 24.65744 -39.869896 39.356003 -29.020893 55.70645 -39.12195
25.888536 34.650024 28.530886 23.609795 29.82606 34.70132 26.048557 -33.85683
-17.29393 31.50846 20.226881 27.859314 -40.77406 -21.046146 44.634052 18.571684
-4.3459773 36.85347 6.6085844 21.038147 -29.4466 -9.388915 -6.1648536 12.042352
-40.983036 -19.218634 6.8621035 36.506275 38.630676 -16.779535 -12.293446 -14.0840225
-15.479817 -21.575308 29.460684 35.37473 21.51469 -24.20451 -38.76734 4.7833962
-15.907225 5.2133694 5.6717954 -0.12544718 44.210026 13.478866 -40.4794 -1.8595301
00000000: 2236 d541 3d47 ff40 f4be d4c0 5339 2042
00000010: 07a3 0941 af21 dac1 ad46 e441 bd17 8fc1
00000020: eb6d b13f c57b d6c1 1c97 bdc1 e61f 9c41
00000030: d9a8 2fc2 e851 7840 b546 68c1 b52f d3c0
00000040: 2093 44c2 999a debe 7141 77c1 c57b dbc1
00000050: 31bd c0c1 dda3 f1c1 e0f9 ebc0 3e3b 1541
00000060: 4c7d 5341 e14f 33c1 a7bd c2c1 1148 09c2
00000070: a911 2941 dcbf 98c0 b866 a0c1 9a46 94c0
00000080: 3acd ebc1 efc8 07c2 16c9 db41 c24e 30c2
00000090: 0b1c cfc1 3881 1342 48cd 12c2 2b4a c740
000000a0: 65dc 8241 39cc f641 7042 c541 c67a 1fc2
000000b0: 8c6c 1d42 ca2a e8c1 68d3 5e42 e07c 1cc2
000000c0: b91b cf41 a099 0a42 413f e441 dce0 bc41
000000d0: c59b ee41 27ce 0a42 7263 d041 656d 07c2
000000e0: f859 8ac1 5311 fc41 a7d0 a141 e0df de41
000000f0: a318 23c2 825e a8c1 4589 3242 cf92 9441
00000100: 3f12 8bc0 f469 1342 8679 d340 204e a841
00000110: a392 ebc1 ff38 16c1 7b46 c5c0 79ad 4041
00000120: a1ee 23c2 c3bf 99c1 5a96 db40 6d06 1242
00000130: d085 1a42 7d3c 86c1 f4b1 44c1 2858 61c1
00000140: 55ad 77c1 3b9a acc1 7baf eb41 b97f 0d42
00000150: 161e ac41 d6a2 c1c1 c211 1bc2 9511 9940
00000160: fe83 7ec1 ecd3 a640 597f b540 3a75 00be
00000170: 11d7 3042 6fa9 5741 e8ea 21c2 1505 eebf

bias f4 [3]
97.45455 -91.31233 -99.53579
00000000: bbe8 c242 ea9f b6c2 5312 c7c2
