trained_models/model.pt (torch, 42135 bytes, 6 tensors)

weight f4 [8, 3, 3, 3]
00000000: 44ae febd 0fb9 85bd d7fc 3b3a cd50 40be
00000010: 2980 3f3e f536 2fbe 0cb7 6cbd 0ff6 06be
00000020: 59b7 33be ae82 8ebe 6575 cebb d02b 57bd
00000030: 5c09 8fbc a9b1 bebd 644e 953d fa01 56be
00000040: ecf5 5c3e ed39 46bd 342b a8bc 4b41 023d
00000050: 0938 da3b 75e7 e6bd e0cf a0bc 7fc1 fabc
00000060: 9326 273d 32ca fdbc 1ada 87bd 39c4 fdbb
00000070: d2bb 43bd d68e ec3d d28d 093e b7c3 d7bd
00000080: 0e37 ba3d d91f 3a3e 3f48 bebd d3ce 11bd
00000090: 0aec 8fbe d23e 29be 270a 413e 1523 a7bd
000000a0: 05c4 7f3e 367a 163c 7b9e 41be bc98 ca3c
000000b0: d04a d7bd c801 103d 0dfa 54be be71 0cbb
000000c0: 664a c53d 5aa9 74bc dc20 f53d abaa c93c
000000d0: e0bc 7f3d aea1 afbd 91f4 9f3b 3815 da3d
000000e0: 7365 e0bd da0c 303e 4962 c7bc 6340 4a3c
000000f0: ad8a 093e 3c2f c13d 5bd8 dbbd e9fa 1dbe
00000100: f000 1c3c db94 28be 59a1 1fbe 42e3 233d
00000110: 26d9 99bd e821 e0bd 06ae 0abe 4566 3c3d
00000120: eb61 a13d ed56 7d3d b4eb 23be 89de 16bd
00000130: f15d dab7 94a0 803c 97ce e6bb 6e97 00bd
00000140: eab0 c73c 5ca1 b83d 7443 36bd 9697 9b3b
00000150: ee55 17be 40cb cf3d d23c 3abe 8a14 3abe
00000160: d4bd 323e 299c a83d 34e1 9e3d 223c 2dbd
00000170: 7647 34bc be1f 0ebe bf20 80be 57cf 71be
00000180: 7c3a 78bd 2b5a 85bd 2efe e53d b9e4 90be
00000190: 1b6a e6bd 0da8 363d f650 88bd 40d9 123a
000001a0: 1c08 37bc bd77 1bbd e342 1fbc 9cbb 97bc
000001b0: b198 5b3d 1f5a 05be 33d4 1dbd 8df8 113e
000001c0: c44c 433e d55e f3bc 0589 083e 8b79 d63d
000001d0: 1941 013d 9723 edbd d63c cc3d ca8c bfbd
000001e0: cd35 91bd c2b2 d43d 2099 d33d 6069 63be
000001f0: 4199 393e 7f06 ac3d d18c 7dbd 6d6b 973d
00000200: ba86 debd 4ca9 34be ba64 8d3d 3c2e 97bd
00000210: 5dae 4d3d a522 ddbd a227 6abd 6138 9abd
00000220: b9c8 1dbe 4e43 72bd 6bb1 3b3e 5787 0bbd
00000230: 9c44 213e f8ba 33ba 71af d6bd 4d94 f43d
00000240: 28e7 0cbe 801a c2bd f041 1dbd e312 84be
00000250: e18c 40be 7233 1cbe 8cb0 1bbe 4832 a0bd
00000260: c119 52be 60b1 64bd a7f8 85bc 66e3 47bb
00000270: 8d76 66be 4377 3b3e 4fb3 dfbd 1821 06bd
00000280: 6a19 e2bc fe63 463d 5600 303e 0801 44bd
00000290: 595e ea3d ad9a 40bd 2a1c 1fbe d354 0f3c
000002a0: 7ab9 343e 4401 dcbd 6085 293d 2675 cc3d
000002b0: 3971 a43d aced 03be 827f f63d 0f44 85bc
000002c0: d265 343d 3724 a8be 06c3 43be 46cd 4abe
000002d0: 49c6 27bd 03e8 403d d490 c9bc aa71 71be
000002e0: 05d8 4b3c c187 7cbc 7251 02be 2442 3a3c
000002f0: f052 4dbe 35d8 113d b84d a7bc 9996 133e
00000300: 3865 acbd 5266 333e d078 093e 7570 b0bd
00000310: f3cb c1bd 612e 16be 10e1 6dbd e153 90be
00000320: 934e 4d3d 71fb c73d dc61 21be 2d95 7abe
00000330: 640f b2bd 7f1d 893d 6e4d a0be d578 b3bd
00000340: 2540 2fbe f57c b7bb f8a1 0cbe 566e 8e3d
00000350: 4369 d93b c647 f8bc 1f64 febd 2f6b 86bc
-0.12435582 -0.06529438 0.000717116 -0.18780823 0.18701233 -0.17110808 -0.057791755 -0.13179801
-0.1755041 -0.27834076 -0.0063006156 -0.052532017 -0.017460518 -0.0931123 0.072903425 -0.20899191
0.21578187 -0.048395086 -0.020528413 0.03180055 0.006659512 -0.11274616 -0.019630373 -0.030609844
0.04080827 -0.030980203 -0.066333964 -0.007744339 -0.04778654 0.11550681 0.13433006 -0.105353765
0.09092532 0.18176211 -0.092911236 -0.035597634 -0.2810977 -0.1652787 0.18851529 -0.08160988
0.2497712 0.009184411 -0.18908112 0.024731033 -0.10512316 0.03515795 -0.20798512 -0.00214301
0.09633331 -0.014932955 0.11969158 0.024617514 0.062435985 -0.0857576 0.0048814495 0.106485784
-0.1095685 0.17192402 -0.024338858 0.012344453 0.13431807 0.09432837 -0.10734626 -0.15427746
0.009521708 -0.16463034 -0.15588893 0.04001165 -0.07512121 -0.10943967 -0.13542947 0.04599597
0.078800045 0.061850477 -0.16007882 -0.03683332 -2.603137e-05 0.01570157 -0.0070436704 -0.031394415
0.024376351 0.09015152 -0.044497922 0.004748295 -0.14778873 0.10146189 -0.18187264 -0.18171898
0.17455226 0.0823291 0.07757798 -0.042293675 -0.011003366 -0.13879296 -0.25024983 -0.2361425
-0.06060265 -0.06511339 0.112301216 -0.28299502 -0.11250707 0.04459386 -0.06656067 0.0005601831
-0.011171367 -0.03795599 -0.009720537 -0.018522076 0.053612415 -0.1302266 -0.038532447 0.14254971
0.19072253 -0.029708305 0.13333519 0.10472401 0.031556223 -0.11579054 0.09972541 -0.09353025
-0.0709034 0.10385658 0.10331941 -0.22208166 0.18124868 0.083996765 -0.06190187 0.07393537
-0.10865541 -0.17642707 0.06903978 -0.073818654 0.050215114 -0.107976235 -0.057166703 -0.07530285
-0.15408601 -0.059146218 0.18329398 -0.034064617 0.15748829 -0.00068561686 -0.104826815 0.11942349
-0.13760054 -0.09477711 -0.03839296 -0.2579566 -0.18803741 -0.15254 -0.15204066 -0.078220904
-0.20517637 -0.05583322 -0.016353918 -0.003050053 -0.22506161 0.18307213 -0.10922872 -0.032746404
-0.027600009 0.048435204 0.17187628 -0.047852546 0.11443777 -0.04702251 -0.15538087 0.008748251
0.17648879 -0.10742429 0.041386962 0.09983282 0.08029408 -0.12883633 0.12036039 -0.016267804
0.044042416 -0.3284013 -0.19117364 -0.19804868 -0.040960584 0.047096264 -0.024605192 -0.23578516
0.01244164 -0.015413226 -0.12726381 0.011368308 -0.2005117 0.03560658 -0.020422801 0.14412917
-0.084177434 0.17519501 0.13424993 -0.086151995 -0.09462728 -0.1466613 -0.058075964 -0.28188995
0.050123762 0.097647555 -0.15759987 -0.24470969 -0.08694342 0.06695079 -0.31309074 -0.08763281
-0.17114313 -0.005599613 -0.13733661 0.06954639 0.0066348626 -0.030307662 -0.1242144 -0.016408531

bias f4 [8]
00000000: 7511 843e ffdc 6c3d 87ea 1c3e 6c15 553e
00000010: 5bbf 90bd 4330 3b3e d314 523c b0dc 5a3e
0.2579457 0.057827946 0.1532384 0.20808953 -0.07067748 0.18280129 0.012822348 0.21373248

weight f4 [32, 288]
00000000: dd38 e8bd bdf1 15be b080 993c b786 ccbd
00000010: 6675 4cbd 694f debd c4e3 e9bd 1c61 1fbe
00000020: 15d1 b8bd 5d1e cbbd 39ce a8bd b6d2 e7bd
00000030: fee0 00be 7c46 35be cd01 2bbd 2d78 893b
00000040: fd73 8ebd 2e8f 86bd 806f a8bd 8fb1 32be
00000050: 59af 6abd e47d 9ebd d5c4 f5bd be15 dbbd
00000060: 4253 debd 5da0 23bd 8066 073d b9bc 85bc
00000070: b60f 3bbe 1088 06be 443c 89bd 566b a1bd
00000080: 88d5 843d d80b dabd 425c d3bd 8849 bebd
00000090: 96bd fabd f746 d4bc 73eb 873d bc98 a83d
000000a0: 1849 c2ba 2b13 23be 50fe e13d 0cb1 913d
000000b0: 00de 8a3d 8eab cb3b f4eb ebbc babd 5ebd
000000c0: 6d9e 6f3d f013 8f3d e7ca 673d d7d1 543d
000000d0: f32e da3d b708 e33d 7c91 1e3b 2398 ebbd
000000e0: 0ccc de3c eb3b 8d3d 3dd2 ce3d ff70 a73d
000000f0: 212c 1bbe 9b3f fcbd 4e7c f93a e856 b73d
00000100: 7a3b a93d 294e 00be db79 fa3d ba5f cf3d
00000110: 847c 7f3d 33ca 9bbd 8529 01be 5002 17be
00000120: 9793 a03d 2daa efbb df1e 0ebe 39db 94bd
00000130: fe8b 20be ce90 c8bd 5ee9 3a3d 07ff 66bd
00000140: 0bd4 c03c 1403 7b3d f6b0 2dbe 5d08 22be
00000150: aced 963c 7ac9 a0bb 191b 07bd 1f17 b33b
00000160: 00e7 ec3c e706 263d 1b04 02be f64a 94bc
00000170: c69b 59bd d0eb f33b a663 cc3c 698d ffbc
00000180: ffbf bcbd 7502 56bb 36d4 07be 3ddb b3bd
00000190: d610 bbbc d248 37bc 75ff 923d 88bd f53b
000001a0: 7906 c8bd 95b0 07be 315a 9bbd 51d1 bbbd
000001b0: 5108 bebd 1576 0cbe ed85 dcbd 418d 08be
000001c0: ba66 f8bd 95e0 9cbd d474 f13d 2bb1 edbd
000001d0: 277f 15be 9a27 4fbd 2b52 d1bd f1dc f9bd
000001e0: 68d2 f8bc 708b bbbd c27c b7bd 2920 23be
000001f0: 3839 b6bd fd10 e43d e705 5b3d 02ef 813d
00000200: 44ef a0bd c0e1 0bbe 6e12 80bd 533a 45bd
00000210: 74bb 17be 042a 1fbe 0305 10be 3d58 12be
00000220: 568f 113d 73cb dbbc 0af4 d0bc 209e 51bd
00000230: 0d59 bcbd a475 17be f027 c0bd 841f b7bd
00000240: 5bcc 7c3d 7c9d d7bd 2865 e2bd b0e0 353c
00000250: 18ca 0d3d 35b8 31bb 6587 1d3d 6874 313d
00000260: 20e0 813b 80c5 c63d 7c2c 113d a115 3abd
00000270: 5e2f 223d 1db8 f83d e790 9e3d 2bfc d03d
00000280: e9a9 fa3d f5f6 7ebd 6924 b2bd c766 303d
00000290: 0965 a53d c8f9 bd3c a015 b33d c3c4 2fbd
000002a0: 71c3 96bd f63c b83d 2aed 833d 1084 143e
000002b0: 05a3 4bbd 29f7 d83c 602f b23c 8ae5 743d
000002c0: bc15 4ebc c9b5 503d e4ec b6bd a8b4 0abe
000002d0: a779 3abe 220e 31be 8e0a f5bd 7217 0bbe
000002e0: a758 11be 30a9 0ebe b51f 91bd 65be fc3d
000002f0: f4db 47bd d62e 8c3d 1b91 a33d 6af2 903d
00000300: ff3d debd a255 933c 429c eabd a5b5 623d
00000310: e4c8 f13d 894c 2f3d 693b a8bd 4a0e d43d
00000320: d011 43bc 7d41 ddbd 438e 8fbd 88f0 19be
00000330: 7c3b a2bd 0d8a da3b aea9 d2bd 32e0 2dbe
00000340: 909b f9bd a49b 33be 43f5 3f3e 6dbe 8c3d
00000350: 757d 073e cb58 20be 160a e4bd 92b2 52bd
00000360: 946f 31be c3a6 783d 06f0 2a3c 4942 6fbd
00000370: 2b70 fc3d a562 183e 9976 483d 152a 863c
00000380: da7e 63bd ce97 c7bd d251 1bbe 1159 a8bd
00000390: 5ebb de3d 50f4 603d 1125 443d 5c31 d93d
000003a0: 967e 81bd 7b3c b4bd 2984 11bd c69d c63c
000003b0: 014e c03c b0bb f13d a694 323d c8b4 a33d
000003c0: 7092 0a3d 947f 9d3d 12d9 d53d d7a5 6b3d
000003d0: 812e 0f3e 2492 b93d b4f1 b3bd edde b93c
000003e0: fd2d 9e3b c80c 733d ad7c ac3d a68a 99bc
000003f0: 5d15 28be 19db 1ebe a6b9 2abe 0fb3 1abe
-0.11338971 -0.14642997 0.01873812 -0.09986632 -0.049916647 -0.1085499 -0.11420396 -0.15564388
-0.09024254 -0.09917901 -0.08242459 -0.11319487 -0.12585828 -0.17702669 -0.041749764 0.0041952343
-0.06955717 -0.06570278 -0.08224392 -0.17450546 -0.05729613 -0.077388555 -0.12000433 -0.10697506
-0.10855724 -0.039947856 0.033056736 -0.016325342 -0.18267712 -0.13137841 -0.06700948 -0.07881801
0.0648604 -0.1064679 -0.10320331 -0.09291369 -0.12243192 -0.025912745 0.06636705 0.08232257
-0.0014822809 -0.15925281 0.110348344 0.07113847 0.067806244 0.0062155193 -0.028799035 -0.054380156
0.058500696 0.06986225 0.056589987 0.05195793 0.10653486 0.110856466 0.0024195602 -0.11503627
0.027196907 0.06896194 0.100986935 0.08175849 -0.15153553 -0.12316819 0.0019034238 0.08952123
0.082632974 -0.12529816 0.12230273 0.1012568 0.062374607 -0.07606926 -0.12613495 -0.14746976
0.078406505 -0.0073139877 -0.13878964 -0.07268376 -0.15678403 -0.09793244 0.045632713 -0.056395557
0.02353861 0.061282232 -0.16962036 -0.15823503 0.018423878 -0.0049068304 -0.032984827 0.0054654027
0.028918743 0.040533926 -0.12696879 -0.01810215 -0.053127073 0.0074438825 0.02494986 -0.03119536
-0.09216308 -0.0032655273 -0.13264546 -0.08782051 -0.022835176 -0.011186795 0.07177631 0.0074994005
-0.097668596 -0.13250954 -0.07585562 -0.09170783 -0.0927893 -0.1371692 -0.10767732 -0.13335134
-0.121289685 -0.07660023 0.11789861 -0.11606058 -0.14599286 -0.050574876 -0.102207504 -0.12200344
-0.030373767 -0.09157455 -0.089593425 -0.15930237 -0.08897632 0.11136053 0.053472426 0.06344415
-0.07858136 -0.13660336 -0.06253515 -0.048151325 -0.14817601 -0.15543371 -0.14064412 -0.14291473
0.035537086 -0.02683041 -0.025506992 -0.05117619 -0.091966726 -0.1479097 -0.093826175 -0.08941558
0.061718326 -0.10528085 -0.1105445 0.011100933 0.03461656 -0.0027117853 0.0384592 0.043323904
0.0039634854 0.09705639 0.035442814 -0.045430783 0.039595954 0.12144492 0.07742482 0.10204347
0.12239439 -0.062247235 -0.08698351 0.043066766 0.080759116 0.023190394 0.08744359 -0.042912256
-0.07361496 0.089960024 0.0644172 0.14503503 -0.049716014 0.026485043 0.021751106 0.059789218
-0.012578424 0.050954614 -0.08931902 -0.13545477 -0.18210469 -0.17290547 -0.11964904 -0.13583162
-0.14193974 -0.13931727 -0.07086126 0.123410024 -0.048793748 0.06844871 0.07986661 0.07077487
-0.108516686 0.017985169 -0.11455585 0.05534901 0.11805895 0.0427976 -0.082144566 0.10354288
-0.011906102 -0.108035065 -0.07009556 -0.15033162 -0.07921502 0.006669289 -0.1028627 -0.16980055
-0.12187874 -0.17539841 0.18745904 0.06872258 0.13231452 -0.15658872 -0.11134736 -0.05143983
-0.1732772 0.06070591 0.010433203 -0.058412824 0.12326082 0.1488138 0.04894123 0.016377488
-0.055540897 -0.09745751 -0.1516793 -0.08220113 0.10875581 0.054920495 0.04788691 0.10605118
-0.063229725 -0.08800598 -0.03552643 0.024245154 0.023474695 0.11803377 0.043598793 0.07993466
0.03383106 0.07690349 0.104417935 0.057531204 0.13982584 0.09061077 -0.087863356 0.022689307
0.0048272596 0.05933836 0.084222175 -0.01874287 -0.164144 -0.15513267 -0.16672382 -0.15107368

bias f4 [32]
00000000: 6151 29be 1f7e bfbd f95a 573d 27c7 9d3d
00000010: 10e7 2b3e 4df7 293e 4405 863d 706c c4bd
00000020: bddf 06be 9c8c 373e 27c8 00be b19e 103e
00000030: 21ed a33d c324 43be 7744 b6bd 0f93 083e
00000040: 70b4 15be 61cd cfb8 37af 163e d17e 60bc
00000050: d5eb 343e a8aa 8dbd c8e5 f43d 8fad 0fbe
00000060: 8e9b 213e c303 203c ab4d d8bb 9afd 213e
00000070: fab4 33be 5bb7 be3d 5fa6 23be 213b cf3d
-0.1653495 -0.093502276 0.052576993 0.07704001 0.16787362 0.16598244 0.06543973 -0.09590995
-0.13171287 0.17924732 -0.12576352 0.14123036 0.08004213 -0.19056992 -0.088997774 0.13337348
-0.14619613 -9.908784e-05 0.14715277 -0.01370211 0.17668088 -0.06917316 0.1195789 -0.14031051
0.15781996 0.009766522 -0.0066010556 0.15819398 -0.17549506 0.09312316 -0.15981434 0.101187

weight f4 [3, 32]
00000000: fee0 e1bd 80a6 3ebe 93eb b9bc 6911 c7bd
00000010: 2cd6 ff3d 87ba 5d3d 5fa8 a93c 9541 843c
00000020: fde9 e9bd e6cf b13d 3979 15bd 51d9 d43d
00000030: 6650 4abd 5386 e8bd 3b7c 93bd 857d 393d
00000040: 5884 ad3d 42ec 953d 9a6b e3bd 03d9 e7bc
00000050: 9368 793d bcf0 32bd 0afa 4f3d fb5f 27bd
00000060: 719b 733d 5476 97bd 5b2f 86bc 884b dd3d
00000070: 213f cebd 5436 e73d cdc3 4abe d5c8 b2bb
00000080: 0b0d 50bd 322b 063e 9e03 dbbd 7216 0dbd
00000090: 7b4f 6cbb 86df c43c 6b3c 203d aeb6 0a3c
000000a0: dbe1 9abd 9363 773d 036c 91bb 1212 a13d
000000b0: a30f 823d 24cc 88bb 4d70 68bd fef8 b03d
000000c0: 6e2f f93d 9a8b ca3c 5203 02be 0cff 9bbd
000000d0: 72fa 6a3d 88a8 b6bc e1f4 0c3d 57ef 95bb
000000e0: c87e a2bd 4b60 a23a 8702 673d c6ea 563d
000000f0: 79dd 423d a036 003c 9665 c8bc 45f6 6b3c
00000100: 0890 323e c844 a93d 616f 06be 0c72 80bd
00000110: 215b 71bc c387 83bd 4fd7 873c 5953 e33d
00000120: 365c 04bd 03d4 6bbb eac5 c7bd 3f69 843d
00000130: 891b 95bd 4cb0 663d aba9 af3d 616d 123c
00000140: dcbc 1c3d 8802 71bd c497 05bd 3398 dcbd
00000150: dbc5 6bbd 4e49 fdbd 8e58 03bd e040 033e
00000160: d49f 70bd 7960 1dbd 94b4 e3bc 4955 83bd
00000170: ba88 213d 89d3 b73c 8018 1e3d d896 173d
-0.11029242 -0.18618202 -0.022695338 -0.097201176 0.12492022 0.054132964 0.020710168 0.016144553
-0.11421583 0.086822316 -0.03649256 0.10393012 -0.04939308 -0.11353745 -0.072014295 0.04528572
0.08472508 0.07320453 -0.11104508 -0.028301721 0.060890745 -0.043686613 0.050775565 -0.04086302
0.059474412 -0.07395616 -0.016380003 0.10805422 -0.10070635 0.11289659 -0.19801255 -0.00545607
-0.05079369 0.13102415 -0.10694049 -0.034445234 -0.0036058116 0.024032366 0.03912012 0.008466406
-0.0756261 0.060397696 -0.004437925 0.07864775 0.06350639 -0.004174726 -0.056747723 0.086412415
0.121672496 0.02472477 -0.12696579 -0.07617006 0.05736775 -0.022297159 0.034413222 -0.0045756507
-0.07934338 0.0012388317 0.056398895 0.05246999 0.047574494 0.007825524 -0.024462502 0.014401977
0.17437756 0.08265072 -0.13128425 -0.06271753 -0.0147311995 -0.06422379 0.01658216 0.11099882
-0.0323145 -0.0035984523 -0.09754546 0.064653866 -0.072806425 0.056320474 0.085772835 0.008937211
0.038266048 -0.058840305 -0.032615438 -0.10771217 -0.057561737 -0.123674974 -0.032066874 0.12817717
-0.058746174 -0.03842208 -0.027796067 -0.06412751 0.039437033 0.022439735 0.038597584 0.03700909

bias f4 [3]
00000000: 0017 8cbc 2e68 f33c 465a dabd
-0.017100811 0.029712763 -0.106617495
