trained_models/model.pt (torch, 42135 bytes, 6 tensors)

weight f4 [8, 3, 3, 3]
000000 4c 8c 3a 3e 10 cb e9 bd 62 f2 23 be bf 94 8c bb
       0.18217582 -0.11415684 -0.1601043 -0.004290193
000010 90 eb 22 3e 5d d2 44 3e 87 8d 1e bd 06 b2 49 bd
       0.15910172 0.19220872 -0.03870919 -0.049242042
000020 62 3f 64 bd 36 49 8a c0 c0 5f ba c0 77 1a 6d c0
       -0.05572451 -4.321437 -5.824188 -3.7047403
000030 39 ef b5 c0 ec b3 ac c0 ed 35 b0 c0 93 65 d8 bf
       -5.685452 -5.396963 -5.5065827 -1.6905998
000040 1e b7 9d c0 b4 28 af c0 04 d8 bc bf c1 9e af bf
       -4.928603 -5.4737186 -1.4753423 -1.3720323
000050 d7 2a 00 3f d6 6f 1e c0 88 d9 a8 c0 ac 7b ac c0
       0.5006537 -2.475576 -5.276554 -5.3900967
000060 d5 19 e1 bf 7d d9 ec bf ea dc c4 bf b7 5b c1 3d
       -1.7586008 -1.8503872 -1.5379918 0.09441321
000070 fe 89 e2 bd fe 99 3c 3e ac 30 08 3e 74 02 07 be
       -0.11061476 0.18418118 0.13299817 -0.1318453
000080 67 96 43 3e 59 d8 26 bd fa d1 20 be 9b 23 81 3c
       0.19100343 -0.04073367 -0.157051 0.015764048
000090 31 6c bc c0 3a 7a b7 c0 22 9d b0 c0 a6 9e 9b c0
       -5.888207 -5.73367 -5.5191813 -4.8631163
0000a0 ff 6c c0 c0 31 09 09 bf ef ff b4 c0 ce 96 b2 c0
       -6.013305 -0.5352965 -5.656242 -5.580909
0000b0 4d 01 be c0 b6 80 00 c0 98 81 01 c0 7c 15 b7 bf
       -5.937659 -2.007856 -2.0235348 -1.4303432
0000c0 f7 6c ab bf 33 38 de bf 3d 9e ef bf b9 a2 a2 c0
       -1.3392628 -1.7360901 -1.8720165 -5.0823636
0000d0 d6 59 a7 c0 da 4a ad c0 f3 1f 1a 3d 8b 19 00 3d
       -5.2297163 -5.415387 0.037628125 0.03127436
0000e0 e4 be 2c 3e c2 ea 23 3e 39 86 21 3e 4c 29 ae 3d
       0.16869694 0.16007522 0.15773858 0.085039705
0000f0 c1 9a 3a 3d b4 a1 01 3e 23 f8 52 bc d4 ea 98 3f
       0.04555774 0.12659341 -0.012876543 1.1946664
000100 19 6c 90 c0 83 dd da bf f8 2d 61 c0 ae 6b 01 c0
       -4.5131955 -1.709885 -3.5184307 -2.0221972
000110 40 a3 8e c0 bc 7b ad c0 07 10 be c0 70 7b 99 c0
       -4.457428 -5.4213543 -5.9394565 -4.796318
000120 82 09 1c bf 3f da c0 bf 79 30 04 c0 bf 77 03 c0
       -0.6095201 -1.5066603 -2.0654585 -2.0541837
000130 df 71 07 c0 bc c8 1a c0 43 3e ae c0 7a dd ae c0
       -2.1163251 -2.4185019 -5.4451003 -5.4645357
000140 ad d8 aa be 3a a2 2a 3e 68 6b d9 3d 1d c9 a5 3d
       -0.33368436 0.16663447 0.10616189 0.08095
000150 2d a2 fa bd 99 7b 0b 3e 48 d6 ea bd 4e 78 8b 3d
       -0.12237964 0.13621368 -0.11466652 0.06810056
000160 67 5a 9b bd c8 04 47 3d 7b d2 5e c0 8e 6a 1d c0
       -0.07585602 0.048588544 -3.4815967 -2.4596286
000170 2c af 95 c0 f9 7a 96 40 5b fc 6a 40 bd 9d 82 40
       -4.6776333 4.7025113 3.6716526 4.081755
000180 3b 51 73 40 74 b7 d6 be e0 7e 78 40 2a d2 a8 bf
       3.801833 -0.4193684 3.8827438 -1.3189137
000190 81 8f 97 bf 0b cd 8a c0 c2 75 8a c0 31 b3 a6 c0
       -1.1840669 -4.3375297 -4.3268747 -5.209374
0001a0 80 fb c8 bf 54 92 a7 bf a0 0f e5 bf e5 d0 ab bf
       -1.5701752 -1.3091531 -1.7895393 -1.3423125
0001b0 e2 38 d3 bd 24 a0 5d bd b3 85 a7 3d 59 6d ba bd
       -0.10313584 -0.0541078 0.08179798 -0.09102888
0001c0 e2 f8 80 bc 1a 50 47 3d f9 bf ae 3d a9 db 13 3d
       -0.015743677 0.048660375 0.0853271 0.036098156
0001d0 db 93 25 3d 8d 2f b1 c0 3b 4b af c0 a2 3f 12 c0
       0.04042421 -5.5370545 -5.4779334 -2.2851338
0001e0 6f b1 bb c0 20 64 b9 c0 e6 e5 b1 c0 7a 2c b6 c0
       -5.8654094 -5.7934723 -5.559314 -5.6929293
0001f0 4f 0a b6 c0 f0 63 5a bf 40 b1 1c c0 a4 25 bb bf
       -5.6887584 -0.8530874 -2.4483185 -1.4620862
000200 0a 89 0f c0 cb 74 5d 3f 72 77 e8 3e 0b 7b f8 bf
       -2.2427392 0.86506337 0.4540363 -1.941255
000210 9b f0 a9 c0 e8 3c 48 c0 c1 47 15 c0 b5 60 dc 3d
       -5.310621 -3.1287174 -2.3325045 0.10760633
000220 b0 51 c7 bc e6 f5 17 3e 07 e9 06 be 26 c4 87 3c
       -0.024330944 0.14839897 -0.1317483 0.016573023
000230 2e bb 2f bd 60 82 75 3d 06 b3 07 3e da fe 07 be
       -0.042903118 0.05993879 0.13251886 -0.13280812
000240 73 a2 39 c0 f8 57 60 40 8d 6b c2 c0 26 9d a1 c0
       -2.90054 3.5053692 -6.0756288 -5.050433
000250 a4 46 80 c0 ec 6e 4b bf a1 f1 a7 c0 fb 01 d8 bf
       -4.008623 -0.7946613 -5.2482457 -1.6875604
000260 61 72 9f 3c 5e 9b f5 be 06 53 a6 bf 96 8d 28 c0
       0.01946372 -0.47970098 -1.2994087 -2.6336417
000270 e0 72 85 be 92 40 2a c0 25 f0 7b bf 67 a2 29 bf
       -0.26064205 -2.660191 -0.98413306 -0.6626343
000280 17 12 29 c0 25 80 b5 bf 70 4c 71 bd 86 d3 d6 3d
       -2.641729 -1.4179732 -0.058910787 0.10489564
000290 ac 85 c3 bc 92 ee 01 be d5 8e af 3d ab 79 ee 3d
       -0.02386745 -0.12688664 0.08572165 0.116443
0002a0 a1 1c 3a 3d 2d 25 82 3d 53 b8 3f 3e f7 48 be 40
       0.04543746 0.06354747 0.18722658 5.946407
0002b0 df 7a 5c bd e4 cb a9 c0 ba 72 c5 40 05 5e 1c 3f
       -0.053828117 -5.306139 6.1702547 0.6108096
0002c0 26 59 94 c0 28 88 54 c0 47 fd c0 3f a9 06 dd 3e
       -4.6358824 -3.3208103 1.5077294 0.43169144
0002d0 46 df b2 c0 85 b1 08 c0 d2 1c 10 bf 94 72 a8 c0
       -5.589755 -2.135835 -0.56293976 -5.2639866
0002e0 1a 52 18 c0 3d 3f b9 bf 51 00 f4 bf 4c a6 f7 bf
       -2.380011 -1.4472424 -1.9062597 -1.9347625
0002f0 e0 b7 d3 bf 14 02 3d 3e d8 82 bc bd 0a 5e 33 3d
       -1.6540489 0.18457824 -0.09204644 0.043790855
000300 05 30 19 3e 1c e2 95 3d 69 6c 2f 3e 68 40 22 3e
       0.14959724 0.073185176 0.17131199 0.15844882
000310 22 d6 99 3d 8f 38 29 be 76 66 10 40 ab c8 7f bf
       0.07511546 -0.16525482 2.2562537 -0.9991557
000320 c5 3e 2f bf a7 04 b3 c0 db 22 43 3e 5d 8d bb be
       -0.68455154 -5.594318 0.19056265 -0.3663129
000330 83 8a 94 bd 09 35 26 c0 6a be 6a 40 87 11 ae bd
       -0.072529815 -2.596987 3.667872 -0.08499437
000340 eb 01 a0 bf 59 47 9e bf fd 84 b1 c0 3c 78 f5 bf
       -1.2500585 -1.2365524 -5.547484 -1.9177318
000350 7f 80 15 c0 f3 fe a4 bf bf f7 40 be 33 96 11 c0
       -2.3359678 -1.2890304 -0.18844508 -2.2747924

bias f4 [8]
000000 6b 49 a2 c0 5a b2 97 3f 97 3a ef bf 9e ff 8c c0
       -5.071462 1.1851304 -1.8689755 -4.4062033
000010 be d6 a0 3f 07 49 4b 40 68 32 b8 bf 25 2d 8c 40
       1.2565534 3.1763322 -1.4390383 4.380511

weight f4 [32, 288]
000000 e4 b5 37 bf c7 87 44 40 7e ba 43 40 9d 5a 6c 40
       -0.7176192 3.0707872 3.0582576 3.6930306
000010 b0 19 04 3f 64 c8 a0 bd e4 12 9d 40 11 61 88 3f
       0.51601696 -0.078507215 4.908556 1.0654622
000020 b8 98 ac 40 fc 20 b4 3f b7 a9 61 bf 2c 44 f9 be
       5.3936424 1.4072566 -0.8814959 -0.48684824
000030 f2 3f a2 40 9e a8 07 40 85 49 b1 40 bf ee c6 3f
       5.070306 2.1196666 5.5402246 1.554161
000040 ce 91 45 3f 19 3b a1 40 ab 75 ce 3f 53 eb df 3f
       0.77175605 5.038464 1.612966 1.749369
000050 5f 75 97 40 f6 03 4d 40 27 67 a1 40 51 b3 a0 40
       4.7330775 3.2033668 5.043842 5.021889
000060 08 22 af c0 33 75 63 40 a0 19 15 40 21 84 9f 40
       -5.472904 3.5540283 2.329689 4.984879
000070 95 bd a0 40 bd 8c ac 40 c0 fc 2a 40 21 14 34 40
       5.0231423 5.39218 2.6716766 2.8137286
000080 ed ef ff 3f 9c db 8b 40 ef d2 aa 40 f0 7f ad 40
       1.9995095 4.370558 5.3382487 5.4218674
000090 55 aa 4d 3f 04 ff 08 40 c9 8b 98 3f 48 45 b2 bf
       0.8033803 2.140565 1.1917659 -1.3927393
0000a0 52 9f 26 c0 78 a2 25 c0 cd 38 32 40 4f 42 68 40
       -2.6034741 -2.5880413 2.7847168 3.6290472
0000b0 9c 2e a6 3f 29 4a 8d c0 73 c9 99 bf 44 9c 8c 3d
       1.2982974 -4.4153028 -1.2014602 0.06865743
0000c0 47 31 a0 bf 71 58 91 bd 68 ee 6f 40 8d fa 31 bf
       -1.2515038 -0.07096947 3.7489262 -0.69522935
0000d0 a1 93 05 bf 45 8e 47 bf af f0 32 c0 d2 96 1e 3e
       -0.5217839 -0.7795146 -2.7959402 0.15487221
0000e0 e6 58 27 3f aa a1 8a 40 0d 91 20 40 0c f0 37 3f
       0.65370023 4.3322344 2.5088532 0.7185066
0000f0 9a c3 1c be a9 40 89 3d a4 1e a9 3e 49 59 87 3e
       -0.15308991 0.06701786 0.3303119 0.26435307
000100 1f ab 5c 40 aa 07 5a 40 06 07 db bd be f7 5e be
       3.4479444 3.4067178 -0.10694699 -0.21774194
000110 17 63 d9 3f 01 87 bd bf 6f fb 61 40 9c df 70 40
       1.6983365 -1.4806825 3.5309713 3.763648
000120 1a ed 26 3f 0a 40 e8 be e9 83 15 40 a9 49 ef bf
       0.6520554 -0.45361358 2.3361762 -1.8694354
000130 e2 39 bd 3d 71 97 7b bf 3c 64 8a c0 ee 9f ab be
       0.09239556 -0.98277956 -4.3247356 -0.33520454
000140 80 00 a2 40 19 e6 5c 40 8b 83 17 c0 e9 c9 b8 bf
       5.062561 3.451544 -2.3674037 -1.4436618
000150 ee 3f b6 c0 92 63 60 3f 59 00 a8 40 28 af f0 3c
       -5.695304 0.8765193 5.2500424 0.029380396
000160 33 6b 9b bf 6e 6c 43 c0 0a 7e 6b c0 d5 fb 5a c0
       -1.214209 -3.053493 -3.6795678 -3.4216206
000170 92 54 1e bf 69 66 02 bf e5 77 24 bf 2a 86 90 c0
       -0.61847794 -0.50937515 -0.64245445 -4.5163774
000180 3b 6d 05 c0 38 d8 d9 bf f0 49 12 40 4a 83 a8 3f
       -2.084792 -1.701911 2.2857628 1.3165066
000190 e9 6c 32 c0 8f fb 32 c0 a0 e5 74 3f b8 46 d0 bf
       -2.7878973 -2.796604 0.9566288 -1.6271582
0001a0 fd 04 10 3f 41 79 8b bd de a0 9b be 8c 2e 0d 3f
       0.5625761 -0.06810237 -0.3039617 0.5514915
0001b0 00 de a6 40 c3 b9 a4 3f f3 a9 a8 40 d0 22 5c 40
       5.2145996 1.286919 5.2707458 3.4396248
0001c0 df d0 ab 3f c3 30 90 40 c7 6a a4 40 aa f2 9a 3f
       1.3423117 4.5059524 5.1380343 1.2105305
0001d0 00 d8 d3 bf 43 ac 91 40 44 68 8e 3f ab 24 2d 40
       -1.6550293 4.552278 1.1125569 2.705363
0001e0 f5 15 92 40 97 ba fb be bb 97 45 40 e9 b8 a5 40
       4.5651803 -0.49165794 3.087386 5.178822
0001f0 e2 30 92 3f 70 19 a8 40 00 f3 ef 3f d0 bc 0a 40
       1.1421168 5.253105 1.8746033 2.1677742
000200 a0 b6 26 40 f0 20 90 40 f8 af 69 40 eb 35 5c 40
       2.6048965 4.5040207 3.6513653 3.440791
000210 f2 1b 0d bf 6c 80 48 3f 49 01 97 40 c3 5d a9 40
       -0.55120766 0.78320956 4.718907 5.2926955
000220 77 ce 6e 40 45 3d 4d 40 d9 f1 4d 40 1d 3b 70 40
       3.7313516 3.2068646 3.2178862 3.753608
000230 c2 b2 97 40 56 9b a8 40 d5 36 a9 40 0c 61 b1 40
       4.740571 5.268962 5.2879434 5.5430965
000240 84 98 c3 c0 26 93 07 c0 02 e7 41 40 c9 d1 75 40
       -6.1123676 -2.1183562 3.0297246 3.8409293
000250 94 c6 a0 be 32 6a 2a c0 81 8e d8 bf f9 e7 ee 3f
       -0.31401503 -2.6627316 -1.6918489 1.8664542
000260 35 00 75 40 4e fd b0 3f 07 f7 b2 bf 53 72 c0 bf
       3.8281376 1.3827302 -1.3981637 -1.5034889
000270 31 0c b5 c0 64 18 8d bf 5d 2c fa 3f 8f cd 1b be
       -5.657738 -1.1023068 1.9544789 -0.15215133
000280 d5 ff d6 bf 93 66 b9 bf b0 7e 8c c0 4b 13 10 c0
       -1.6796824 -1.4484428 -4.390465 -2.2511775
000290 0a a8 08 3e 20 b5 9c bf 46 0f e2 bf d0 a0 4b c0
       0.13345352 -1.2242775 -1.7660911 -3.1816902
0002a0 c2 9b 2e 3f ab 5e 70 be 41 77 aa be fb 9b 29 c0
       0.6820642 -0.23473613 -0.3329411 -2.6501453
0002b0 3b 33 dd bf 83 3a ad bf 7c 1f b6 3f 1b b0 80 3f
       -1.7281259 -1.3533481 1.4228358 1.0053743
0002c0 14 7d f1 be 94 72 d5 bf 92 2e 9d bf df 70 85 bf
       -0.4716574 -1.6675591 -1.2279837 -1.042507
0002d0 58 42 ca 40 3c 22 1f 40 7b 66 61 40 4b 9f dd bf
       6.3205986 2.4864645 3.52188 -1.7314237
0002e0 5e f3 b8 c0 23 ef 16 c0 3a 8a 44 3f 48 70 c9 3f
       -5.779708 -2.3583457 0.76773417 1.573739
0002f0 5d a5 45 3f 50 e4 4b c0 98 0f 90 c0 e7 a7 69 c0
       0.7720545 -3.18581 -4.5019035 -3.650873
000300 16 25 15 c0 0a be 68 c0 d5 20 84 c0 79 fb 2f c0
       -2.3303885 -3.636599 -4.129008 -2.7497237
000310 47 05 32 c0 bc c2 5c bf 03 68 a1 be 5d 72 21 c0
       -2.781572 -0.8623464 -0.31524667 -2.5226052
000320 7a 79 50 c0 a0 c6 a2 c0 22 b8 ba c0 a7 72 18 c0
       -3.2574143 -5.086746 -5.834977 -2.3819978
000330 3b 8b f7 3f 1d e1 77 bf b7 0e 80 c0 e0 b9 32 c0
       1.9339365 -0.9682787 -4.0017962 -2.792595
000340 93 59 9f c0 ae 7d 03 c0 b1 be 67 bf f3 6b 42 c0
       -4.9796844 -2.0545459 -0.90525347 -3.0378387
000350 d1 e2 2b c0 f1 72 08 c0 58 6e 6e c0 9e 16 ed be
       -2.6857188 -2.1320155 -3.7254848 -0.46306318
000360 0f 61 2a c0 cb 37 39 c0 ca bc 51 bf a1 a3 a6 c0
       -2.662174 -2.8940303 -0.81928694 -5.207474
000370 6e 7c b6 bf cf 41 ca bf 68 7d 75 c0 c7 fa 2b c0
       -1.4256723 -1.5801333 -3.8357792 -2.6871812
000380 72 7c 80 40 fb 3d 91 c0 0f 56 a9 bf 1a 59 ad bf
       4.015191 -4.538816 -1.3229388 -1.3542817
000390 e7 a4 70 c0 89 23 67 c0 15 fe da 3f 9f d2 6e bf
       -3.7600648 -3.611544 1.710879 -0.9329013
0003a0 59 b0 c2 bf 3a 9d bc bf 23 a4 73 c0 21 3b 7a c0
       -1.5210067 -1.4735482 -3.806893 -3.909859
0003b0 67 76 17 bf 49 9c b6 bf 2f 6f b6 bf a1 00 a5 bf
       -0.5916504 -1.4266444 -1.425268 -1.2890817
0003c0 8c e6 5a c0 a4 0a 57 c0 18 2f 52 bf 4f ed c7 bf
       -3.4203215 -3.3600245 -0.8210311 -1.5619296
0003d0 5a 39 c0 bf c9 35 b9 bf 74 0f 67 c0 bc df 29 c0
       -1.5017502 -1.4469539 -3.6103182 -2.6542807
0003e0 02 59 c8 bf 58 40 d3 bf 57 44 2b bf 93 29 78 3e
       -1.5652163 -1.6504011 -0.66901153 0.2423461
0003f0 de 6a 18 bf 38 8e 4e bf fa 39 56 bf e4 6b 03 c0
       -0.59538066 -0.8068576 -0.83682215 -2.0534601

bias f4 [32]
000000 ef b8 e3 c0 5f b7 ce 40 74 f6 d9 40 e0 50 d5 40
       -7.116325 6.459884 6.8113346 6.6661224
000010 10 a0 95 c0 0f 1b e7 40 6b 30 e1 c0 75 b3 97 40
       -4.675789 7.222053 -7.0371604 4.7406564
000020 49 ca d9 c0 2f ad d6 c0 8a 1d e1 40 0b 78 3a 40
       -6.805943 -6.7086406 7.034856 2.9135768
000030 a9 0c d3 40 c5 7d cb 40 9a b4 da c0 ff 4b e5 40
       6.5952954 6.3591027 -6.834546 7.165527
000040 cb 25 d3 c0 34 6a 07 40 54 fc a8 bf bd 8c 6f 40
       -6.5983634 2.1158571 -1.3202004 3.742965
000050 53 5a e2 40 21 83 50 40 40 4f 1d c0 21 86 b2 40
       7.073526 3.2580035 -2.457962 5.578873
000060 84 64 c4 c0 5d 79 e6 c0 c1 79 96 40 33 01 9a c0
       -6.13727 -7.202315 4.7023625 -4.8126464
000070 13 c0 b5 c0 71 83 b1 c0 a9 ab f8 3f ad be ac bf
       -5.6796966 -5.547295 1.9427387 -1.349569

weight f4 [3, 32]
000000 2d e2 c1 bf 71 c4 0e be 1d cc 7d bf 76 f9 80 bf
       -1.5147148 -0.13942124 -0.9913958 -1.007613
000010 9d 9b 15 c0 59 59 32 bf 0d a8 83 bd 56 55 f5 be
       -2.337623 -0.69667584 -0.064285375 -0.4791667
000020 3a 61 eb bf c5 c3 8d 3f 0c a2 ea bf 07 51 e3 3e
       -1.8389046 1.1075369 -1.8330703 0.44397756
000030 48 35 a6 3f 22 83 36 c0 8a 76 cd 3e 1e 1c e1 bf
       1.298501 -2.8517537 0.401295 -1.7586706
000040 5a ec cf bf cb e8 19 c0 7f 29 00 bf cd d6 88 3f
       -1.6244004 -2.4048336 -0.5006332 1.0690552
000050 17 f6 99 bf 42 93 d9 bf da d2 1e 40 01 ae 2e c0
       -1.2028226 -1.6998065 2.4816194 -2.7293704
000060 0f 6d b3 3d 73 38 67 3f a9 16 73 be f5 10 85 3d
       0.08761036 0.9032051 -0.23739113 0.06497375
000070 40 9d b9 3e 89 c9 b4 bf 9d c9 e2 3c 1f 68 51 40
       0.36252785 -1.4124004 0.027684027 3.27198
000080 5b 59 19 3f 1d 04 ce bf 5b b6 ca bf 71 62 bb bf
       0.5990197 -1.6095005 -1.58369 -1.4639417
000090 11 92 b8 be 45 a2 fb be 4d d3 7c 3f 9f d4 6d c0
       -0.3604894 -0.4914724 0.9875992 -3.7161024
0000a0 f9 71 96 3f 6e 48 ae 3f 43 66 ab bf f7 46 81 bf
       1.1753532 1.3615854 -1.3390583 -1.0099782
0000b0 e2 90 1c bf 75 e1 e9 bf 01 74 99 bf f7 45 41 be
       -0.61158574 -1.8271929 -1.1988527 -0.18874346
0000c0 ec f2 34 3f 00 f8 41 bf ca af 4f bf 94 85 21 bf
       0.7068317 -0.7576904 -0.8112761 -0.6309445
0000d0 87 c1 a0 bf dc 82 0e c0 28 25 16 40 77 40 b4 bf
       -1.255906 -2.226737 2.3460178 -1.4082173
0000e0 21 ea 9e bf e9 a6 3b 3f 0c 25 8b bf 4b 08 91 3f
       -1.24152 0.7330156 -1.0870681 1.1330656
0000f0 8a 08 55 bf dd 08 ca 3f ea db 22 bf be 39 25 3f
       -0.83216155 1.5783955 -0.6361681 0.6454123
000100 83 68 a5 3f a1 86 e5 be 40 c4 05 40 d7 81 10 40
       1.292252 -0.44829276 2.0901031 2.2579248
000110 4f b5 d2 3e 9b 22 27 bf 55 2f a3 3f e9 5f 6b 40
       0.41153952 -0.6528718 1.274882 3.677729
000120 75 32 ec 3f f5 e0 1e c0 b9 ea 98 bf 26 62 fb bf
       1.8452898 -2.4824803 -1.1946632 -1.9639328
000130 46 8f ed bf 96 4b 6f be 9b 04 9a bf 51 fa 8c bf
       -1.8559349 -0.23368677 -1.2032655 -1.101389
000140 46 b4 ed 3f 89 93 3c 3d 4d 59 8f 3f cf ba f9 bf
       1.857064 0.046039138 1.1199127 -1.9510134
000150 98 17 91 bf d7 08 46 3f c6 fd 91 be 1a 04 73 3f
       -1.1335325 0.7735724 -0.28513926 0.94928133
000160 77 0f 55 bf c3 d7 86 3e 38 c6 de bf d5 15 f9 3f
       -0.8322672 0.26336488 -1.7404242 1.9459788
000170 16 ea 8b bf dc fb bf 3f 9c aa f2 bf a0 9c 9d be
       -1.0930812 1.4998736 -1.8958316 -0.30783558

bias f4 [3]
000000 a8 2a ed 40 b6 59 ea c0 7a e0 e4 c0
       7.411457 -7.323451 -7.152402
