trained_models/model.pt (torch, 101816 bytes, 14 tensors)

weight f4 [128, 3, 3, 3]
000000 91 1f d7 3d f2 f1 0d 3c 3a 00 40 3e cd 13 34 3e
       0.10504068 0.008663641 0.18750086 0.17585678
000010 1a 1f 19 3c 8d 8d de 3d bd 66 d0 3d 0b fe ed bc
       0.009345794 0.108668424 0.10175846 -0.029051801
000020 90 d0 28 3e ab ea b9 bd a7 9c d9 bd 45 56 68 3c
       0.1648581 -0.090779625 -0.10625582 0.0141807245
000030 62 b8 22 be fd 96 2c 3d 25 c1 50 3d 4a 80 2e be
       -0.15890649 0.04213618 0.050965447 -0.17041126
000040 28 4b 13 bd 8c 6b 3a be b7 a0 f3 3c 50 f9 c1 3d
       -0.035960346 -0.18205088 0.02973972 0.09471381
000050 99 8e f4 3d 78 6a 27 be b1 04 5a be 75 e2 0a be
       0.11941261 -0.16349208 -0.21290852 -0.13562949
000060 e9 12 aa bd 56 93 c4 3c 6c 0b 83 3d f9 bc 7f 3d
       -0.08304388 0.023996036 0.06398663 0.062436078
000070 f9 30 36 3e cb b9 54 3d 7c 80 a8 3c fa 6a e6 bd
       0.17792119 0.051935 0.020569079 -0.11250873
000080 1c f3 10 be 27 2e dc 3d 8a d0 27 bc 6a 85 89 3d
       -0.14155239 0.1075099 -0.010242591 0.067149
000090 41 a3 fa 3d 33 d6 da bb cd d5 f7 bd 12 98 86 3d
       0.122381695 -0.0066783666 -0.12101326 0.06571974
0000a0 3a fd ff 3d 4f 16 36 3e 57 df ba 3c 86 e4 ea bd
       0.12499471 0.17781948 0.022811575 -0.11469369
0000b0 be 5d f4 bc 10 32 c7 bc cb 12 07 3c a0 6f 03 bb
       -0.029829856 -0.024315864 0.008244227 -0.0020055547
0000c0 fe 7f b1 3d 2d dd 83 bc 6f 29 3a 3e 6a 90 0b bd
       0.08666991 -0.016096676 0.18179868 -0.03407327
0000d0 c5 36 31 be 10 60 47 bd 31 52 12 be a9 b8 9e 3c
       -0.17306049 -0.048675597 -0.14289166 0.019375162
0000e0 28 ea d9 3d eb 3d 22 3e ee 9f 7e bd 13 ef 9a bd
       0.10640365 0.15843932 -0.06216424 -0.07565131
0000f0 b3 50 3d 3e 8f 98 ae 3d 41 82 09 3e 84 e3 d7 bd
       0.18487816 0.08525192 0.13428594 -0.10541442
000100 1b 74 0e 3d f9 f0 e4 3d b5 6d 22 bd 08 aa 8d 3c
       0.034778696 0.111787744 -0.039655406 0.017292991
000110 37 66 e0 bd a8 b1 34 be 22 1d 7f bd d5 e9 f3 bd
       -0.10956996 -0.17645895 -0.062283643 -0.11909834
000120 bc 79 2d be 82 9f 0a 3b b1 3f 8d 3d 09 cf 33 3e
       -0.16940969 0.0021152203 0.06896914 0.17559446
000130 92 58 1b 3e 32 01 b7 3d 50 20 0a be 91 2e 38 3e
       0.15170506 0.08935775 -0.13488889 0.17986514
000140 78 ed cc 3b dc 6b aa 3c 40 61 8a 3d 7b c2 26 bd
       0.0062538944 0.020803384 0.0675683 -0.040712815
000150 90 58 16 3e e2 c6 ab bd 06 c8 28 be 09 a5 e6 3d
       0.14682221 -0.08387543 -0.16482553 0.11261947
000160 98 8f 00 3e b0 16 f0 3c 7e 80 4d 3d 46 a0 56 bd
       0.12554777 0.029307693 0.050171368 -0.052398942
000170 7a 46 b1 3d 2b 69 a5 bb 4d b7 3d be 3d fe c3 3c
       0.086560205 -0.0050479374 -0.18526955 0.023924941
000180 bd cf 60 be 45 18 0e be 0e 8c b2 bd 86 4b e9 bd
       -0.21954246 -0.13876446 -0.087181196 -0.11391358
000190 83 59 7f bd 35 1c 8b 3d 81 c2 f6 3c c1 fb 70 3d
       -0.062341224 0.067924894 0.030122044 0.05883384
0001a0 2b 47 8d bd e2 bc d3 3d 1e 84 2f be fb b1 11 bb
       -0.0689834 0.10338761 -0.17140242 -0.0022231329
0001b0 19 1f 79 bd c5 96 22 3d 98 28 2d 3e 16 66 a3 bc
       -0.060820673 0.039694566 0.16910017 -0.01994614
0001c0 42 2d c2 bd 06 ed f4 3d 8f 09 97 3d 04 d4 ed bd
       -0.094812885 0.11959271 0.0737487 -0.116127044
0001d0 39 fb 44 3e fb 50 60 3d 30 07 3a 3c 3b e8 16 3d
       0.19236459 0.05476473 0.011354253 0.036842566
0001e0 1a cd c1 bb 0e 87 59 be 38 6c bf 3d b6 d9 ff 3d
       -0.0059143426 -0.21242926 0.09346813 0.12492697
0001f0 fd fd 8e bd 10 d9 dd bc 9a 3b 64 bd 23 40 fd bd
       -0.06982038 -0.027081043 -0.055720903 -0.12365749
000200 ee b8 8c 3b 7d c2 1c 3e 19 74 07 3c ae 8d 3f bd
       0.0042945063 0.15308566 0.008267426 -0.046765976
000210 3e 03 24 3e 8a 29 aa bd f9 6f ec bd 49 28 aa 3d
       0.16016862 -0.08308704 -0.115447946 0.08308465
000220 ca 9f e4 3d 12 80 d4 3d 94 d3 1b 3e 3d 27 a1 3d
       0.1116329 0.1037599 0.1521743 0.07868812
000230 76 94 2a 3e 77 6a 67 bd 8a 07 a4 bd 72 70 d4 bd
       0.16658196 -0.056498017 -0.080092505 -0.1037301
000240 5b 6a 3e 3e 27 b8 01 bd ca 83 20 bd f3 4e 60 bd
       0.18595259 -0.031669762 -0.039188184 -0.05476279
000250 01 1b 2f be 0b 83 5a 3d 5c 6c a7 3d 6f c1 c1 3d
       -0.17100145 0.05334763 0.08174965 0.09460723
000260 ec 06 78 bd 9f 5f 2c be 01 bb 0a 3e b4 b0 18 be
       -0.060553476 -0.16833352 0.13547899 -0.14911157
000270 0f 01 0d be 46 70 30 3e 27 cd 99 3b a5 ee d6 3d
       -0.13769935 0.17230329 0.0046936455 0.104947366
000280 4b 56 02 bb 84 f7 33 bd 9e 96 00 be 4f a1 20 3e
       -0.001988786 -0.04393722 -0.12557456 0.15686534
000290 cd 35 df bd 9c 17 1b be 50 70 c9 bd 3d d4 29 3e
       -0.108989336 -0.15145725 -0.09835875 0.16584869
0002a0 59 98 3f be 77 04 93 bd 86 66 11 3e 28 c0 d1 3d
       -0.1871046 -0.07178586 0.14199266 0.10241729
0002b0 4a b5 e3 bd 7f 60 dc bd f8 d4 28 3d 01 69 2a 3b
       -0.111185625 -0.10760593 0.041218728 0.0026002529
0002c0 e2 58 b1 3c 31 e4 09 bd 9b 49 35 bc f8 a1 9e bc
       0.021648828 -0.033664886 -0.011064912 -0.019364342
0002d0 ca 17 44 bd f6 60 f2 bc 68 16 c3 3d a5 37 59 be
       -0.04787425 -0.02958725 0.09525758 -0.21212633
0002e0 d3 94 84 bd 6b 50 9c 3c 25 b8 18 3c c2 a2 98 bc
       -0.064736985 0.019081315 0.009321247 -0.018632296
0002f0 e3 f5 cf 3d 7e cc 12 be 3c 3e a1 bc c0 4c 71 3d
       0.10154321 -0.1433582 -0.019682996 0.058911085
000300 c8 a2 9e bd 3c 55 12 be a6 74 df 3d c8 eb 37 bc
       -0.07745892 -0.14290327 0.10910921 -0.011225648
000310 33 f5 1d 3e 10 b2 16 bc 75 dd 86 be 5f 03 18 3e
       0.15425567 -0.009197727 -0.26340833 0.14845036
000320 08 1d 6a bd 08 89 94 bd 00 71 80 bd 7f 1d e1 3d
       -0.057156593 -0.07252699 -0.06271553 0.10991954
000330 7a c0 2d be ff dd 35 be ae 59 89 bd 41 a8 dc 3d
       -0.16967955 -0.17760466 -0.06706558 0.107742794
000340 6d 12 06 3e 88 15 b9 bc 8b e0 17 be b0 7b 21 3c
       0.13092966 -0.022593275 -0.1483175 0.00985615
000350 6b 15 64 be 0a 3b 16 be cd 21 a5 bd f8 cf 9b bd
       -0.22273795 -0.14670959 -0.080630876 -0.07608026
000360 ba f0 d2 ba a4 0a b9 bd 11 64 95 3b 5c a7 31 3e
       -0.0016093471 -0.09035233 0.004559048 0.17348999
000370 ef 27 3a bd 2e e4 85 bd f2 59 f1 3d ac 0d a2 bd
       -0.04544824 -0.065376624 0.11784734 -0.07912764
000380 1c b5 98 3c d9 33 f8 3c 7e 24 86 3c e3 29 44 bd
       0.018641047 0.03029816 0.016374823 -0.04789151
000390 2f 4c 62 bb 63 fe 50 3e 42 d5 e7 bc 0c 0a 10 3c
       -0.0034530272 0.20409541 -0.028299931 0.008791458
0003a0 15 c4 f5 bd 22 bd b8 3c d3 a7 2b be 3e 4f e3 bd
       -0.1200029 0.022551123 -0.16763239 -0.110990986
0003b0 06 03 57 bc ed b7 f1 3d 3d 6f d5 3c 01 f1 e3 3d
       -0.013123279 0.11802659 0.02605402 0.11129952
0003c0 16 83 9a 3d 03 4f da bd 41 4f 42 bd fd 1d 86 3d
       0.07544534 -0.106596015 -0.047438864 0.065486886
0003d0 24 32 2a 3e 52 3d 18 be d5 7a 53 bd 4a 27 87 bd
       0.1662069 -0.14867142 -0.051630814 -0.06599291
0003e0 55 67 3f ba 65 3c e3 3d 93 1a ee bc 57 ad 43 3d
       -0.00073014694 0.11095504 -0.029065406 0.04777273
0003f0 67 3e 15 bd 02 9d d8 3d 00 37 8e bd 42 d9 82 bd
       -0.036436465 0.10576822 -0.06944084 -0.06389095

bias f4 [128]
000000 43 82 26 3d 5e e3 39 3e d7 6d 20 3e 49 90 c1 3d
       0.04065157 0.1815314 0.156669 0.09451348
000010 b9 4b 8b 3d d1 60 81 3d f9 19 42 bd 85 9c a5 bd
       0.06801552 0.063172944 -0.04738805 -0.08086494
000020 f1 a7 02 be 0a 05 45 3a 35 f4 8a 3d c6 3c 01 3e
       -0.12759377 0.00075157045 0.0678486 0.1262084
000030 45 8f 23 be fd 67 67 bd 1f 8f 03 be d2 5d a3 bd
       -0.15972622 -0.056495655 -0.12847565 -0.07976879
000040 40 5d c8 3c 56 6b c5 bd ee 1b 21 3e 85 4b 23 3e
       0.024458528 -0.09639613 0.1573331 0.15946777
000050 f6 da ef bd d4 51 2d 3e 6f f2 24 bd b6 87 b3 bd
       -0.11711685 0.16925746 -0.040270265 -0.08766119
000060 fb 2b 0f bd bf 81 f1 3d 84 bf 28 be 2c 76 98 3c
       -0.034954052 0.11792325 -0.16479307 0.018611036
000070 13 99 b5 3d d3 40 0c 3c e1 56 b0 3a f7 90 9e 3d
       0.08867087 0.008560377 0.0013453626 0.077424936
000080 6a ea 9c bd d6 69 40 3e 37 1c 96 3c a1 2b f6 3d
       -0.076618984 0.18790373 0.018324 0.1202004
000090 18 5c d6 3d a0 36 9f bd 7b e1 35 3d 9f 38 27 3e
       0.10466784 -0.07774091 0.044404488 0.16330193
0000a0 31 95 3c 3e 3b c0 af 3d 70 f9 02 be e2 34 22 be
       0.18416287 0.08581587 -0.12790465 -0.15840486
0000b0 0a 61 46 3e c0 c6 3f be 64 af 09 3e 8d 20 b7 3c
       0.19372955 -0.18728161 0.13445812 0.022354389
0000c0 8d 10 2e be 11 b5 16 3e 88 e7 05 be f1 57 7b bd
       -0.16998501 0.14717509 -0.13076603 -0.061363164
0000d0 20 ed 17 bd ec 18 90 bd a5 29 b2 bd 55 26 96 bd
       -0.037091374 -0.070360035 -0.08699349 -0.0733153
0000e0 90 e4 ea bc 87 70 f2 bc ae 7c 1f be 7f d0 9c bc
       -0.02867344 -0.029594673 -0.15574905 -0.019142387
0000f0 9c bc 7b bd b8 0b e6 bb 07 d4 90 3d a6 c3 16 bd
       -0.06145917 -0.00702044 0.07071691 -0.03680768
000100 84 2e f7 3d c8 2a b5 bd d7 d9 02 3e ac 81 fa 3c
       0.12069419 -0.088460505 0.12778412 0.03057941
000110 47 79 0a be 47 64 38 3e 2d 4e b3 bd 08 cc 49 3e
       -0.13522826 0.18007003 -0.08755145 0.19706738
000120 09 2f 51 3d 46 a5 8f bd 96 12 f5 bb b3 de 08 be
       0.051070247 -0.07013945 -0.0074790223 -0.13366203
000130 5c 24 52 be 0c af 34 bd ad cd 1f 3d 76 1f e7 3d
       -0.20521683 -0.04411225 0.039014507 0.112852976
000140 25 cf 09 3d eb 90 16 be 41 98 b4 bd 58 79 42 bd
       0.033644814 -0.1470372 -0.08818103 -0.047479004
000150 86 85 15 be de 1c 32 be 20 1c c7 bd 58 6a c6 3c
       -0.14601716 -0.17393824 -0.09722161 0.02422063
000160 0d fb be bc c9 e6 9a bd 1d 28 e7 3b bf 35 d6 bd
       -0.02331307 -0.0756355 0.0070543424 -0.1045947
000170 e0 ab aa bd c6 7f 3b 3d 45 85 10 be 22 31 26 3b
       -0.08333564 0.04577615 -0.14113338 0.0025358875
000180 c4 69 3e 3e 6f c3 06 3e 61 29 a9 bc 65 68 87 3d
       0.18595034 0.1316049 -0.020649614 0.066117086
000190 11 1a 26 be 5f 48 96 3d 2d e1 0b bd 74 f7 1d 3e
       -0.16220881 0.073380224 -0.03415029 0.15426427
0001a0 f2 99 33 3e c8 1c 20 3e c2 f9 28 3e 23 0f a0 3d
       0.17539194 0.15635979 0.16501525 0.07815387
0001b0 1e 9b d5 bc 6a 67 04 3e 79 7d 28 3e fa c2 b2 bb
       -0.026074942 0.12930074 0.16454114 -0.005455372
0001c0 09 f9 a2 3d 67 b1 b4 bd 98 17 e0 3d 21 4b 84 bc
       0.07957656 -0.08822899 0.10942 -0.016149106
0001d0 57 bb 1f 3c e6 36 9e 3d 07 87 7a 3d 16 96 12 be
       0.009749255 0.07725315 0.06116393 -0.14315066
0001e0 7c db 5d bd 22 aa 29 ba b2 0d 19 bc 5d 53 eb 3d
       -0.054164395 -0.000647219 -0.009341644 0.1149051
0001f0 b2 f1 e6 bd 84 ae 5a bd 27 dc 43 be d9 69 b5 3c
       -0.112765685 -0.053389087 -0.1912695 0.022145199

weight f4 [8, 128, 3, 3]
000000 03 0e ae 3b f4 b3 17 bc 3c 62 9e 3b 0a 4c 02 3b
       0.005311729 -0.009259213 0.004833488 0.0019881749
000010 d6 9e bc 3c 34 2e 94 3c 96 a6 0d bc fd e0 54 ba
       0.023024958 0.018088438 -0.008645674 -0.0008120684
000020 36 2c 8f 3c 42 a6 f9 bb 24 bd d8 3b c2 b3 76 bc
       0.017477136 -0.0076186964 0.006614344 -0.015057506
000030 cb 2b 3c 3c 44 29 39 3b 82 57 a9 bc 5f 88 be 3c
       0.01148505 0.0028253356 -0.02067161 0.023258386
000040 e7 d5 09 3c 23 31 a1 bc 78 4a 99 bc 5a 88 2d 3c
       0.008412815 -0.01967675 -0.018712267 0.010591591
000050 a7 c8 85 bc c3 4b 41 3b 0d f1 96 bc 86 37 5a 3c
       -0.01633103 0.002949462 -0.018425489 0.013318902
000060 8a b1 ec 3b ba 74 95 bc 8c 36 b3 3b f3 61 2a bd
       0.0072233127 -0.018244136 0.005469149 -0.041597318
000070 b2 ce ce bc 12 9d b1 3c dd 53 ad bc ae 1f 1a bc
       -0.025245044 0.021681342 -0.021158153 -0.009406967
000080 f5 8b 35 3c 61 4e bc 3b 9e 18 26 3b 0c 6a 2a ba
       0.011080732 0.005746648 0.0025344263 -0.00065007876
000090 c7 2f ba 3a 27 49 38 3b e9 8b d1 bc c7 90 95 bc
       0.0014204913 0.0028119774 -0.02557941 -0.018257512
0000a0 ad 2c d5 3c 54 8f a5 3c e7 43 8d 3c dd 3d e4 3c
       0.02602228 0.020209946 0.017244292 0.02786153
0000b0 e7 eb a0 3c bf 0f 3f ba 95 ad 36 3c 1a ad 83 bc
       0.019643737 -0.0007288418 0.011149784 -0.016073752
0000c0 87 8f 5a 3c c4 09 1c bc 6c e4 0d 3c 7b 03 2a 3c
       0.013339884 -0.009523813 0.008660417 0.010376806
0000d0 19 84 cb 3c 81 e3 7f bc 40 93 a9 bc 28 57 dd 3a
       0.024843263 -0.015618206 -0.020700097 0.0016886937
0000e0 a1 8b 17 bc 24 11 9b 3b a0 81 42 bb 71 25 91 3c
       -0.009249599 0.004732268 -0.0029679313 0.017718049
0000f0 3a 6b d9 bb c4 ea 5e bc bc a5 06 bc a7 5f 52 b9
       -0.006635097 -0.013605777 -0.008218225 -0.00020062794
000100 8b 85 2f 3c 11 cf 74 3b a7 0a 0d bd 68 a6 93 3c
       0.0107129915 0.0037354867 -0.034433987 0.018023685
000110 5b 44 c9 bc c9 b1 cf bc bc f7 cf bc cb 9c ad 3a
       -0.024568727 -0.02535333 -0.025386684 0.001324558
000120 01 08 30 b8 31 73 10 3c 8d cf 18 3b 18 b6 22 bd
       -4.1969124e-05 0.008816526 0.002331707 -0.03972444
000130 83 42 f2 3b af 5a 64 3c c6 82 0d bd 09 48 e1 bb
       0.0073931827 0.013937636 -0.034548543 -0.0068750423
000140 67 ed 51 bc 30 d5 32 bc 19 45 02 bc e7 70 c6 3c
       -0.012812949 -0.010915086 -0.0079510445 0.024223758
000150 a4 c4 49 bb f2 3a 9b bc 48 2b 2a bc d2 82 5e 3c
       -0.0030787373 -0.018949006 -0.010386296 0.013580995
000160 6f 3a 26 3c bc 50 45 3b 3c 20 f2 bc 4b 3d 16 3c
       0.010145768 0.0030107936 -0.029556386 0.009169887
000170 a2 5c d2 bc db 15 ad 3c 4f c8 a1 3c 9d 7c 95 bc
       -0.025678936 0.021128586 0.019748835 -0.018247897
000180 48 a5 c5 bb b2 9b c9 3c f7 c3 26 bc 17 1f 87 bc
       -0.006031666 0.024610374 -0.010178558 -0.016494317
000190 c7 45 82 bc 5a d9 11 bc 68 61 de bc 7e d8 ec 3c
       -0.015902413 -0.008901918 -0.027146056 0.028911825
0001a0 64 85 80 ba b9 d6 0a bc e2 03 07 3c b4 a9 b5 bc
       -0.0009805379 -0.008474045 0.008240672 -0.022175647
0001b0 a0 32 33 bc e4 3a c5 bc a6 8e be 3c 5f 4f 71 bc
       -0.010937363 -0.024075933 0.02326138 -0.014728396
0001c0 51 d5 bc bb 46 ca cf bb 79 a9 33 bc a3 89 51 3c
       -0.005762734 -0.0063412515 -0.010965698 0.012789163
0001d0 12 8a be 3c 5d aa 76 3b 56 16 31 bc 2a 5d b4 bc
       0.023259196 0.0037638166 -0.010808548 -0.02201708
0001e0 23 0f 36 bb aa 4a fe 3b f7 82 82 bc 21 89 22 3c
       -0.0027780018 0.0077603655 -0.01593159 0.009920389
0001f0 2c 7e ee 3c e2 af ed 3a c3 b5 74 3c 1c 63 4e bc
       0.029112898 0.0018134082 0.0149359135 -0.012596872
000200 20 80 4f bc a5 6b ba 3c 38 41 6d 3c 45 22 20 3c
       -0.012664825 0.022756407 0.014480881 0.0097737955
000210 23 62 50 3c bc 44 52 3c 27 29 97 bc ed 7d 3d bd
       0.01271871 0.01283377 -0.01845224 -0.04626267
000220 50 fe 3a ba fb 7c 0b bd db d8 b7 bb 72 a3 28 3b
       -0.00071332324 -0.034054738 -0.005610568 0.0025732187
000230 74 be b0 bb 7e 87 2a 3c e6 56 c6 bc 56 07 8d 3c
       -0.0053937975 0.01040828 -0.024211358 0.017215412
000240 b1 a3 25 3c e6 5d 0a bc 4d 8f 70 bc 4c be 4a 3c
       0.010109828 -0.008445239 -0.014682603 0.012374472
000250 23 7a ef ba fc bd d1 bb 60 8e f9 bc 57 14 ee bc
       -0.0018270653 -0.0064008217 -0.030463398 -0.029062433
000260 d6 5d d2 3c ba fe c5 bc 61 3f 28 bc 1f 30 04 bd
       0.02567951 -0.024169315 -0.010269017 -0.032272454
000270 43 cd d3 bc e4 3b 63 3c ed 84 6c 3c 1c 75 e2 ba
       -0.025854712 0.0138692595 0.014435989 -0.0017277333
000280 85 6e 72 3c e9 ae 37 3c f7 be 4b 3c a9 2c a8 bc
       0.014796858 0.011211135 0.012435666 -0.020529108
000290 59 db 20 bc 0e d3 d9 bc d4 e8 0b 3b bf 9d dd 3b
       -0.009817922 -0.026589897 0.0021348493 0.0067631896
0002a0 53 4d 87 3c ac bb 83 3c 9c ea f4 bc 48 87 67 3c
       0.016516363 0.0160807 -0.029897027 0.014131375
0002b0 66 fe 9b 3c ac f6 84 3b 4e 69 bc bc bb e5 1a bc
       0.019042205 0.004057726 -0.022999432 -0.009454186
0002c0 7b 63 ec bb 8b d4 88 bc 86 35 62 bc 0c 01 3b 3c
       -0.0072140074 -0.01670291 -0.013806706 0.011413824
0002d0 0d f4 84 bc 00 23 b6 3b 12 79 83 bb 6c c8 99 3b
       -0.016229654 0.0055583715 -0.0040122354 0.0046930816
0002e0 61 01 85 3c 73 04 87 3c 02 54 7a 3c f5 97 c2 3c
       0.01623601 0.016481614 0.015278818 0.0237541
0002f0 42 71 4b 3c b7 40 73 3c 30 1f c0 3b 71 15 c2 3c
       0.0124171395 0.014846972 0.005863093 0.023691865
000300 9e ee 5b bc e8 37 54 bc 49 84 33 3c 3f 9e d9 3c
       -0.01342359 -0.012952782 0.010956832 0.026564715
000310 f0 8c 87 bc 40 46 05 3d 1e 09 3c 3b 0c 90 5b 3c
       -0.016546696 0.0325377 0.0028691958 0.013401043
000320 c8 70 4a ba 9b 0f e8 bc 85 9c a7 bc 02 d0 77 3a
       -0.0007722494 -0.028327754 -0.020460377 0.0009453298
000330 cf 63 c2 bb e7 ef ca 3c e3 97 a2 bc e2 c8 b3 3c
       -0.0059323083 0.024772597 -0.019847816 0.021946374
000340 bd ed c9 bc a8 04 9f 3c 3b e3 15 bd 6b d1 b7 3c
       -0.024649495 0.0194114 -0.036593657 0.022438725
000350 08 e9 06 3d c6 89 06 3c 8c 08 99 3c 00 e1 20 bc
       0.03293708 0.008211559 0.018680833 -0.009819269
000360 8e 2f e9 bc 3e 03 c2 3c 7a 40 ac 3c b9 d6 d5 bb
       -0.028465059 0.023683187 0.021026839 -0.006525841
000370 4c 9b 1d 3d 1d b5 3d 3c 53 e5 11 3b 29 6a 7c 3c
       0.03847818 0.011578825 0.0022261932 0.01540617
000380 70 64 65 3c 6b da d1 bc ca 85 20 bc cc 1f f1 3b
       0.014000997 -0.025616845 -0.009797523 0.007358527
000390 ba fa 58 bd 95 d4 8f bb 61 a0 c8 bc 6e 7f e2 bc
       -0.052973486 -0.0043893554 -0.024490537 -0.027648654
0003a0 7f 3c fd bb 11 66 e3 3b 6b 51 04 3d a4 87 e4 3c
       -0.007728159 0.0069396575 0.03230421 0.02789671
0003b0 71 b4 fb 3c 95 fd 8b 3c c0 7a 5d 3b 25 b0 1e bb
       0.03072569 0.01708869 0.0033795089 -0.0024213877
0003c0 be 4d d4 ba d0 2f cf 3b 5d 71 9b 3c 08 9e 42 bc
       -0.0016197485 0.0063228384 0.018974954 -0.011878498
0003d0 6c 42 b4 3b 48 ba 64 3c 2c f5 4a 3c 2a c3 e7 3c
       0.005501082 0.013960429 0.012387555 0.028291304
0003e0 91 de 8a bc ba ca c8 3b 6e d5 90 3c 60 30 e3 3c
       -0.016951831 0.0061276825 0.017679896 0.027733028
0003f0 35 ec 9a bb 72 66 b3 3c 15 2f 41 3c b0 90 b4 bc
       -0.004727865 0.021899436 0.01179101 -0.022041649

bias f4 [8]
000000 e3 c0 71 3c b8 ef 0a 3b 96 f5 ac bc c7 8c 77 bd
       0.01475546 0.0021200012 -0.021113198 -0.06043699
000010 8c 7d 59 bd 53 4a 0f 3d 1e 53 4a bd 9a e1 bb bb
       -0.053098246 0.03498299 -0.049395673 -0.005733681

weight f4 [8]
000000 eb c8 86 3f 0e e6 86 3f 9f 5f 8c 3f 05 6b 86 3f
       1.0530065 1.0538957 1.0966681 1.050141
000010 bf 4a 86 3f 2f 4c 93 3f f7 e0 92 3f 33 af 93 3f
       1.0491561 1.1507624 1.1474904 1.1537842

bias f4 [8]
000000 5f 73 16 3e 40 09 25 3e 57 ed 1c 3e 37 5f 1c 3e
       0.14692448 0.1611681 0.15324913 0.15270697
000010 a6 4c 25 3e 93 a4 25 3d 8b 83 12 3e 36 83 11 3e
       0.1614252 0.040440153 0.14307992 0.14210209

running_mean f4 [8]
000000 4a 5e b2 be 35 cc ac be 99 e5 8c 3d 2c 78 1c bf
       -0.34837562 -0.33749548 0.0687973 -0.6112087
000010 ef a6 e2 be 0f 63 83 3e 43 c9 91 bd cd 94 d1 bc
       -0.44267985 0.25661513 -0.07118466 -0.025583649

running_var f4 [8]
000000 b9 7d e2 3f 0d 25 42 40 0f 01 89 3f bb f8 02 41
       1.7694618 3.0335114 1.0703448 8.185725
000010 ce 46 91 40 a9 01 33 3f 12 ed 4a 3f 36 8d 26 3f
       4.539893 0.6992441 0.7926799 0.6505922

weight f4 [64, 128]
000000 8e 17 f5 3b 84 2c 82 bd c3 a8 3c bd de 98 cc 3d
       0.0074796146 -0.06356147 -0.04605938 0.099900946
000010 ad 47 75 bd 1c 7e 19 bd 02 dc a7 bd ae c1 cd 3d
       -0.05988281 -0.037473783 -0.0819626 0.10046707
000020 65 66 a5 bd 39 2e 36 3c 00 04 b2 3d d0 59 37 3d
       -0.08076171 0.011119419 0.08692169 0.044763386
000030 1a 82 27 3d 1a e1 4f 3d 29 8a fb bc b0 84 4f 3d
       0.04089556 0.050751783 -0.030705528 0.05066365
000040 42 1f 8f b8 cc 55 a5 bc d3 45 4c bd 04 11 46 bd
       -6.8245936e-05 -0.020182513 -0.049871277 -0.04835607
000050 8c a6 96 3d 0f ed e0 bc ad 9a 24 3d d8 61 49 3d
       0.07355985 -0.027456788 0.040186573 0.049165577
000060 f3 87 8b bd 3f 0d bd 3d 5b ea 65 bb b5 ba 73 bd
       -0.0681304 0.09231042 -0.0035082314 -0.05950423
000070 26 fe 9b bd 1c 56 a4 3d 3f 43 11 3e b1 88 d3 3c
       -0.07616834 0.080242366 0.14185809 0.025822015
000080 e2 e3 40 bd b3 f8 9a 3d 63 7d b3 3d 50 69 21 bc
       -0.047092326 0.07566967 0.0876415 -0.009851769
000090 72 be 9e bd 52 1b 97 bd b4 6a c6 bb d3 5b e5 3c
       -0.07751168 -0.07378258 -0.0060552005 0.027997887
0000a0 27 d2 33 3d 72 58 f7 3c 41 b0 b5 3d 84 3d 26 3d
       0.04390159 0.030193541 0.088715084 0.04058601
0000b0 b2 ea 3d 3e 53 b2 0b 3e 76 d4 0c 3d d1 bc c5 3d
       0.1854656 0.13642244 0.034382306 0.096551545
0000c0 dd f8 67 3d d9 2a 75 3c 99 ea 88 3c 0e 65 bb 3d
       0.05663382 0.014963829 0.016713427 0.09150134
0000d0 9c ce ee 3a 85 c9 2b 3c 28 b9 89 bb 04 42 d0 3c
       0.0018219533 0.010485058 -0.0042029805 0.025422104
0000e0 dd fb a3 bc 55 02 74 bd d5 1c 88 bd 3a 48 23 bc
       -0.020017559 -0.059572536 -0.06646124 -0.009965951
0000f0 22 53 c4 bd da ee 58 bd 63 84 f7 3b b6 8e 6b 3c
       -0.09586169 -0.05296216 0.0075536235 0.014377287
000100 4b 25 ee bc 1d 8c c1 3d 0f db 53 bd a3 3e 45 3c
       -0.029070517 0.094505526 -0.051722582 0.01203886
000110 a6 72 31 bd 19 88 b5 ba 46 c0 3b bd 2e 06 7e bc
       -0.043322228 -0.0013849764 -0.045837663 -0.015504403
000120 69 95 0d 3d 08 63 bc 3c 56 6e f1 bc 10 7d 18 bd
       0.034566317 0.02299644 -0.029471558 -0.037228644
000130 79 2c a2 3d c6 89 21 bd ff 09 8d 3d e9 b8 40 3d
       0.07918639 -0.03943803 0.06886672 0.047051344
000140 5e ad 9d 3d 6a c5 a7 3d 06 fc b1 3d 68 75 8c bd
       0.07699083 0.081919506 0.08690648 -0.06858331
000150 bd c4 0d 3d b1 05 02 bd 4d 51 22 bd 2f c0 58 bd
       0.034611452 -0.03174371 -0.039628316 -0.052917656
000160 25 95 e0 3c 98 5f 92 3c 2c 26 e7 3d 01 4f a8 bd
       0.027414868 0.017867848 0.112865776 -0.08218194
000170 bb 40 3b bd 98 67 1e 3d 69 68 cd bd 74 e5 8d 3d
       -0.04571603 0.038673013 -0.1002968 0.0692853
000180 e8 9d 01 bc 2f af 82 3d 16 5c 2f 3d c3 01 9d bd
       -0.007911183 0.0638107 0.04281243 -0.07666352
000190 78 8e 08 3e ef 1f 1f 3d 49 31 05 bd f0 90 57 bc
       0.13335598 0.038848814 -0.032517705 -0.013157114
0001a0 b0 be 9c 3d 38 f4 c0 bc 52 5c 6e bd a7 6b 14 3c
       0.07653558 -0.023553953 -0.058193512 0.009058869
0001b0 88 36 90 3d 84 3e 28 3d 17 8c 2e 3c cc ff 66 3b
       0.07041651 0.041075245 0.010653517 0.0035247682
0001c0 06 bd 90 3d a0 d7 24 3d 2e d2 3d bc 4f 04 11 3d
       0.07067303 0.0402447 -0.011585755 0.0354045
0001d0 4b 0d fb bc 13 b3 ee bc 09 b4 75 3d b3 61 aa 3c
       -0.030645987 -0.029138124 0.059986148 0.02079854
0001e0 08 11 01 3c 1a 96 a5 bc 34 2d a6 bd 87 45 94 3d
       0.007877596 -0.020213176 -0.081140906 0.07239824
0001f0 ab 8d 7d 3d df c9 f3 3c 28 d2 ce 3c cd 33 6d 3d
       0.061902683 0.029759346 0.025246695 0.05791073
000200 1b 29 78 3d 7a b1 8b 3d ca f6 58 bc f1 f6 83 3d
       0.060586076 0.0682096 -0.013242433 0.06443585
000210 7c d9 48 bb ce 65 a4 3d af ee 95 3d af 16 3a bb
       -0.003064721 0.0802723 0.07320916 -0.0028394868
000220 75 83 98 3d 3d 24 b1 3d 0d 29 b6 3d aa f4 a0 bd
       0.074469484 0.0864949 0.088945486 -0.07859166
000230 8d e2 88 bd 03 cc 01 bd 3d 5a 80 bd 57 1f 47 bd
       -0.06683836 -0.0316887 -0.062672116 -0.048613872
000240 2f d3 1d bd 36 dc 94 bc 69 3a 0a bd 1e 05 6e bc
       -0.03853148 -0.018171411 -0.03374711 -0.014527587
000250 65 ef 5f 3d 5f 0c ea bb 27 7e 3b 3d 1e 98 ce bc
       0.054671664 -0.007142588 0.045774605 -0.02521902
000260 66 9b 0c 3d 33 8a ab 3d 0f 3d c6 3d 96 52 78 bd
       0.034327887 0.08375969 0.09679615 -0.060625635
000270 b2 8c fe 3d a1 ce e1 3d 9e 1a e4 3d 41 d5 ac 3d
       0.12429179 0.110257395 0.11137889 0.084391125
000280 6d b0 19 3d 1b 00 5c bd 5c c5 03 bd cc e5 6b 3c
       0.03752177 -0.053711038 -0.03217064 0.01439805
000290 e6 80 80 3d 9c b6 b1 3d 2d ae 8c bd d3 6c fa 3d
       0.062745854 0.08677408 -0.06869159 0.12227788
0002a0 f1 03 a5 3d 5f 97 2b 3b 29 36 ec 3d 22 5a 6a 3d
       0.080573924 0.0026182753 0.11533768 0.057214864
0002b0 8d 87 7b bc 6c 27 2c bc 2c 81 60 3d 16 dd 7d bd
       -0.015352142 -0.010507446 0.054810688 -0.061978422
0002c0 49 3f 3e bd e3 65 d2 3d 82 13 0b 3c 7e 11 14 3d
       -0.046447072 0.102733396 0.008488538 0.036149494
0002d0 c6 8d 9c bc 74 72 9e 3d 93 1c ab bb e1 84 3c bd
       -0.019110572 0.07736674 -0.005221912 -0.04602516
0002e0 f8 c3 f5 3c 08 07 36 bd 37 8b 5c bd ab 86 3b bd
       0.030000672 -0.0444403 -0.053843703 -0.045782726
0002f0 51 83 86 3d 59 61 e0 bc 48 dc 9c 3d e0 e9 0b bd
       0.06568015 -0.027390169 0.07659203 -0.034158587
000300 54 8d 66 3d fb f2 0f 3d 3d b7 93 bc 41 82 de bc
       0.056287125 0.035143834 -0.01803171 -0.02716172
000310 65 01 84 bc 93 b8 87 3d 9b cd 61 bd e2 ab 08 3d
       -0.016113946 0.066270016 -0.05512772 0.033367045
000320 6d 3b 45 bd 46 47 43 bc 90 45 3c 3d 71 7b 49 bd
       -0.048152376 -0.011918848 0.045964777 -0.04918999
000330 8b d5 c1 3d aa d1 ef 3c 70 50 a2 3d 76 4e b5 bd
       0.09464558 0.02927478 0.079254985 -0.08852856
000340 a1 b6 b9 3d 4a 93 b0 3d a7 a5 af bd 8c 63 92 3d
       0.09068037 0.08621843 -0.085765176 0.07147893
000350 ce ca 3e bd 75 fa 02 3e 2c 57 a5 3c e0 47 11 3d
       -0.04658013 0.12790854 0.020183168 0.035468936
000360 4f 86 15 bc 26 28 85 3d 57 24 fd bd 7c b9 8f bd
       -0.00912626 0.06501798 -0.12360447 -0.070178
000370 fd 20 2f 3c 15 3e ce 3c e8 4c 97 3d 67 8d 67 bd
       0.010689017 0.025176087 0.073877156 -0.056531336
000380 d6 8f 30 bd 63 7c 98 3c 11 95 c8 3d 9b 6f a7 3d
       -0.043105923 0.018614 0.09794057 0.08175584
000390 a7 c9 c9 3d 64 e7 84 bd 54 7e 31 3d e4 86 94 3d
       0.09852915 -0.06489447 0.043333367 0.07252291
0003a0 81 0d 19 3c cb 1c d4 bc 5b 31 ee bc 93 af 8e 3b
       0.0093415985 -0.025892636 -0.029076269 0.004354426
0003b0 4e 43 4b bd 24 a2 c0 3c 81 b9 8d 3d 94 14 a3 3d
       -0.049624734 0.023514815 0.06920148 0.07962909
0003c0 fc 0e 3e 3d 2b e7 aa 3d da 5d 72 3c 6a 08 60 3d
       0.04640101 0.08344873 0.014792884 0.054695524
0003d0 0e 9e ca 3d d5 d0 98 3d 0b 49 77 3c 24 1c 10 bd
       0.09893428 0.074617065 0.015093098 -0.035183087
0003e0 72 a0 c6 bd 14 e4 03 3d d2 1b ce 3d 2d 9d 02 be
       -0.09698571 0.032199934 0.100639 -0.1275527
0003f0 4c 28 6f bc 7e f9 1c bd 0a 00 e0 3d 68 e5 f7 bd
       -0.01459701 -0.03832387 0.109375075 -0.12104303

bias f4 [64]
000000 05 0d 6b bd 93 ee 63 3d 35 5b e2 3d bb 4a 10 3e
       -0.057385463 0.055647444 0.110525526 0.14091007
000010 6d 44 47 bb 71 57 4e 3e 3e 80 be 3c 93 90 05 bd
       -0.0030405775 0.20150544 0.02325451 -0.03260858
000020 fc e8 ce 3d e4 22 36 3e 0c 03 e4 3d 43 bd 1f 3e
       0.10103032 0.17786747 0.11133394 0.15599541
000030 9f 17 4b 3e 63 9a 23 bd ea c5 35 3e a9 88 ac bd
       0.1983323 -0.039942157 0.1775128 -0.08424503
000040 fb fa 2c 3e 46 5c 1f 3e f6 c0 db bc 87 a4 1c bc
       0.16892616 0.15562543 -0.02682541 -0.009560711
000050 da fa 46 3e fa 67 33 3d cd a2 3b 3e f2 67 20 3d
       0.1943163 0.04380033 0.18323822 0.03916163
000060 bd da 69 3c 31 17 b5 bd 04 e7 fc 3d fc 53 17 bb
       0.014273343 -0.08842314 0.1234875 -0.002309083
000070 1e fb f0 3d c2 e2 d6 3d 4e b2 8c 3d a0 6d 0c 3e
       0.11766647 0.10492469 0.068699464 0.13713694
000080 d8 b9 9e bc 84 32 8d 3d ad b2 e4 3d e7 b8 0f 3e
       -0.019375727 0.06894401 0.11166892 0.14035378
000090 89 7d 4d 3e 08 68 c2 bd 0a 89 06 3e 7a 10 30 3e
       0.20067419 -0.09492499 0.13138214 0.17193785
0000a0 b0 4b b9 bd 45 c0 1c 3e 33 f4 39 3e 2f 3f c0 3d
       -0.09047639 0.1530772 0.18159561 0.09387051
0000b0 66 14 69 3c a8 08 d7 3d fc 86 e6 3d 01 28 11 3d
       0.014226055 0.10499698 0.11256215 0.03543854
0000c0 77 39 d1 3d 34 e3 2e 3e 62 39 d4 bb 7a 33 b1 bd
       0.10216039 0.17078859 -0.006476567 -0.086523965
0000d0 58 1d 3c bd bf 2f 82 bd 8a 8d 9d bd d3 57 ec bd
       -0.045926422 -0.06356763 -0.07693012 -0.11540189
0000e0 40 38 86 3d 97 c3 db bc a1 f4 1f 3e 51 0d 41 3d
       0.065536976 -0.026826663 0.15620662 0.04713184
0000f0 bc ff 96 3c a3 3c ac bd b2 14 f9 3d d9 a3 48 3c
       0.01843249 -0.08410003 0.121621504 0.012246096

weight f4 [32, 64]
000000 64 60 e0 bd c5 db 91 3d 24 e8 bb 3d 52 87 7f 3c
       -0.10955885 0.07121996 0.09175137 0.015596228
000010 f6 10 56 3d 5e 74 ad 3d 98 f1 e0 3d 75 03 2f 3e
       0.05226227 0.08469461 0.1098358 0.17091163
000020 f2 71 0a be f8 ef c1 3b 5f 3d e7 3d 55 42 c5 3c
       -0.13520029 0.005918499 0.112910025 0.024079481
000030 0b 59 01 3e 19 46 87 3d c6 2a 99 bc e6 ac f6 3d
       0.12631623 0.06605167 -0.018697154 0.120446965
000040 eb 40 3b bd 09 fe e5 bb f9 dc 5b ba d2 e5 24 be
       -0.045716207 -0.0070188087 -0.00083871145 -0.16103294
000050 a0 1e e9 bd fb 35 f6 3d f1 c1 b1 bd a4 ca 15 3e
       -0.113827944 0.12022015 -0.086795695 0.14628083
000060 06 1c ee 3d 9e 1d 5b bd 35 8a 69 bd a6 cc 43 3d
       0.11626439 -0.053495042 -0.05701657 0.04780259
000070 09 80 ad bd a8 e1 44 3d 32 0a 0d 3d ee f4 a9 3d
       -0.084716864 0.048066765 0.03443355 0.0829867
000080 42 11 1a 3d f4 99 4f 3d 60 fe 99 bd e7 96 b7 bd
       0.037614115 0.05068393 -0.07519221 -0.08964329
000090 47 df 65 bd 57 2d 61 3d 1a 8e 92 bd 49 4b b1 3c
       -0.056121137 0.05497488 -0.0715601 0.021642344
0000a0 52 f5 b8 bc c7 d5 0f 3d 28 5e 3a bd 15 92 a2 bd
       -0.022577915 0.035115983 -0.04549995 -0.07938019
0000b0 4e 13 82 3d 38 ba f9 bd 56 a5 fe bc 87 db e1 bd
       0.06351338 -0.121937215 -0.031084698 -0.110282
0000c0 76 95 03 be ca a3 35 bc 4b 7a 9f 3c b5 a9 3b 3e
       -0.12849984 -0.011086414 0.019467494 0.18326457
0000d0 62 ae c2 bd ec c7 ff bc 5f 87 9a 3d fe c8 5a 3d
       -0.09505917 -0.03122326 0.07545351 0.053414337
0000e0 32 06 64 3d e4 b1 be 3d 9d d3 d1 bd 29 81 2c bd
       0.05566997 0.09311274 -0.1024544 -0.042115364
0000f0 5e 38 0a bc 97 87 e4 bd b6 b1 d2 bd 1f e2 aa 3c
       -0.008436291 -0.11158674 -0.10287802 0.020859776
000100 97 6b 1a 3d f3 36 d5 bd f2 72 9f bd 05 3f f2 3d
       0.037700262 -0.10410871 -0.07785596 0.11828426
000110 5a 03 cd bd 1b 9c 54 3d 11 66 0d 3e b7 dd da ba
       -0.10010405 0.051906686 0.13808466 -0.0016698156
000120 0f 76 cf bd b9 3d 7c 3d bf 56 63 3b be be 28 3d
       -0.1012994 0.0615823 0.0034689156 0.04119753
000130 e7 c4 e8 3d 44 54 3f bb 18 fa 95 bc a7 86 26 3d
       0.11365681 -0.0029194513 -0.01830773 0.04065576
000140 d7 86 50 bd 0c 96 9d bd b5 d2 43 bd 1c 74 97 bd
       -0.050909843 -0.07694635 -0.047808368 -0.07395193
000150 7d 6d c6 bb 37 11 62 3d 50 4f f9 3d ea cc 49 3c
       -0.0060555325 0.0551922 0.12173331 0.012316922
000160 d3 17 9a bd 05 f5 26 3e 6a 2e 27 bd 17 3f 99 3d
       -0.07524075 0.16304405 -0.04081575 0.074827366
000170 06 19 16 bd 49 37 34 bd e2 be 4b bd bf b5 18 be
       -0.036644958 -0.043998037 -0.049742587 -0.1491308
000180 3e 21 30 be 9e ac 93 3d 84 bd 23 3d 6e ee d4 3d
       -0.17200181 0.072106585 0.039975658 0.10397039
000190 96 aa b1 bd 47 f2 08 3d 80 2d 0e 3d e0 3d ac bd
       -0.08675115 0.03343418 0.03471136 -0.08410239
0001a0 71 10 ad ba c9 a3 c7 3d fc 90 83 ba 29 95 af bd
       -0.0013203752 0.097480364 -0.0010037716 -0.08573372
0001b0 21 99 00 3d 60 16 f7 3d b7 cf 5d bd 9f 52 9c bd
       0.031396035 0.120648146 -0.05415317 -0.07632946
0001c0 ee ec 01 bd 8d 82 c3 3d 10 c2 f1 3d 61 e4 c8 3c
       -0.031720094 0.09546385 0.118045926 0.024522962
0001d0 08 66 7d 3d 8c f9 c0 3d 2e ab 9d bd fd e4 4f 3e
       0.061864883 0.09422597 -0.076986656 0.20302196
0001e0 ae ce 64 3e c4 db 6f 3c fa 3d f9 bc 06 ae 61 bd
       0.22344467 0.014639799 -0.03042506 -0.055097602
0001f0 ee c9 3a 3e 1f e3 c5 bc d6 d8 78 3d 9c 7c ee 3d
       0.18241093 -0.024156151 0.060753666 0.11644861
000200 ef a9 14 3d 99 75 86 3d 95 ef 90 bc e8 53 29 3d
       0.036294874 0.06565399 -0.017692367 0.041339785
000210 ca ed 1a bd 37 c1 9a 3d b4 1c 74 bc 9f 15 e7 3c
       -0.03782443 0.07556384 -0.0148994215 0.028208552
000220 27 85 e9 3c 82 24 30 3d 8c 0d 29 bd 81 c2 42 3d
       0.028505875 0.043003567 -0.041272685 0.047548775
000230 65 f7 9c bd 1a b4 42 3d f2 5e f2 3d 2a 78 09 be
       -0.07664374 0.04753504 0.11834516 -0.13424745
000240 51 2b a9 3d c5 ce 77 3d 67 2a 8c bd 8b a4 e6 bd
       0.08260215 0.060499925 -0.06844025 -0.11261853
000250 59 53 01 3e 2b 7f a1 3b f4 c5 e9 3d 9c a8 d4 3d
       0.12629451 0.0049284897 0.1141471 0.10383722
000260 7a 27 a4 3d 83 1b 3e bd 1a 0f 3a 3d bd c9 a0 bd
       0.08015342 -0.046412956 0.04542456 -0.078509785
000270 a0 b2 12 3e 52 c2 04 be 82 91 d4 3c ed 8e 16 3b
       0.14325953 -0.12964752 0.02594829 0.0022973374
000280 cb a2 eb bc 65 ea a5 bc 59 3b bd bd 75 66 12 3e
       -0.02876415 -0.02025337 -0.09239835 0.14296897
000290 0c 5d e1 3d 50 54 17 be 73 f1 da 39 43 41 37 3d
       0.110040754 -0.14778256 0.00041760094 0.044739973
0002a0 df 62 98 3d 9d dd 00 3e 08 2d 1f bc c4 fb 25 3e
       0.07440733 0.12584539 -0.009715326 0.16209322
0002b0 b3 6c bd bd b7 22 aa bd 68 5e e2 3d d9 b5 e6 3c
       -0.09249248 -0.083074026 0.11053163 0.028162884
0002c0 15 4a e9 3d 0f 57 bf 3d ec 6c 34 bd b6 d3 2f bc
       0.11391083 0.09342777 -0.04404919 -0.010731628
0002d0 59 e6 20 be 79 9a 29 be b8 e2 b2 bd 96 c3 4c be
       -0.1571287 -0.16562833 -0.087346494 -0.19996485
0002e0 c6 6f 33 3d a6 72 dc 3d e8 31 b1 3b d2 54 89 3d
       0.043807767 0.10764055 0.0054075606 0.06705631
0002f0 33 67 4d 3c 17 80 d9 3d fd 16 f1 3d 3b 41 1d be
       0.012536812 0.10620134 0.11771963 -0.15356915
000300 74 d4 da bd b2 f6 7c bd d3 96 d4 bd 3d 08 ea bd
       -0.106850535 -0.061758704 -0.1038033 -0.114273526
000310 65 d0 e2 bd 27 ae b6 bd eb 79 10 3d 28 60 b0 3d
       -0.11074904 -0.08919936 0.03527252 0.0861209
000320 c5 dd a9 3d f9 61 ec 3d 1b b4 fe bc a5 49 c3 3d
       0.08294252 0.11542124 -0.03109174 0.09535531
000330 fd d8 c2 bd 56 51 23 bd db b9 ea bc a1 7a 06 3d
       -0.095140435 -0.03987249 -0.028653076 0.03283179
000340 75 bf c7 3c 12 b4 87 bd 69 c3 62 3d c0 9a 06 be
       0.024383286 -0.066261426 0.05536214 -0.1314497
000350 1a 5f b8 bd d0 a5 7a bd 15 a0 fa 3d 78 2f ff bd
       -0.09002514 -0.061193287 0.122375645 -0.12460226
000360 ec b4 d2 3c fb ec a6 bd 02 41 e6 bd be 26 0e 3d
       0.025721036 -0.08150669 -0.11242868 0.034704916
000370 6e 7f f5 3d ba 44 a9 bd 32 3b 9f bd 71 0f ed bd
       0.11987196 -0.08265062 -0.077749625 -0.11575211
000380 9e 1a 7f bd 36 78 b3 bd 1c df d8 3b d5 20 a2 bd
       -0.062281244 -0.08763163 0.0066183936 -0.079164185
000390 c3 b9 84 3d 6d 40 bd bd 9f 44 de bd 54 f6 ba 3d
       0.06480744 -0.09240804 -0.10852932 0.091290146
0003a0 e4 d9 be bd 57 5a 78 bc 90 87 19 bc 09 bb c2 3d
       -0.09318903 -0.015158257 -0.0093706995 0.095083304
0003b0 75 fd eb bd 8c cf 1c 3d 21 0d a0 3c ca 1d 6b bd
       -0.115229525 0.03828387 0.01953751 -0.057401456
0003c0 5c 7c 8b bc 08 0d 73 3d 74 4f 17 bd 52 fb 92 bd
       -0.017027073 0.0593386 -0.036941007 -0.07176842
0003d0 f0 4f 88 3c 73 65 c0 3c ba dc bf 3c 54 36 b3 bd
       0.01663968 0.023485875 0.02342068 -0.08750597
0003e0 55 01 91 3d 60 06 c5 3d 77 9f af bd 4d 64 f0 3b
       0.07080332 0.096203566 -0.085753374 0.0073361755
0003f0 7f d4 d3 bc 03 04 25 3d 91 8d 56 3d 01 20 ba bd
       -0.025858162 0.04028703 0.052381102 -0.090881355

bias f4 [32]
000000 b6 37 19 3c 70 63 c3 bd e5 73 1a bb e9 20 52 3d
       0.009351661 -0.095404506 -0.0023567614 0.051300917
000010 dc e0 b3 3b 5d c5 4e 3e 29 79 12 bc fd 2b f8 bd
       0.005489452 0.20192476 -0.00894002 -0.12117765
000020 4b d2 ed bc 99 5c 9e bd 3b b0 e2 bd 5a 41 55 3e
       -0.02903094 -0.07732505 -0.110687695 0.20825711
000030 0a 4f 6a bd b3 2e 48 3d 8e d6 39 bd 35 2f c3 3c
       -0.057204284 0.04887266 -0.04537063 0.023826221
000040 8e 83 05 3e 9f 17 25 3d 07 a9 4c bd a6 05 80 3d
       0.13038465 0.04030573 -0.049965885 0.06251077
000050 69 c5 ae 3c eb 05 32 3e 95 5b 0a 3e 45 af dc 3d
       0.021334367 0.1738507 0.13511498 0.107756175
000060 5b d7 aa 3d be 55 07 3e 5e da 51 bd c3 5c 4a 3d
       0.08341857 0.13216302 -0.05123364 0.04940487
000070 ea 5a 7d bc d8 52 98 3d 17 e5 ae bd 75 47 54 bd
       -0.01546357 0.07437676 -0.08539789 -0.05182596

weight f4 [10, 32]
000000 ac 84 34 be 2d b4 57 be af 20 44 3e 18 63 e8 3d
       -0.17628735 -0.21064825 0.19153093 0.11347026
000010 af 03 b3 bd 88 ed 3e 3e c5 3b 15 be ee 2f 2d be
       -0.08740937 0.18645298 -0.14573582 -0.16912815
000020 4f 52 1a be 64 8a 58 be 46 87 0f be 79 96 ca 3d
       -0.1507046 -0.21146542 -0.14016446 0.09891982
000030 d1 5f 79 be f7 4e d7 bd cd 7b 97 3d ba 19 cc bd
       -0.24352957 -0.10513108 0.0739666 -0.099658445
000040 55 7b 4c 3e 62 f6 1c 3d 42 09 e3 bd 5f ed 54 be
       0.19968922 0.038320906 -0.1108575 -0.20793675
000050 5c 95 ee 3d 4d 9b 7f 3d 24 8d 26 3e 1f 6a 0a 3e
       0.11649582 0.062403966 0.16264778 0.13517044
000060 f5 c3 3a 3e bc 1a 57 3e 75 cb d2 bc f9 f6 ef 3b
       0.18238814 0.21006292 -0.025731781 0.0073231426
000070 65 a4 00 3e 51 5b 45 3e 57 bb 12 be 79 29 87 3d
       0.12562712 0.19273116 -0.14329277 0.06599707
000080 6d 42 31 be 9a 9c 39 bd d1 a9 6b 3d c4 2d eb bd
       -0.17310496 -0.045315363 0.057534996 -0.114833385
000090 7d 3a 1b 3e d6 b9 8b bd cb 5f 88 3d 77 a4 fa 3d
       0.1515903 -0.06822555 0.06658896 0.122384004
0000a0 07 d0 89 3d 6e 2d 17 bd 1c 8c 26 3d 5b 18 20 3e
       0.06729131 -0.03690856 0.040660962 0.15634291
0000b0 2c fa 1b bd 4c 27 b4 3d 8b 0d 2a be d2 e6 ba 3d
       -0.03808038 0.08796558 -0.16606729 0.09126057
0000c0 ca b6 59 3e ab 86 75 be 71 aa fb bd b5 e9 99 3d
       0.21261135 -0.23977153 -0.122883685 0.07515279
0000d0 09 73 eb 3d a9 ea 30 3e 40 8c 02 3d cb 9d 1a 3e
       0.114965506 0.17277016 0.031872034 0.15099256
0000e0 0a fa 99 bd 7a ea d7 bd 75 cb 2d 3e 9c 67 1f 3e
       -0.07518394 -0.1054277 0.16972144 0.15566868
0000f0 5d 45 00 be e1 e5 11 be 6d 59 25 be 6a 33 28 bc
       -0.1252646 -0.14247848 -0.16147394 -0.010266164
000100 82 ae 30 3d fa d8 f1 3d ea 48 e1 bb 0a 93 01 3e
       0.043135174 0.11808963 -0.006875147 0.12653747
000110 11 a7 49 be ca 5e 10 3e bb 9e f4 bd a9 ab 9f bc
       -0.19692637 0.14098659 -0.11944338 -0.019491034
000120 11 d5 68 3e c9 0d 3d 3e 31 53 e9 3b e7 cf 30 3e
       0.22737528 0.1846229 0.007120513 0.17266808
000130 62 f6 01 3e 53 43 1c bd 98 86 94 bc 52 2b 0e be
       0.12691644 -0.038150143 -0.018130586 -0.13883713
000140 fe 81 35 bd 38 a6 70 be 85 70 5c 3e 95 4a 2c bb
       -0.044313423 -0.23500907 0.21527298 -0.0026289572
000150 54 db 8e 3b 96 b7 0e 3c 4a 64 ff bc fe 30 30 3d
       0.004359642 0.0087107625 -0.031175751 0.043015473
000160 e8 8b 43 bc 6b 99 62 bd 41 07 3a 3e a9 42 a3 bd
       -0.011935212 -0.055322092 0.1816683 -0.07971699
000170 06 0a 65 3d 4d 33 d4 3d a3 e8 38 be 3b ea 86 bd
       0.055917762 0.10361347 -0.18057494 -0.06587645
000180 7a 9c d1 3c 23 ec a9 3d 5f de 1c 3e d2 c7 c6 bc
       0.02558731 0.08296993 0.15319203 -0.024265204
000190 19 40 f9 bd 98 38 f1 bd 8b af 04 3e 89 cc b8 3c
       -0.12170429 -0.117783725 0.1295759 0.022558467
0001a0 11 ec 34 bd a0 23 2a be b7 78 9f bd b5 86 fe bd
       -0.044170443 -0.16615152 -0.077866964 -0.12428037
0001b0 fb 46 e5 3c a4 b5 2e be 9f a7 d6 3c 81 ba be 3d
       0.027987948 -0.17061478 0.026202975 0.093129165
0001c0 64 27 78 bd 8d 8c 0f be fe fa f8 3d e0 f9 33 be
       -0.06058444 -0.1401846 0.12157248 -0.17575788
0001d0 e5 37 78 3d 68 f6 0e be 80 c6 54 bc 62 e4 99 bd
       0.06060018 -0.13961184 -0.012986779 -0.07514264
0001e0 01 0f 0b 3c 75 a7 10 bd d5 dd 76 bd 09 5d 00 3e
       0.008487464 -0.03531595 -0.06027015 0.1253549
0001f0 85 da d4 bd 11 23 35 3b 53 58 0d be c8 db 02 bd
       -0.10393242 0.002763931 -0.13803224 -0.03194788
000200 5b f3 eb 3d f5 36 5f 3e 20 fa 33 be 5c 01 28 3e
       0.11521026 0.21798308 -0.17575884 0.16406769
000210 a3 5e 93 be bf fe 0b be 7a a4 c6 3d 29 ba 65 3d
       -0.2878314 -0.13671397 0.0969934 0.05608574
000220 56 65 ec bd 61 97 c2 3c dd f6 53 3e 03 5d f9 3d
       -0.11542766 0.023753824 0.2069964 0.12175944
000230 6d 14 04 3e 18 da 72 3d 7b 5d 2c 3e e3 16 24 be
       0.12898417 0.05929002 0.16832535 -0.16024356
000240 88 d0 9f 3b 01 79 84 3d e3 2a 14 3d a9 1e 2f bb
       0.004877154 0.06468392 0.036173712 -0.0026721156
000250 6b 45 73 3d a9 37 37 be e6 3f 34 3e 77 19 61 bc
       0.059392374 -0.17892326 0.176025 -0.013738981
000260 5c 5f cd 3d 8d 1a 35 3e a3 73 43 3d 30 40 cc bd
       0.10027954 0.1768591 0.0477177 -0.0997318
000270 5b 17 3f be e3 48 39 3e 70 96 33 be 60 17 34 be
       -0.18661253 0.1809421 -0.17537856 -0.17587042
000280 a4 82 b6 bd 21 ec 4e bd e8 86 ac bc 71 b9 30 be
       -0.089116365 -0.05051816 -0.021060422 -0.1725824
000290 92 00 20 3e b4 f8 57 bd 30 1f 99 3d d4 0b ee 3d
       0.15625218 -0.052727416 0.07476652 0.1162335
0002a0 bb cc 2f be fd 99 4a 3d 1f 7f 2b 3b 35 46 0b 3e
       -0.17167942 0.04946326 0.00261683 0.13601
0002b0 ec 38 0a be 1d e2 10 bd 3e 05 ef 3d cb 5b 17 be
       -0.13498276 -0.03537189 0.11670922 -0.1478111
0002c0 cc 75 2a be 6d d3 2b be 60 f3 ac 3d 25 9d 96 3d
       -0.16646498 -0.16779871 0.084448576 0.07354192
0002d0 a2 fc 04 3e 07 3a 25 be ba ec 96 bd 95 0b 9c 3d
       0.12986997 -0.16135417 -0.07369371 0.076193966
0002e0 9b ea 9a 3d ce 76 dc 3d 57 d6 a7 3d a2 9b 82 3d
       0.07564279 0.10764848 0.08195179 0.06377341
0002f0 4a d8 7e bc 35 c6 e8 3d bf 11 70 bb 58 de 08 bd
       -0.015554497 0.1136593 -0.0036631671 -0.03341517
000300 8d dd f3 3c e4 a5 31 be 9a ad 17 be 55 1a 7b bd
       0.02976873 -0.17348439 -0.14812317 -0.06130441
000310 59 55 b3 3d 9c f3 d4 3d 13 48 49 3d c7 cb 02 be
       0.08756513 0.10398027 0.049141 -0.12773047
000320 4f cc d3 bd af f4 60 be cb f7 b4 3d 7a 4a 4d bd
       -0.10341703 -0.2196834 0.08836325 -0.050119855
000330 e8 21 17 3e 23 07 33 be 23 a0 33 3d bc 56 69 3e
       0.14759028 -0.17483191 0.04385389 0.22786993
000340 20 c3 bf bc ef e4 06 3e 1c eb cb bc 4d 61 1c 3d
       -0.023408473 0.13173269 -0.024892382 0.03817873
000350 d2 a7 90 3d a4 3c 85 be 0b fd bc 39 87 8a 97 3d
       0.07063259 -0.26022828 0.00036046686 0.07399469
000360 e2 99 63 3d 36 f7 94 bd 3a fb f2 3d 95 c5 92 bd
       0.055566676 -0.07273714 0.11864324 -0.07166592
000370 c8 e1 cf bd c5 37 70 bd f5 07 92 3d 06 63 39 be
       -0.10150486 -0.058646936 0.07130424 -0.1810418
000380 1b 4a 06 3e 1e e4 15 3e 32 63 18 3b 0c ac 09 3e
       0.13114206 0.14637801 0.0023252484 0.13444537
000390 75 9f 0a bd 85 5b 20 3e 20 42 02 3e 1d 23 11 be
       -0.033843476 0.15659912 0.12720537 -0.14173551
0003a0 68 44 2f be 0b 9a 07 3e 2e c5 e6 bd 30 0d 3c be
       -0.17115939 0.13242356 -0.11268078 -0.18364406
0003b0 8e 47 2c be bb fe 01 3e 77 7d cd bd 0d f7 7d bb
       -0.16824171 0.12694828 -0.10033696 -0.003875199
0003c0 95 aa bf 3d 71 90 c2 bd 0e d7 36 be bb 92 9f b9
       0.09358708 -0.09500206 -0.17855474 -0.00030436166
0003d0 96 14 fe 39 36 c0 26 3d 2e 32 36 be 1c ca 30 be
       0.00048461993 0.04071065 -0.1779258 -0.17264599
0003e0 8a b7 9d bd 3a 55 fe bd 7f c1 e0 bd 01 79 54 3d
       -0.07701023 -0.124185994 -0.109744065 0.05187321
0003f0 4c 7f c9 bd 49 9f 3c 3d c1 0f 22 be 67 52 d1 3d
       -0.09838733 0.046050344 -0.15826322 0.10220795

bias f4 [10]
000000 28 4a 44 3d 0a 6e 47 bc e3 9c f6 3d 05 a9 84 bc
       0.047922283 -0.012172231 0.120416425 -0.016193876
000010 fc 3b 43 3d 29 36 f5 bc fc e1 93 3d 36 1e b8 bc
       0.047664627 -0.029933052 0.072208375 -0.022475343
000020 3b 6f 24 3d 6b 35 73 bd
       0.04014514 -0.059377115
