trained_models/model.pt (torch, 4319 bytes, 3 tensors)

weight f4 [8, 3, 3, 3]
0	0xbe1f533b	-0.15559094
1	0x3d246861	0.040138606
2	0xbcb7f97e	-0.022457834
3	0xbe0a9939	-0.13535012
4	0xbdb120a5	-0.086488046
5	0xbd233e46	-0.03985431
6	0xbd7d0c6f	-0.061779436
7	0x3db28e41	0.08718539
8	0xbce744a0	-0.028230965
9	0x3e44ff81	0.19238092
10	0x3d6c9b2a	0.057765163
11	0xbdf5bc10	-0.11998761
12	0xbdeb2c4e	-0.1148306
13	0x3dbc4303	0.09192469
14	0x3c94e4c3	0.018175488
15	0x3d3e009b	0.046387296
16	0xbc7e9b49	-0.015539953
17	0xbba0cb26	-0.0049070297
18	0xbe2f41bf	-0.17114924
19	0x3e045d23	0.12926154
20	0xbe09c504	-0.13454062
21	0xbe20cc74	-0.15702993
22	0x3deab180	0.11459637
23	0x3e409107	0.18805324
24	0x3da20958	0.079119384
25	0x3d9f8704	0.07789424
26	0xbe2fd3e9	-0.17170681
27	0x3d031894	0.03200586
28	0x3ddf8db4	0.109156996
29	0xbde4776c	-0.111555904
30	0xbde459fd	-0.111499764
31	0xbbd7bbfb	-0.0065836883
32	0x3e24cfd5	0.16094907
33	0x3d37a8c9	0.0448387
34	0x3e1f0ea5	0.1553293
35	0xbde6842d	-0.11255679
36	0xbd9b85df	-0.07593893
37	0x3e306f3d	0.17229934
38	0xbce5666f	-0.028002946
39	0x3e23e037	0.160035
40	0xbdc60c38	-0.09670299
41	0xbd1317e4	-0.035911456
42	0x3d8041e9	0.06262571
43	0x3c298a05	0.010347848
44	0x3d2b7efd	0.041869152
45	0xbd90dbdf	-0.07073187
46	0xbd612c0c	-0.054973647
47	0xbe27e9f4	-0.1639784
48	0x3dd5bc1c	0.1043627
49	0xbced5319	-0.028970288
50	0xbd2a9119	-0.041642282
51	0xbdbf6c1f	-0.09346794
52	0xbd668d0d	-0.05628686
53	0x3e3c8844	0.18411356
54	0xbd4b0889	-0.049568687
55	0xbe09527b	-0.1341037
56	0x3bbd7cc7	0.005782697
57	0x3df97c16	0.12181871
58	0x3d93b3a8	0.07212001
59	0xbc661796	-0.014043709
60	0xbd32aa63	-0.043619525
61	0x3da28fc5	0.07937578
62	0x3d438403	0.047733318
63	0xbdd8fc34	-0.10594979
64	0xbc19d3e8	-0.009388901
65	0xbd48fa67	-0.049066927
66	0x3d2d1547	0.04225662
67	0x3df5977c	0.11991784
68	0x3c38dd36	0.01128321
69	0x3c4aac42	0.012370171
70	0x3e3578ee	0.17721912
71	0x3c52b19a	0.012859726
72	0x3dfbde74	0.12298289
73	0xbe1b4745	-0.15163906
74	0xbda1c2f1	-0.0789851
75	0x3dbee359	0.09320707
76	0x3de3fd38	0.11132282
77	0xbd8f10b8	-0.06985611
78	0xbd2a433a	-0.04156802
79	0x3d175023	0.03694166
80	0xbe2e6c26	-0.17033443
81	0xbda64ada	-0.081197456
82	0x3e23d97a	0.1600093
83	0xbe28c6c1	-0.16482069
84	0x3aee2457	0.0018168789
85	0x3d2cd216	0.04219254
86	0xbd992676	-0.07478039
87	0xbd69d18f	-0.057084616
88	0xbb98ad13	-0.004659304
89	0xbe1618d8	-0.14657915
90	0x3e31aaaa	0.1735026
91	0xbe0b4418	-0.13600194
92	0xbe04134c	-0.12897986
93	0xbd881f6b	-0.066466175
94	0x3d113745	0.0354531
95	0xbe135e6a	-0.14391485
96	0x3e3d0f88	0.18462956
97	0xbb4c37d6	-0.003116121
98	0x3e0ae041	0.13562109
99	0xbdb21db5	-0.086970724
100	0x3e3f07f0	0.18655372
101	0xbdb5f04a	-0.08883722
102	0x3e24168b	0.16024224
103	0x3d96b2f7	0.073583536
104	0xbd80b322	-0.06284167
105	0x3e292e10	0.16521478
106	0x3d879752	0.06620659
107	0xbd930543	-0.07178738
108	0x3e212aad	0.15738936
109	0x3e1da604	0.15395361
110	0x3cc7a832	0.024372194
111	0x3de7bd10	0.11315358
112	0xbe39bea1	-0.18139125
113	0x3d273ae8	0.04082766
114	0x3e41be1c	0.18920177
115	0xbd2666c1	-0.040625338
116	0x3e13aa7a	0.144205
117	0xbd9abd25	-0.07555608
118	0x3e3f334b	0.1867191
119	0xbce68e47	-0.028144015
120	0xbda23c83	-0.07921698
121	0x3dd72127	0.1050437
122	0xbe3bed17	-0.18352161
123	0x3d0a3347	0.033740308
124	0xbc95406a	-0.018219192
125	0x3e3a7c00	0.18211365
126	0xbc832dd2	-0.01601306
127	0x3e240fa1	0.16021587
128	0x3d625826	0.055259846
129	0x3d7e34b0	0.062061965
130	0x3d7f1083	0.062271606
131	0xbd836d35	-0.06417314
132	0x3d8dbd8d	0.069209196
133	0x3c9b0727	0.018924309
134	0x3dee8e58	0.11648244
135	0xbe25466b	-0.16140144
136	0xbddf7da5	-0.10912637
137	0x3e04956d	0.12947626
138	0x3dad9bae	0.08476959
139	0x3cc1e22d	0.02366742
140	0x3d900c28	0.070335686
141	0x3d9c98aa	0.07646306
142	0x3d3fb60b	0.04680447
143	0x3e0253cc	0.12727278
144	0xbd936b11	-0.07198156
145	0xbd9d75af	-0.07688462
146	0xbd0bd464	-0.0341381
147	0xbe38aefe	-0.18035504
148	0xbe177747	-0.14791594
149	0x3d251af3	0.040308904
150	0x3e155dfd	0.14586635
151	0x3cbfd52c	0.023417078
152	0xbe404735	-0.18777163
153	0x3e36321c	0.17792553
154	0x3e3df5ea	0.1855084
155	0x3d93c5b6	0.07215445
156	0xbb4feab1	-0.003172558
157	0xbc727987	-0.014799482
158	0xbe2b6067	-0.16735993
159	0xbe38a51f	-0.18031739
160	0xbdac25d5	-0.084056534
161	0xbd0a9f88	-0.033843547
162	0xbdd6f44a	-0.10495813
163	0xbe01a63d	-0.12661071
164	0x3d9adff1	0.07562245
165	0xbe34622c	-0.17615575
166	0x3de37f23	0.11108234
167	0x3e1a4d22	0.15068486
168	0x3d02fcac	0.031979248
169	0xbe3f7d7d	-0.18700214
170	0x3e38a8f2	0.18033198
171	0x3d252c4b	0.040325444
172	0x3d971854	0.07377687
173	0xbe08bf6e	-0.13354275
174	0xbe29271f	-0.1651883
175	0x3c092636	0.008370927
176	0xbd95516f	-0.07290923
177	0xbc535483	-0.012898567
178	0x3c829bc0	0.015943408
179	0xbe0e7444	-0.1391154
180	0x3d807fd2	0.0627438
181	0x3c95be3b	0.018279186
182	0xb9dfceb4	-0.0004268788
183	0xbe34ac3a	-0.17643824
184	0x3dced8d6	0.10099952
185	0x3dcea091	0.10089219
186	0xbd978952	-0.07399239
187	0xbe1c1733	-0.15243225
188	0xbe27ae2f	-0.1637504
189	0xbdef0f74	-0.11672869
190	0xbe2f5786	-0.17123231
191	0xbe15617b	-0.14587967
192	0xbdf0dfe8	-0.11761457
193	0xbe29494a	-0.16531864
194	0xbe0a996f	-0.13535093
195	0x3de11746	0.10990767
196	0x3e31b2c3	0.17353348
197	0xbcfdf1b0	-0.030999035
198	0x3dd13ff7	0.102172785
199	0xbe0424c0	-0.12904644
200	0x3c608992	0.013704674
201	0x3c46139e	0.012089638
202	0x3cdb4d59	0.02677028
203	0xbd85b3bb	-0.065284215
204	0xbd9abc8b	-0.07555493
205	0xbcc14fad	-0.023597563
206	0xbcda1bbd	-0.026624555
207	0xbda34c30	-0.07973516
208	0xbde65c13	-0.112480305
209	0x3d477d22	0.04870332
210	0x3d630638	0.055425853
211	0x3a913045	0.0011077008
212	0xbc0cd1f2	-0.008594977
213	0xbe3363d1	-0.17518546
214	0xbde13160	-0.10995746
215	0xbe3c02e5	-0.18360479

bias f4 [8]
0	0x3e925695	0.28581682
1	0x3b601a08	0.0034195203
2	0xbe885954	-0.26630652
3	0x3e907d29	0.2822049
4	0x3ef8893e	0.48542207
5	0x3ec4eb0d	0.3846058
6	0x3f40acc6	0.7526363
7	0x3dc4a6ad	0.096021034

weight f4 [1, 8]
0	0x3d601ba6	0.054713868
1	0xbf04f70a	-0.5193945
2	0x3f015fbb	0.505367
3	0x3eaadbad	0.33370724
4	0x3f058b7e	0.52165973
5	0xbe843c0a	-0.25827056
6	0x3f1d9af5	0.6156457
7	0xbee8c875	-0.45465437
