trained_models/model.pt (torch, 42135 bytes, 6 tensors)

weight f4 [8, 3, 3, 3]
0	0x3d20fa66	0.0393013
1	0xbbee52ea	-0.0072730677
2	0x3e425f3f	0.18981646
3	0x3d2c3fc7	0.04205301
4	0x3d5ba179	0.05362079
5	0x3e112d80	0.14177513
6	0x3e26a051	0.16272093
7	0xbdda5504	-0.10660747
8	0x3e35d5f0	0.17757392
9	0xbdd356ee	-0.10319315
10	0xbcad794d	-0.021176005
11	0x3e2f2573	0.1710413
12	0x3e286f55	0.1644872
13	0x3e02d64f	0.12777065
14	0xbdb5cef0	-0.08877361
15	0xbe346c1a	-0.17619362
16	0xbe1028e9	-0.14078106
17	0xbe2421f4	-0.16028577
18	0xbdfe9ba5	-0.124320306
19	0x3e1c9372	0.15290621
20	0x3de96f00	0.11398125
21	0xbb71bfb7	-0.0036887953
22	0x3cf95994	0.030438222
23	0xbe0da9c1	-0.13834287
24	0x3e0611be	0.13092706
25	0xbd8d03fe	-0.06885527
26	0x3d32dc16	0.04366692
27	0x3db04637	0.086071424
28	0x3ca66273	0.020310616
29	0x3e39807c	0.18115419
30	0x3ca28849	0.019840376
31	0xbd7739f4	-0.060358003
32	0x3e1f4d92	0.15556934
33	0xbccec79c	-0.025241666
34	0x3cc82839	0.024433242
35	0xbdeaea83	-0.11470511
36	0xbdc95944	-0.09831479
37	0xbe400a60	-0.18753958
38	0xba01fb64	-0.00049584196
39	0xbe2b9547	-0.16756164
40	0x3d7b5b65	0.061366457
41	0x3b8f0db6	0.004365648
42	0x3dcff7bb	0.10154673
43	0xbdc42e39	-0.09579129
44	0xbdfd6032	-0.123718634
45	0xbd8f9cab	-0.07012304
46	0xbe3d4756	-0.18484244
47	0xbe2bf962	-0.1679435
48	0xbd3f99b5	-0.046777446
49	0x3e2fd01f	0.17169236
50	0xbd85f1d2	-0.06540264
51	0x3e15dc44	0.14634806
52	0x3d4eea84	0.05051662
53	0x3db9443e	0.09046219
54	0x3d54d544	0.0519612
55	0xbd97476b	-0.07386669
56	0xbd966715	-0.0734388
57	0x3e17a9f2	0.14810923
58	0x3c47d469	0.012196639
59	0x3e28db43	0.16489892
60	0xbe276289	-0.16346182
61	0x3d01bb60	0.031672835
62	0xbce901dc	-0.02844327
63	0xbb2197eb	-0.00246572
64	0x3dfdc918	0.12391871
65	0xbdbc0b4f	-0.091818444
66	0x3d494c19	0.049144838
67	0x3c86458f	0.01639059
68	0x3e045c9f	0.12925957
69	0x3e07e9dd	0.13272806
70	0x3e21e823	0.1581121
71	0xbe19e9d7	-0.15030609
72	0x3d8ffdfd	0.07030866
73	0xbcdff055	-0.027336279
74	0x3cea1aa4	0.028577156
75	0x3c9382c0	0.018006682
76	0xbe068935	-0.13138278
77	0x3e063154	0.13104755
78	0x3d2bf5ed	0.04198258
79	0xbe2aac84	-0.16667372
80	0xbe249bd9	-0.16075076
81	0xbe35678c	-0.17715281
82	0xbdc2156b	-0.094767414
83	0xbe3c71ae	-0.1840274
84	0xbe40f385	-0.18842895
85	0x3c405238	0.0117383525
86	0xbde02679	-0.10944838
87	0xbd6136a2	-0.054983743
88	0xbe3cdc32	-0.18443373
89	0x3ce8d2c1	0.028420808
90	0x3d4d7c36	0.050167285
91	0xbda4e569	-0.08051569
92	0xbe3021e2	-0.17200425
93	0xbe44ef5d	-0.19231935
94	0x3e00bb3a	0.12571421
95	0x3d2c5c42	0.04208017
96	0xbd8e6629	-0.06953079
97	0x3ddcbd2e	0.10778271
98	0xbd3555cd	-0.04427128
99	0x3db5eb71	0.088827975
100	0xbd57d1c0	-0.052690268
101	0xbe1fc6c2	-0.15603164
102	0xbbf7dbf3	-0.007564062
103	0x3dcab92d	0.09898601
104	0xbe298e61	-0.1655822
105	0x3e0478f9	0.12936772
106	0xbe2ed509	-0.17073454
107	0x3db26da2	0.08712317
108	0x3dc03ac6	0.0938621
109	0x3d8883f9	0.06665797
110	0x3dddb66a	0.10825808
111	0xbd0b34fe	-0.033986084
112	0xbd93e9ea	-0.0722235
113	0x3cbdd112	0.023170982
114	0x3d61a6d4	0.05509074
115	0xbd27c548	-0.040959626
116	0xbdcef6d2	-0.10105671
117	0x3db2ab0c	0.08724031
118	0xbd8cdb6f	-0.06877791
119	0xbdbbc529	-0.09168465
120	0x3c01000d	0.007873547
121	0x3e346663	0.17617182
122	0x3d66b23e	0.05632233
123	0x3cb9df7a	0.02268957
124	0x3da02719	0.07819957
125	0xbe3a5a6e	-0.18198559
126	0x3ca88322	0.020570341
127	0x3e1feefe	0.15618512
128	0xbe3b9942	-0.18320182
129	0x3e367261	0.1781707
130	0x3b1eb04a	0.0024213963
131	0x3cfa0a58	0.03052251
132	0xbc9d4946	-0.019199979
133	0xbe35dbb4	-0.17759591
134	0xbd95d19f	-0.07315373
135	0x3e402175	0.18762763
136	0x3d23f4d6	0.040028416
137	0x3dc36ba4	0.09542015
138	0x3e441e50	0.19152188
139	0x3d884ba6	0.06655054
140	0x3d043ca5	0.032284398
141	0xbca27022	-0.01982886
142	0xbe3d4b0f	-0.18485664
143	0xbd9bd2ff	-0.07608604
144	0xbe0755d4	-0.13216335
145	0x3cad4706	0.02115203
146	0x3e0e485c	0.1389479
147	0x3d275070	0.040848196
148	0xbe4025e8	-0.1876446
149	0xbda21b37	-0.07915347
150	0xbd493087	-0.049118545
151	0xbdb36087	-0.087586455
152	0xbd11b438	-0.03557226
153	0xbe25e58e	-0.1620085
154	0x3e284d84	0.1643582
155	0xbce4848c	-0.027895235
156	0x3e26f8b0	0.16305804
157	0x3e3d65be	0.18495843
158	0x3e3f6ff8	0.18695056
159	0xbd9428f7	-0.07234376
160	0x3d855aa3	0.06511428
161	0x3d10d133	0.035355758
162	0x3d39b55b	0.04533897
163	0xbc88c394	-0.016694821
164	0x3e3dbb29	0.18528427
165	0x3d8a5744	0.06754926
166	0xbde3edd8	-0.111293495
167	0xbe3ea629	-0.18618073
168	0x3db11395	0.08646313
169	0xbdd711c2	-0.10501434
170	0x3de12a0d	0.10994349
171	0xbdc7e4d1	-0.0976044
172	0x3e079c80	0.13243294
173	0xbd213325	-0.039355416
174	0x3dfb0761	0.12257267
175	0x3d1d3e79	0.038389657
176	0x3e0146ce	0.12624666
177	0x3c83240d	0.016008401
178	0x3c7e8d87	0.015536672
179	0x3e3c801a	0.18408242
180	0x3e38fb01	0.180645
181	0x3e133e77	0.14379297
182	0xbe2a186b	-0.16610877
183	0x3d1fa855	0.038978893
184	0xbbd23202	-0.006414653
185	0xbe22d26c	-0.15900582
186	0xbe074425	-0.13209589
187	0x3da7b094	0.081879765
188	0xbe0b5bbe	-0.13609216
189	0x3e19229d	0.1495461
190	0x3d84d1b9	0.06485314
191	0x3e2e6b13	0.17033033
192	0x3dcd87bf	0.10035657
193	0x3c462d68	0.012095787
194	0xbe04130c	-0.12897891
195	0xbe06c160	-0.13159704
196	0x3e347404	0.17622381
197	0x3e203489	0.1564504
198	0xbdeb6c5e	-0.11495279
199	0x3d4d8d95	0.05018385
200	0x3e20e54d	0.15712471
201	0x3e15db2e	0.14634392
202	0xbd6c7805	-0.057731647
203	0xbdc594c1	-0.09647513
204	0x3e04f973	0.12985782
205	0x3d2b6540	0.041844606
206	0x3d1f74f3	0.03892989
207	0x3d3e7392	0.046496935
208	0xbd0292f8	-0.03187844
209	0x3d850d11	0.06496633
210	0xbcd83b49	-0.026395457
211	0xbd7a317c	-0.06108235
212	0x3e3bd666	0.18343505
213	0x3e3d40e8	0.18481791
214	0xbd9c7519	-0.07639522
215	0x3d1e9636	0.03871747

bias f4 [8]
0	0x400bc5d8	2.1839504
1	0xc003c837	-2.0590951
2	0x400680e4	2.1016169
3	0x400d2700	2.2055054
4	0xc0027f86	-2.0390334
5	0xc005f675	-2.0931675
6	0x4003004e	2.0468936
7	0xc002a6e6	-2.0414367

weight f4 [32, 288]
0	0x3ffcbd9c	1.9745364
1	0x3ffef767	1.9919251
2	0x3ff9a216	1.950259
3	0x4001d572	2.0286527
4	0x3ffb4887	1.9631509
5	0x3ffb7670	1.9645519
6	0x3ff944ca	1.9474118
7	0x40002287	2.0021074
8	0x40006ca0	2.00663
9	0x3fffbdaa	1.9979756
10	0x4003200a	2.0488305
11	0x40029be4	2.0407648
12	0x3ffbcbe6	1.96716
13	0x40015cf2	2.021298
14	0x3ffbaef0	1.9662762
15	0x3ffd99a9	1.9812518
16	0x3ffb2805	1.9621588
17	0x4000234f	2.002155
18	0x40007b30	2.0075188
19	0x4002e0ef	2.0449789
20	0x3ffe399c	1.9861331
21	0x3fffcc06	1.9984138
22	0x3ffcb999	1.974414
23	0x3ff9f1bc	1.9526896
24	0x3ffac33d	1.9590832
25	0x3ff833e3	1.9390835
26	0x40011fc1	2.017563
27	0x4000988c	2.0093107
28	0x3fff22b8	1.993247
29	0x3ffaf9ca	1.960748
30	0x3ffb9ee6	1.9657867
31	0x3ffa3344	1.9546895
32	0x3fff3752	1.9938757
33	0x3ffa3230	1.9546566
34	0x3ff8b20b	1.9429334
35	0x40010916	2.0161796
36	0xbffe5302	-1.9869082
37	0xbfffd7b3	-1.9987701
38	0xc0022d57	-2.0340173
39	0xbffe09c2	-1.9846728
40	0xbff75c5b	-1.932506
41	0xbff87c08	-1.9412851
42	0xbff8398c	-1.9392562
43	0xbffb0e92	-1.9613822
44	0xbffc52d5	-1.9712778
45	0xbffab957	-1.9587811
46	0xc001817a	-2.0235276
47	0xbffe281e	-1.9855993
48	0xc00028f1	-2.0024989
49	0xbff8bf74	-1.9433427
50	0xbfff67dc	-1.995357
51	0xbff8b2c3	-1.9429554
52	0xc0023d59	-2.0349944
53	0xc000b1d2	-2.0108533
54	0xc002ad03	-2.0418098
55	0xbffd99e1	-1.9812585
56	0xc001a3c9	-2.0256217
57	0xc0014cdb	-2.020316
58	0xc00110e8	-2.0166569
59	0xc001285c	-2.0180883
60	0xbff8e029	-1.9443408
61	0xc001d296	-2.0284781
62	0xc002b4a0	-2.0422745
63	0xbffad7ad	-1.9597069
64	0xc00159d4	-2.0211077
65	0xbff7a491	-1.9347097
66	0xbff9ab4b	-1.95054
67	0xc0021179	-2.0323164
68	0xbff99f55	-1.9501749
69	0xbff9723c	-1.9487987
70	0xbffcb2ea	-1.97421
71	0xbfff724a	-1.9956753
72	0x3ffd2409	1.9776622
73	0x4001fcaf	2.0310476
74	0x3ff7fd75	1.9374224
75	0x3ffd6406	1.979615
76	0x3ffb7a11	1.9646627
77	0x3fffadb5	1.9974886
78	0x3ffd60f1	1.9795209
79	0x3ffecce5	1.9906279
80	0x3ff9a20b	1.9502577
81	0x40003906	2.0034804
82	0x3ffadbe7	1.9598359
83	0x40027a17	2.0387018
84	0x3ffdaad2	1.9817755
85	0x3ff9d028	1.9516649
86	0x4002eb6e	2.0456195
87	0x4002c96c	2.0435438
88	0x3ffe3bdc	1.9862018
89	0x3ffd6c27	1.979863
90	0x400247a2	2.0356221
91	0x3fff43d1	1.9942571
92	0x40017c10	2.0231972
93	0x3ffd87b2	1.9807036
94	0x3ffaa72b	1.9582266
95	0x40012a69	2.0182135
96	0x3ffa59e3	1.9558681
97	0x3ff793a9	1.9341937
98	0x4000cc02	2.0124516
99	0x3ff724e5	1.9308134
100	0x4000f3eb	2.0148876
101	0x3ff940a8	1.9472857
102	0x4001b5ef	2.0267293
103	0x40003f69	2.0038702
104	0x3ffd5a89	1.9793254
105	0x3ff776a2	1.9333079
106	0x4000c036	2.0117316
107	0x40002e39	2.0028212
108	0x400144e1	2.019829
109	0x3ff76d8b	1.9330305
110	0x3ffa67c3	1.9562916
111	0x400324eb	2.0491283
112	0x40021996	2.0328116
113	0x40017456	2.0227256
114	0x3ff97cc5	1.9491202
115	0x40024201	2.0352786
116	0x3ffc291b	1.9700044
117	0x4000e50f	2.0139806
118	0x4001cdf2	2.028195
119	0x40018fe9	2.0244086
120	0x40019f9f	2.0253675
121	0x400239fb	2.0347888
122	0x400242eb	2.0353343
123	0x3ff7e060	1.9365349
124	0x40024306	2.0353408
125	0x3ffa7618	1.9567289
126	0x3ff8fa78	1.9451437
127	0x40030b87	2.0475786
128	0x3ffe704c	1.987802
129	0x40029e2d	2.0409043
130	0x3fff302c	1.9936576
131	0x3fff3776	1.99388
132	0x40024a1b	2.035773
133	0x40028321	2.0392535
134	0x4002fd6a	2.0467172
135	0x4001e4ed	2.0295975
136	0x3ffedc85	1.9911047
137	0x3ffa298e	1.9543931
138	0x40007a4b	2.0074642
139	0x3ffb274b	1.9621366
140	0x3ff9e14e	1.9521883
141	0x3fff9a7f	1.9969023
142	0x3ffc97a0	1.9733772
143	0x3ffceb38	1.9759283
144	0xc000e942	-2.014237
145	0xc001df36	-2.0292487
146	0xc00057f7	-2.005369
147	0xbff93f96	-1.947253
148	0xbffe343b	-1.985969
149	0xc001c8fb	-2.0278919
150	0xbffda23d	-1.9815136
151	0xc0025fc1	-2.0370944
152	0xc0013467	-2.0188234
153	0xc00097d8	-2.0092678
154	0xbff8815b	-1.9414476
155	0xbffa66ae	-1.9562585
156	0xc00144d1	-2.0198252
157	0xbffd6985	-1.9797827
158	0xbffeafdb	-1.9897417
159	0xc001c1e1	-2.0274584
160	0xbffd5967	-1.9792908
161	0xbffbeba3	-1.9681286
162	0xbff9624f	-1.9483126
163	0xbff86189	-1.9404765
164	0xc0010af3	-2.0162933
165	0xc0009a15	-2.0094044
166	0xc002385c	-2.03469
167	0xc000db4f	-2.0133855
168	0xc001dbaa	-2.0290322
169	0xc0025cda	-2.0369172
170	0xc0023df6	-2.0350318
171	0xc0015388	-2.0207233
172	0xc0008b74	-2.0085115
173	0xc00126e7	-2.0179994
174	0xc0002c3d	-2.0027
175	0xc002cda4	-2.0438013
176	0xc0003356	-2.0031333
177	0xbff85460	-1.9400749
178	0xc0014311	-2.0197184
179	0xbff8b876	-1.9431293
180	0xbff8273c	-1.9386973
181	0xbfff8f85	-1.9965674
182	0xbfff5c8c	-1.9950118
183	0xc0026237	-2.0372446
184	0xc000aa18	-2.0103817
185	0xc002c350	-2.043171
186	0xc0025a70	-2.0367699
187	0xbfff73f2	-1.9957259
188	0xbff7b626	-1.9352462
189	0xc0023d6c	-2.034999
190	0xc0022f32	-2.0341306
191	0xbffddbbe	-1.9832685
192	0xc00040a3	-2.003945
193	0xbff75c51	-1.9325048
194	0xbffd4a92	-1.9788382
195	0xbffcfa0c	-1.9763808
196	0xc00159a2	-2.0210958
197	0xbffa5cb5	-1.9559542
198	0xbffc24bd	-1.9698712
199	0xbff7c0fc	-1.9355769
200	0xbff884db	-1.9415544
201	0xbffd9641	-1.9811479
202	0xbffb14f6	-1.9615772
203	0xc001f70d	-2.0307038
204	0xc0003a54	-2.00356
205	0xbff8f26b	-1.944898
206	0xbffbafb3	-1.9662994
207	0xc0000764	-2.000451
208	0xbfff4380	-1.9942474
209	0xc0029fce	-2.0410037
210	0xbffb9290	-1.9654102
211	0xc00288f9	-2.0396101
212	0xbff842f5	-1.9395434
213	0xbff9402c	-1.9472709
214	0xc00204ca	-2.0315423
215	0xc002ce9c	-2.0438604
216	0x3ffbc278	1.9668722
217	0x40016960	2.0220566
218	0x3ffd5bbc	1.979362
219	0x40010e3a	2.0164933
220	0x40012953	2.0181472
221	0x400196f6	2.024839
222	0x40016db5	2.022321
223	0x3ffdea34	1.9837098
224	0x3ffa0618	1.953311
225	0x4001d689	2.0287192
226	0x4001d9dd	2.0289223
227	0x40002f08	2.0028706
228	0x3ffd10d4	1.977076
229	0x40016977	2.022062
230	0x4000ece9	2.0144598
231	0x40029c14	2.0407763
232	0x4001668d	2.0218842
233	0x3ffdbb21	1.9822732
234	0x3ffa6d6f	1.9564646
235	0x3ffe55d6	1.9869945
236	0x3ffeac0c	1.9896255
237	0x400083a2	2.0080342
238	0x3ffa9176	1.9575641
239	0x4001d5ec	2.0286818
240	0x3ffa9777	1.9577473
241	0x400002a1	2.0001605
242	0x3ffa13ab	1.9537252
243	0x3ff8f0ad	1.9448448
244	0x400183e7	2.0236757
245	0x3ffa9f78	1.9579916
246	0x4001634b	2.0216854
247	0x4001defa	2.0292344
248	0x3ffc4745	1.970925
249	0x3ffd90ee	1.9809854
250	0x40005f68	2.0058231
251	0x40011a19	2.0172179
252	0xbffe72ca	-1.9878781
253	0xbffc4a8f	-1.9710253
254	0xbff80f33	-1.9379638
255	0xbff87562	-1.9410822

bias f4 [32]
0	0x40010c24	2.016366
1	0x40041933	2.064038
2	0x3ffbddde	1.9677083
3	0xc0039a5d	-2.0562966
4	0xbffb7e3b	-1.9647897
5	0x3ffac74e	1.9592073
6	0xc004c4b5	-2.074506
7	0xbffd416a	-1.9785588
8	0xc004370d	-2.06586
9	0x3ffe0af7	1.9847096
10	0x40005e8f	2.0057714
11	0x4000ceed	2.0126297
12	0xbffb2433	-1.9620422
13	0x4001634b	2.0216854
14	0xc000aa66	-2.0104003
15	0xc0045557	-2.0677087
16	0xc00171d6	-2.022573
17	0xc0033b0b	-2.0504787
18	0xc0045d27	-2.0681856
19	0xc0046dbe	-2.0691981
20	0x4001e0f1	2.0293543
21	0xbffbaef7	-1.966277
22	0x3ffc3170	1.9702587
23	0x4002a0e3	2.0410697
24	0x3ffb1f10	1.9618855
25	0xc0049601	-2.0716555
26	0xc002a103	-2.0410774
27	0x40048bc7	2.0710313
28	0xc003443a	-2.0510392
29	0x40006d6d	2.0066788
30	0x40001ec7	2.0018785
31	0xc0031f89	-2.0487998

weight f4 [3, 32]
0	0x3ff77414	1.9332299
1	0x4006c118	2.1055355
2	0x40015a4e	2.0211368
3	0xc00befd6	-2.1865134
4	0xc0050869	-2.0786383
5	0x4008052f	2.1253164
6	0xc00bd82a	-2.1850686
7	0xc004b57e	-2.0735774
8	0xc00237e7	-2.034662
9	0x400adefc	2.16986
10	0x4001bd43	2.0271766
11	0x400aaed5	2.166921
12	0xc002a0fd	-2.041076
13	0x40050f9f	2.0790784
14	0xc0074d23	-2.114083
15	0xc0047445	-2.0695965
16	0xc00ae45f	-2.1701887
17	0xc003269f	-2.0492322
18	0xc003e2ff	-2.0607297
19	0xc0026faf	-2.0380666
20	0x40084001	2.1289065
21	0xc0032b0e	-2.0495028
22	0x4006c4b9	2.105757
23	0x400724fd	2.1116326
24	0x40081a71	2.1266139
25	0xc00538ea	-2.0815988
26	0xc003b426	-2.0578704
27	0x4002e14f	2.0450017
28	0xc00c6876	-2.1938758
29	0x40084a17	2.129522
30	0x40060ab8	2.0944042
31	0xc0036979	-2.0533125
32	0xc0062c96	-2.0964713
33	0xc00a98c6	-2.1655746
34	0xc001df23	-2.0292442
35	0x400a964c	2.1654234
36	0x400a580b	2.1616237
37	0xc00c1ff2	-2.1894498
38	0x4009645b	2.1467502
39	0x40010cce	2.0164065
40	0x400c7c43	2.1950843
41	0xc001f0c6	-2.0303206
42	0xc00a4dae	-2.1609912
43	0xc0070ef7	-2.1102884
44	0x3ffff8ff	1.9997863
45	0xc001cc14	-2.028081
46	0x3ffa94fc	1.9576716
47	0x40034f90	2.051731
48	0x40083f52	2.1288648
49	0x3feca0e6	1.8486602
50	0x3ffacab3	1.9593109
51	0x40008031	2.0078242
52	0xbffe0cdb	-1.9847673
53	0x4005c865	2.090356
54	0xbffb3329	-1.9624988
55	0xc000b9d1	-2.0113413
56	0xbff72c8c	-1.931047
57	0x3ff869a4	1.9407239
58	0x400ae734	2.1703615
59	0xc00c3c05	-2.1911633
60	0x4008132a	2.1261697
61	0xc00bb4da	-2.1829133
62	0xc00c8050	-2.1953316
63	0x400b152e	2.1731677
64	0xc0041b17	-2.0641534
65	0xbff2cf84	-1.8969579
66	0xc00aeceb	-2.1707103
67	0x40047768	2.069788
68	0x4003a1ab	2.0567424
69	0xbff95578	-1.9479208
70	0x40020c5a	2.0320039
71	0x4005ad5a	2.0887055
72	0x40093985	2.1441357
73	0xc00109c7	-2.0162218
74	0xc0023763	-2.0346305
75	0xc00a6eb8	-2.1630077
76	0x400c809b	2.1953495
77	0xbff83057	-1.9389752
78	0x4001878b	2.023898
79	0x4000d3eb	2.0129344
80	0x3ff2ae36	1.8959415
81	0x40096924	2.1470423
82	0x400a262b	2.1585796
83	0x4006446e	2.0979266
84	0xc0091774	-2.1420565
85	0x400b8b29	2.1803687
86	0xbffd8ed6	-1.9809215
87	0xc0099c99	-2.150183
88	0xbffc53dc	-1.9713092
89	0x40068ebe	2.1024623
90	0x4008179c	2.126441
91	0xc008c464	-2.1369867
92	0x40030b0d	2.0475495
93	0xbfff2866	-1.9934204
94	0xc0000ef0	-2.0009117
95	0x4000f7e3	2.0151298

bias f4 [3]
0	0x3ff0502b	1.8774465
1	0xc00a3ad9	-2.1598418
2	0xc001ed91	-2.030125
