trained_models/model.pt (torch, 101816 bytes, 14 tensors)

weight f4 [128, 3, 3, 3]
0	0xbbc607c6	-0.006043407
1	0x3d305027	0.04304519
2	0xbcdd9c9a	-0.027052213
3	0xb6228d65	-2.4222184e-06
4	0x3cef5e3a	0.029219735
5	0xbe0c6c5e	-0.13713214
6	0xbe00c37c	-0.12574571
7	0x3c13a6cc	0.009011935
8	0xbc80a24a	-0.015702385
9	0xbdaf52d1	-0.08560718
10	0x3b608dad	0.0034264133
11	0xbe39da33	-0.18149643
12	0xbc4cc41b	-0.012497927
13	0xbe3961e8	-0.18103755
14	0xbd8bbf7d	-0.06823633
15	0x3d29d135	0.04145928
16	0xbdba837d	-0.09107111
17	0x3e10dcd4	0.14146739
18	0x3e069699	0.13143386
19	0xbdcf75cd	-0.101298906
20	0x3e132f74	0.1437357
21	0xbe0d5c59	-0.13804759
22	0xbc08e246	-0.008354729
23	0xbe0389af	-0.12845491
24	0xbe1d507a	-0.1536273
25	0xbe071f9b	-0.1319565
26	0x3d218399	0.039432142
27	0x3d5836cd	0.052786637
28	0x3bb6df5d	0.005580826
29	0xbd6613f7	-0.056171384
30	0x3c4722fd	0.012154338
31	0x3e104e84	0.14092451
32	0x3e193192	0.14960316
33	0xbdad61c3	-0.08465912
34	0x3d10632f	0.03525084
35	0x3cf23a34	0.029568769
36	0xbdcc7e37	-0.09985011
37	0xbc617468	-0.013760664
38	0xbe229154	-0.15875751
39	0x3d19c930	0.037545383
40	0x3c1f22c8	0.009712882
41	0x3e2a0119	0.16601981
42	0x3d1639f1	0.03667635
43	0x3e0752cd	0.1321518
44	0x3da614d7	0.08109444
45	0x3c5b5d05	0.013388877
46	0x3da87601	0.082256325
47	0x3dc63961	0.09678913
48	0x3e0292f4	0.1275137
49	0x3dbd8fa5	0.09255914
50	0xbc8f5942	-0.017498616
51	0xbcbacc4e	-0.022802498
52	0x3c442040	0.01197058
53	0x3dccb1c9	0.09994847
54	0xbe330fc9	-0.1748649
55	0xbdd0cb09	-0.10194976
56	0xbd6f3ad7	-0.058405723
57	0x3e23ae5f	0.15984486
58	0xbdc96714	-0.09834114
59	0x3e27f291	0.16401125
60	0xbda41ff1	-0.08013905
61	0x3df44c0b	0.119285665
62	0xbd559d46	-0.05215194
63	0xbc9b13bb	-0.018930307
64	0xbe17b8e8	-0.1481663
65	0x3df31a4f	0.11870252
66	0x3ba7773e	0.0051106503
67	0xbd68ec68	-0.05686608
68	0x3dbb4673	0.091442965
69	0xbe22ecc7	-0.15910636
70	0xbe29e8d6	-0.16592726
71	0xbe39c698	-0.18142164
72	0xbdc5233c	-0.09625861
73	0xbe18534d	-0.14875527
74	0xbe154806	-0.14578256
75	0x3de9a8ea	0.11409171
76	0xbcd5850e	-0.026064422
77	0xbda37a65	-0.07982329
78	0x3d899d27	0.067194276
79	0xbe13372d	-0.14376517
80	0xbd42d970	-0.047570646
81	0x3d10e5b7	0.035375323
82	0xbd1344eb	-0.035954397
83	0x3e31d293	0.17365484
84	0x3c669512	0.014073627
85	0xbd8c3f5b	-0.068480216
86	0x3d1e2010	0.038604796
87	0x3dc1616d	0.094424106
88	0x3bfbe603	0.0076873316
89	0x3d801b84	0.06255248
90	0x3e250e0f	0.16118644
91	0xbe177a40	-0.14792728
92	0xbd8d6034	-0.06903115
93	0x3c46d4a8	0.012135662
94	0x3de30f49	0.110869
95	0xbe063133	-0.13104706
96	0xbdc74aa2	-0.09731032
97	0x3dbaec39	0.09127087
98	0xbdc32584	-0.0952864
99	0x3dc6fa4a	0.097157076
100	0xbe1e3c7f	-0.15452765
101	0x3b8e9a1c	0.0043518674
102	0xbe2c65be	-0.16835687
103	0xbd14295c	-0.036172256
104	0x3da6fdeb	0.081539
105	0x3dc43307	0.09580045
106	0x3da1e219	0.07904453
107	0xbe15b5eb	-0.14620177
108	0xbce2efd5	-0.027702251
109	0x3cbd232e	0.023088064
110	0x3c0a6ba0	0.008448511
111	0xbdb16464	-0.08661726
112	0xbd19d4b4	-0.037556365
113	0x3ddf2522	0.108957544
114	0x3e0fdc19	0.14048804
115	0xbd64f7cd	-0.055900384
116	0x3c6348fc	0.013872381
117	0xbc0db8ec	-0.008650046
118	0x3de374c8	0.11106259
119	0xbdf03ee3	-0.11730745
120	0x3e2f9f2c	0.17150563
121	0x3e351563	0.1768394
122	0xbdd7c97e	-0.105364785
123	0xbe0d4039	-0.1379403
124	0x3e376000	0.17907715
125	0x3db26a1b	0.08711644
126	0x3de0dca3	0.10979583
127	0xbb38d515	-0.0028203179
128	0xbdb1bcb1	-0.08678568
129	0x3de2938b	0.11063298
130	0xbe025522	-0.12727788
131	0x3d2fde9a	0.0429369
132	0xbe0add82	-0.13561061
133	0x3e3e8589	0.18605627
134	0xbdeb4af5	-0.11488906
135	0x3d0afd14	0.03393276
136	0x3dd7f84c	0.10545406
137	0xbd1d1f75	-0.038360078
138	0xbd9854bb	-0.07438036
139	0xbe16b63a	-0.14717951
140	0xbde04700	-0.10951042
141	0xbc31829d	-0.010834363
142	0x3d2bf72a	0.04198376
143	0xbda2d454	-0.079506546
144	0xbdb378ce	-0.08763276
145	0x3e172695	0.14760812
146	0x3ca814cd	0.020517731
147	0x3e29c876	0.16580376
148	0x3d752a9e	0.059855096
149	0x3dc8736a	0.097876385
150	0x3df25569	0.11832697
151	0x3db3c96e	0.08778654
152	0x3e15b4da	0.1461977
153	0x3e2d0d75	0.16899665
154	0x3e2194aa	0.15779367
155	0xbdbc85f6	-0.092052385
156	0xbdb8de4e	-0.09026776
157	0xbdbcd264	-0.09219816
158	0xbe3884c8	-0.18019402
159	0xbd07bee5	-0.033141036
160	0x3e3b3723	0.18282752
161	0x3de01dde	0.10943197
162	0x3e344c0c	0.17607135
163	0xbd98862c	-0.07447466
164	0x3e3a26f7	0.18178926
165	0xbdfdc860	-0.12391734
166	0x3d0f00b5	0.034912784
167	0x3e263836	0.1623238
168	0xbda55f6e	-0.080748424
169	0x3da24f20	0.07925248
170	0x3e12de5c	0.14342636
171	0x3d9ada24	0.07561138
172	0xbc9fdbb7	-0.019513948
173	0x3c20fa93	0.009825367
174	0xbcd56ec3	-0.026053792
175	0xbc37a7c3	-0.011209431
176	0xbd7b0141	-0.061280493
177	0xbd7cc39e	-0.061709993
178	0xbd934b1c	-0.0719206
179	0x3db13202	0.08652116
180	0xbd584f74	-0.052810147
181	0x3d2ffdbb	0.042966586
182	0xbe2d4f7e	-0.16924855
183	0xbd1cf2e1	-0.038317565
184	0xbdee3452	-0.11631073
185	0x3dae9900	0.08525276
186	0xbca52318	-0.020158336
187	0x3db58337	0.08862918
188	0x3c5e1798	0.01355543
189	0x3d26a518	0.04068479
190	0x3dfe00ed	0.1240252
191	0xbe1a6f31	-0.15081479
192	0xbd92e62e	-0.071728095
193	0x3e2d060b	0.16896836
194	0xbb1b3a07	-0.002368571
195	0xbd8158a4	-0.06315735
196	0xbe39ad45	-0.18132503
197	0x3cce5495	0.025186816
198	0x3d011103	0.031510364
199	0xbc9d53a3	-0.01920492
200	0xbdae63a5	-0.085150994
201	0x3e0c9f75	0.13732703
202	0xbdae3d8d	-0.08507834
203	0xbd3c5438	-0.045978755
204	0xbbfac113	-0.007652411
205	0x3d11a57c	0.03555821
206	0xbe09c7be	-0.13455102
207	0xbd95909d	-0.073029734
208	0x3e096639	0.13417901
209	0x3e1518cd	0.14560242
210	0x3cb20875	0.021732548
211	0x3dcf5eb6	0.101254866
212	0xbd44be3e	-0.04803299
213	0xbe336075	-0.17517264
214	0x3dbea934	0.09309617
215	0xbdba197f	-0.09086894
216	0xbe393882	-0.18087962
217	0x3e25fd03	0.16209798
218	0x3d981bd0	0.0742718
219	0x3d83aa87	0.0642901
220	0x3e2f4c07	0.17118846
221	0xbdad42f1	-0.08460034
222	0x3e22187c	0.15829653
223	0xbda029f3	-0.07820501
224	0xbe2278fc	-0.15866464
225	0x3ae9d970	0.0017841291
226	0xbceef02c	-0.029167257
227	0xbdaec065	-0.0853279
228	0xbdc57e18	-0.09643191
229	0x3e157389	0.14594854
230	0xbd3351c8	-0.043779165
231	0xbdbe09d1	-0.09279216
232	0xbdc5ae31	-0.09652365
233	0xbe053133	-0.1300705
234	0x3e3e5a07	0.1858903
235	0x3d120b23	0.035655152
236	0x3d60e27e	0.0549035
237	0xbd84643b	-0.0646443
238	0x3cefc6f0	0.029269665
239	0xbce65d1c	-0.02812057
240	0x3d936cc2	0.07198478
241	0x3d0b8419	0.034061525
242	0xbe26702b	-0.16253726
243	0xbe280f4d	-0.16412087
244	0x3c5e8003	0.013580325
245	0xbdee5286	-0.11636834
246	0xbe150d99	-0.14555968
247	0x3b82565b	0.0039775795
248	0xbddf4132	-0.10901107
249	0x3e0f5d83	0.14000516
250	0xbc0c1ae3	-0.008551332
251	0xbe250006	-0.1611329
252	0x3e0f1086	0.13971147
253	0xbd82c8bc	-0.06385943
254	0xbe17576e	-0.14779446
255	0x3a61a4c0	0.00086076185

bias f4 [128]
0	0x3d32b699	0.04363117
1	0xbc979b2e	-0.018506613
2	0x3d912b45	0.07088331
3	0x3dca5e97	0.09881323
4	0xb99941cc	-0.00029231457
5	0x3dacf66f	0.08445441
6	0x3de2886e	0.11061178
7	0x3de8afb6	0.11361639
8	0xbbb463ee	-0.0055050766
9	0xbd3ab18d	-0.045579482
10	0xbe24f4bc	-0.16108984
11	0x3e180c36	0.14848408
12	0x3dd2432d	0.10266719
13	0x3d45890b	0.048226397
14	0xbbbfc711	-0.005852588
15	0x38484b02	4.7753572e-05
16	0x3e10eaf5	0.14152129
17	0xbc9f517f	-0.01944804
18	0xbd0b703f	-0.034042593
19	0xbd3d0c13	-0.046154093
20	0x3ddd09f1	0.10792912
21	0x3dca5271	0.09879006
22	0xbe259dda	-0.16173497
23	0xb8b1c0b3	-8.475911e-05
24	0x3cd3985e	0.02582949
25	0x3d4e6ee7	0.050398733
26	0x3e0ebc5f	0.13939045
27	0x3d5ceca9	0.053936634
28	0x3d87d49d	0.0663235
29	0x3d309e10	0.04311949
30	0xbe137fff	-0.14404295
31	0xbd35fd69	-0.044431124
32	0x3cc9e81d	0.024646813
33	0x3dff4855	0.12464968
34	0xbb590ee2	-0.0033120443
35	0x3dccc0c7	0.09997707
36	0xbd47cebb	-0.048781138
37	0xbd30eb89	-0.043193374
38	0xbe247110	-0.16058755
39	0x3dc2e325	0.09515981
40	0x3de85855	0.11344973
41	0xbc913eef	-0.017730204
42	0xbe12d911	-0.14340617
43	0xbdfd1737	-0.123579435
44	0xbd56b580	-0.052419186
45	0x3ce62ce9	0.028097587
46	0x3e1a390a	0.15060821
47	0x3e357c91	0.177233
48	0xbddf6d3b	-0.10909506
49	0x3d440cb9	0.047863696
50	0x3c6acf0b	0.014331589
51	0xbe2592b0	-0.16169238
52	0xbdab32a1	-0.08359266
53	0xbc94973f	-0.018138526
54	0x3d2934fd	0.0413103
55	0x3db804ea	0.08985312
56	0xbdf1ac5e	-0.118004546
57	0xbdc5973d	-0.09647987
58	0x3dd2cbb3	0.10292759
59	0xbe0aaf6f	-0.13543485
60	0x3e12c720	0.14333773
61	0x3df748bd	0.120744206
62	0x3d50be98	0.050963014
63	0x3d96569a	0.07340737
64	0x3c5e0079	0.013549917
65	0x3d81e606	0.063427016
66	0x3d1dbe12	0.038511343
67	0xbd92ddc5	-0.071712054
68	0xbd78faf9	-0.06078622
69	0xbd958378	-0.07300466
70	0xbe06a6c7	-0.13149558
71	0x3acb34e8	0.0015503438
72	0xbda9b662	-0.0828674
73	0x3d88528e	0.06656371
74	0xbd539f46	-0.051665567
75	0xbdd533fb	-0.10410305
76	0xbcc11c60	-0.0235731
77	0xbd1a8c1a	-0.037731268
78	0x3b81d1c5	0.003961774
79	0xbda6e0e2	-0.08148362
80	0x3d92ef60	0.071745634
81	0xbd5b68f9	-0.053566907
82	0xbb69ae32	-0.0035656807
83	0xbd3f476e	-0.04669898
84	0x3e0406a2	0.12893155
85	0x3d9faf0e	0.07797061
86	0xbd9f7e3c	-0.07787749
87	0x3dd51aa8	0.10405475
88	0xbe10e4ec	-0.14149827
89	0x3dc7fe87	0.09765344
90	0xbd2b1ca1	-0.04177535
91	0xbbf8c987	-0.0075923833
92	0x3ad4e09d	0.0016241256
93	0x3db668a2	0.08906676
94	0x392fb4c5	0.00016756642
95	0x3e3987e4	0.18118244
96	0x3df569b0	0.11983049
97	0xbe2383f3	-0.15968303
98	0x3d63fa52	0.055658646
99	0x3e2855e7	0.16439019
100	0xbe0ce903	-0.13760762
101	0x3da5b045	0.08090261
102	0x3dfd5f6e	0.123717174
103	0x3df9ff09	0.12206847
104	0x3caee675	0.021350125
105	0xbc9e40be	-0.01931798
106	0xba5f3ca8	-0.00085158134
107	0x3e3ac685	0.18239792
108	0xbd487893	-0.048943114
109	0xbe0112d6	-0.12604842
110	0x3df11be4	0.11772898
111	0xbdaa7432	-0.08322944
112	0x3da3e564	0.08002737
113	0x3ddd04b4	0.10791913
114	0x3db87e62	0.090084806
115	0xbd8ade0c	-0.06780633
116	0x3c77f336	0.01513367
117	0x3dfd9c19	0.12383289
118	0x3e047e99	0.12938918
119	0xbd18d371	-0.03731102
120	0xbd720a2c	-0.059091732
121	0x3d946fc0	0.07247877
122	0xbbdd964e	-0.0067623025
123	0xbd4ba49e	-0.049717538
124	0x3bb4e17c	0.005520044
125	0x3c589e40	0.0132213235
126	0x3dea6ad5	0.11446158
127	0x3da992aa	0.08279927

weight f4 [8, 128, 3, 3]
0	0xbc4d639d	-0.012535957
1	0x3b27a34f	0.0025579517
2	0x3a90bd1c	0.0011042687
3	0x3aa23e0c	0.001237811
4	0x3c240137	0.010010055
5	0xbc0e225c	-0.008675184
6	0xbc76312b	-0.015026371
7	0x3c6c5cd0	0.014426425
8	0xbab8aa2e	-0.0014088803
9	0x3c510abe	0.012758909
10	0xbca0b9e2	-0.019619886
11	0xbc362c1a	-0.011118913
12	0x3cc2994d	0.02375474
13	0x3cddd74b	0.027080199
14	0xbcddd04a	-0.027076859
15	0x3af868f2	0.0018952175
16	0xbca087ca	-0.019596
17	0x3cb11191	0.021614822
18	0x3c8f61bc	0.017502658
19	0xbcc8c9b7	-0.024510248
20	0xbc1670ed	-0.009182197
21	0xbb93c3b3	-0.004509413
22	0x3cc107e4	0.023563333
23	0x3cc40aba	0.023930896
24	0xbc6807ff	-0.014162063
25	0x3c2ca544	0.010537449
26	0xbc0c786c	-0.008573633
27	0xbc42a7bc	-0.011880811
28	0x3cc3486f	0.02383825
29	0x3ceec0d1	0.029144676
30	0x3b946b3f	0.0045293863
31	0xbc5461cd	-0.012962771
32	0xbc892929	-0.01674326
33	0x3c10c9c8	0.008837171
34	0xbc24b522	-0.010052951
35	0xbbed8877	-0.007248934
36	0xbcaf8ca4	-0.021429367
37	0xbc94e2da	-0.018174578
38	0x3bfeadd9	0.007772189
39	0xbca3ae07	-0.019980444
40	0xbb83f5fc	-0.0040271264
41	0x3ced162d	0.028941238
42	0xbc99343f	-0.01870167
43	0xbb17146f	-0.002305295
44	0x3c06fe9d	0.0082394155
45	0xbc68b246	-0.01420266
46	0x3cb153c6	0.021646392
47	0x3c977330	0.018487543
48	0xbb8d4b94	-0.004311988
49	0x3ba4cfcc	0.005029654
50	0x3c4ceeed	0.012508136
51	0xbbcea0c3	-0.0063057854
52	0x3cedbadc	0.029019766
53	0x3c7818b5	0.015142609
54	0x3c8701e5	0.016480396
55	0xbca390be	-0.01996648
56	0xb927510c	-0.00015956553
57	0xbca0045e	-0.019533332
58	0xbcf3bb67	-0.029752446
59	0x3ccb7d9f	0.024840174
60	0xbc91c8bf	-0.017795919
61	0x3c8a9cdd	0.016920501
62	0xbc0ec30b	-0.008713494
63	0x3c83ca3b	0.016087642
64	0xbc60fbac	-0.013731878
65	0xbc022dcc	-0.007945489
66	0xbce28d54	-0.027655281
67	0xbc974022	-0.018463198
68	0xbc62d9be	-0.013845859
69	0x3b5845dc	0.0033000624
70	0x3cabe6d0	0.020984083
71	0xbb598399	-0.003319001
72	0xbc900fb1	-0.017585607
73	0xbca5ffc0	-0.020263553
74	0xbcdd533b	-0.027017226
75	0x3cde446a	0.027132232
76	0x3b37f3c7	0.0028068887
77	0xbcdcb936	-0.026943784
78	0x3ce51e22	0.02796847
79	0xbc12f468	-0.008969404
80	0x3c625164	0.01381335
81	0x3c9ca78f	0.019122867
82	0xbcbd6acc	-0.023122214
83	0xbcc40792	-0.023929391
84	0xbca8de3b	-0.02061378
85	0x3a5607c2	0.0008164608
86	0x3b5b2348	0.0033437777
87	0x3c90433c	0.017610185
88	0xbce60d75	-0.028082589
89	0xbccdf81b	-0.02514272
90	0x3cee1ad4	0.029065527
91	0x3c8b90e3	0.01703686
92	0x3c110905	0.008852248
93	0xbcaf9d95	-0.021437446
94	0x3c8d70ac	0.01726564
95	0xbc674bda	-0.0141172055
96	0x3ce58e8a	0.02802207
97	0xbccb39b7	-0.024807794
98	0x3aebf10a	0.0018000912
99	0xbba8d74e	-0.0051526194
100	0xbc90e8a8	-0.017689064
101	0xbae03584	-0.0017105793
102	0x3ca0b649	0.01961817
103	0x3c0a5419	0.008442902
104	0x3c10ca80	0.008837342
105	0xbc12cf4a	-0.008960554
106	0xbbc3fa18	-0.005980741
107	0xbcd625a8	-0.026141003
108	0xbc91fa09	-0.017819421
109	0x3c77f1d1	0.015133337
110	0xbca18b29	-0.019719677
111	0x3caed94e	0.021343853
112	0x3af7b088	0.0018897215
113	0xbc7ee95f	-0.01555857
114	0x3c60f0ba	0.013729269
115	0xbb968588	-0.004593555
116	0xbab6be53	-0.0013942219
117	0x3ba878a1	0.005141333
118	0x398efc51	0.0002727234
119	0x3cb20ecf	0.021735577
120	0xbc46899f	-0.012117772
121	0x3b55b75c	0.0032610511
122	0xbc8a387c	-0.016872637
123	0xbc9fca4d	-0.019505644
124	0xbc957a51	-0.018246802
125	0xbcad6395	-0.021165648
126	0x3c9efddb	0.019408157
127	0xbc438faa	-0.011936108
128	0xbbfc8099	-0.0077057597
129	0xbb1c5927	-0.002385685
130	0xbbcc3b47	-0.0062326523
131	0xbc7042d3	-0.01466437
132	0x3c73f5c1	0.014890135
133	0x3c9492fa	0.01813649
134	0xbc8a5e4d	-0.01689067
135	0xbb49a9d1	-0.0030771384
136	0x3b18472b	0.0023235779
137	0x3cb72ad7	0.022359295
138	0x3c5253c9	0.012837359
139	0x3c1063a7	0.0088128215
140	0x3befbe7c	0.0073164087
141	0xbc901fb6	-0.017593246
142	0x3cd7f278	0.026360735
143	0x3b1f2412	0.0024282974
144	0x3c8bb6bf	0.017054914
145	0x3ae0e28c	0.001715736
146	0xbc0d4d44	-0.008624379
147	0xba367782	-0.0006960557
148	0x3bb67fda	0.0055694403
149	0x3b9dac21	0.004811779
150	0xbc68fa4b	-0.014219831
151	0x3cc733be	0.024316665
152	0x3c23b5f7	0.009992114
153	0x3c9a07de	0.01880258
154	0x3cdb77f6	0.0267906
155	0x3cbd797e	0.023129221
156	0x3b7253b7	0.0036976167
157	0x3bc48d32	0.005998277
158	0x3b28685d	0.002569697
159	0xbbff4277	-0.0077899056
160	0xbca95688	-0.020671144
161	0xba8060a1	-0.0009794423
162	0x3aa11b6a	0.0012291495
163	0xbcb12e10	-0.02162841
164	0x3cd17bcd	0.025571728
165	0xbcc2bbc0	-0.023771167
166	0x3c885b4e	0.0166451
167	0xbbac4fe2	-0.005258546
168	0x3c0798e5	0.008276199
169	0xbc84ccfe	-0.01621103
170	0xbbf16140	-0.0073663294
171	0x3aea6b14	0.0017884695
172	0x3cb1bbfd	0.021696085
173	0xbc82345a	-0.015894104
174	0x3c153e5b	0.009109105
175	0x3b81a075	0.0039558955
176	0xbbc13460	-0.005896136
177	0xbcf3156e	-0.029673304
178	0xbcaea4d2	-0.021318827
179	0xbc95b183	-0.01827312
180	0x3bfd4e2c	0.007730266
181	0xbc0bb187	-0.008526213
182	0xbc413a8d	-0.011793745
183	0x3bca973b	0.006182579
184	0xbbdb0882	-0.006684364
185	0xbc632c42	-0.013865532
186	0x3cb8eb12	0.022573028
187	0x3c820c39	0.015874969
188	0x3c657325	0.014004503
189	0x3b07c150	0.0020714588
190	0x3bdb759c	0.0066973697
191	0x3ccfbc70	0.025358409
192	0xbbb6489f	-0.0055628563
193	0x3c9685af	0.018374292
194	0x3ce199c1	0.027539136
195	0x3c9f627a	0.019456137
196	0xbcba78a1	-0.022762598
197	0xbc33dee3	-0.010978433
198	0xbcbeb65a	-0.023280311
199	0xbcdd8532	-0.027041052
200	0xbc134ee8	-0.008990981
201	0x3ca90c84	0.02063585
202	0x3ca7a36b	0.020463666
203	0xbc64dd5a	-0.01396879
204	0x3c0c278d	0.0085543515
205	0xbcc3b4d0	-0.023889929
206	0xbcc76b55	-0.024343172
207	0x3bc1500b	0.0058994344
208	0x39a96c38	0.0003231482
209	0x3c66b050	0.014080122
210	0x3cace7dc	0.021106653
211	0xbcb2d867	-0.021831704
212	0xbc91f92f	-0.017819015
213	0x3c9d2e20	0.019187033
214	0x3c68d3d4	0.01421066
215	0xbb0966fb	-0.0020965922
216	0x3c5b6f01	0.013393165
217	0x3c13ad22	0.009013446
218	0xbbbaf0aa	-0.005704959
219	0xbc4fc150	-0.012680367
220	0xbb88b5c8	-0.0041720606
221	0x3c3cc27e	0.01152098
222	0x3a8bc417	0.0010663298
223	0xbc2e9d37	-0.0106576
224	0x3cd82ccf	0.026388554
225	0xbce4a9e1	-0.027913036
226	0x3c86db88	0.016462103
227	0xb9a20cdb	-0.00030908626
228	0x3a83d890	0.0010059047
229	0x3c765895	0.015035768
230	0x3c467659	0.012113177
231	0x3c32c16a	0.010910371
232	0x3ba82c38	0.0051322244
233	0xbc3129fe	-0.010813234
234	0xbb80f622	-0.0039355913
235	0x3c8225d8	0.015887186
236	0x3ce3a511	0.02778867
237	0x3c6e5ef3	0.014549005
238	0xbbfd2fe9	-0.0077266586
239	0xbc2a4697	-0.0103928065
240	0x3b098b2c	0.0020987494
241	0xbcd5f7ad	-0.026119078
242	0x3b1015e9	0.0021985716
243	0xbc13ae28	-0.00901369
244	0x3caf0bc4	0.021367915
245	0xbc86ddc6	-0.016463172
246	0x3c928400	0.017885208
247	0x3a064119	0.00051213946
248	0x3c813d2c	0.01577624
249	0x3c833700	0.016017437
250	0x3acfb820	0.001584772
251	0xbcd0b94d	-0.025478983
252	0xbac33bf7	-0.001489519
253	0x3cb0c597	0.021578593
254	0x3c904d95	0.017615119
255	0x3c991dc1	0.018690946

bias f4 [8]
0	0x3980a72b	0.00024538612
1	0xbc7d5ab1	-0.015463517
2	0x3609cd90	2.0534244e-06
3	0xbb30c497	-0.0026972645
4	0x3c8c7a3d	0.017148132
5	0xbb829e88	-0.0039861836
6	0x3c8daad6	0.017293375
7	0x3b01bb8c	0.0019795625

weight f4 [8]
0	0x3f7e7d4c	0.9940994
1	0x3f7dca3f	0.9913673
2	0x3f7e1f5d	0.99266607
3	0x3f7f9a8e	0.99845207
4	0x3f7da715	0.9908307
5	0x3f7f723b	0.99783677
6	0x3f7f06d1	0.99619776
7	0x3f7e0380	0.9922409

bias f4 [8]
0	0xb79b422f	-1.8508259e-05
1	0xb7153389	-8.893091e-06
2	0xb66d72bf	-3.5382543e-06
3	0xb5981c94	-1.13332e-06
4	0x34ecb623	4.4090947e-07
5	0x360c3546	2.0892635e-06
6	0x36adf2ad	5.184053e-06
7	0xb620c387	-2.395567e-06

running_mean f4 [8]
0	0x3e473009	0.19451918
1	0xbf2f7eaf	-0.6855268
2	0x3e1e2133	0.15442352
3	0x3df61163	0.12015035
4	0xbf8e46ce	-1.1115358
5	0x3e0b7704	0.1361962
6	0x3e64fd42	0.22362235
7	0x3ec6243c	0.3869952

running_var f4 [8]
0	0x3feb1234	1.836493
1	0x405016e3	3.251397
2	0x3f8d8c80	1.1058502
3	0x3fc32ea3	1.5248607
4	0x411ba266	9.727148
5	0x3f833387	1.02501
6	0x3fa4e8e9	1.2883579
7	0x3ff1122e	1.8833673

weight f4 [64, 128]
0	0x3da09dd1	0.07842601
1	0xbbc8120a	-0.006105666
2	0xbda4c1ba	-0.08044763
3	0x3cc94106	0.024567138
4	0xbcd9380d	-0.026515985
5	0xbd64e5cd	-0.055883218
6	0x3c368642	0.011140408
7	0xbd5677b4	-0.05236025
8	0x3cd1e5ff	0.025622366
9	0x3d635d66	0.055508994
10	0xbd519162	-0.05116404
11	0x3d989fa2	0.074523225
12	0xbd61e402	-0.055149086
13	0xbbf13d8c	-0.0073620733
14	0x3b56485f	0.0032696945
15	0x3d8a57ee	0.067550525
16	0xbd986688	-0.07441431
17	0xbd8e0322	-0.06934191
18	0xbd6f674d	-0.058448125
19	0x3cfc86c4	0.03082598
20	0x3d9f8fbd	0.07791088
21	0xbd370019	-0.044677828
22	0x3d0c46cc	0.034247205
23	0x3d66cd54	0.05634816
24	0x3d9e5ffc	0.07733151
25	0xbc2c24f9	-0.010506862
26	0xbd0c2dd7	-0.034223404
27	0xbd670084	-0.056396976
28	0xbd8ac204	-0.06775287
29	0x3a599cb9	0.00083012466
30	0xbcf8c6f5	-0.030368308
31	0x3be73bdd	0.007056697
32	0x3d977cdf	0.07396864
33	0xbd5c51ca	-0.053788938
34	0xbc887f65	-0.016662309
35	0x3d9d03af	0.07666718
36	0xbd3254a6	-0.04353776
37	0x3ca8cfad	0.02060684
38	0xbd2d128e	-0.042254023
39	0xbda70e78	-0.081570566
40	0x3c33b9dc	0.010969605
41	0xbd5f4972	-0.054513402
42	0xbd4431c2	-0.047899015
43	0xbc8872a0	-0.01665622
44	0x3d43e1ed	0.04782288
45	0xbc8419f1	-0.016125651
46	0x3d829d6b	0.06377681
47	0x3c64c353	0.013962585
48	0xbd88f0d5	-0.0668656
49	0x3d8c8bf8	0.068626344
50	0xbd954871	-0.07289208
51	0x3d94c69e	0.07264446
52	0x3ca10c96	0.019659322
53	0xbd813848	-0.06309563
54	0x3d6e5b8d	0.05819278
55	0xbd5d2069	-0.053985987
56	0x3d989c89	0.07451732
57	0xbcb2cf99	-0.021827506
58	0xbc68528e	-0.014179839
59	0xbdb26929	-0.08711464
60	0x3ca0247e	0.01954865
61	0xbd2fbde4	-0.042905703
62	0x3c57dd05	0.013175254
63	0x3d245e4b	0.040128987
64	0x3d0d7ca1	0.034542684
65	0xbb8643ff	-0.0040974612
66	0xbcfaa54e	-0.030596402
67	0xbd84e3a0	-0.064887285
68	0x3c8b46a8	0.017001465
69	0xbd2e1351	-0.04249889
70	0xbd5f2b95	-0.054484922
71	0xbd915a94	-0.070973545
72	0xbc90e923	-0.017689293
73	0xbcaffd82	-0.021483187
74	0xbd0d4eb2	-0.034498878
75	0xbd273d35	-0.040829856
76	0xbc905a90	-0.017621309
77	0xbcb2275b	-0.021747282
78	0x3d71bd22	0.05901826
79	0xbd8ad60d	-0.06779108
80	0xbd91bd57	-0.07116192
81	0x3ab1e314	0.0013571703
82	0xbda76556	-0.08173625
83	0x3ce0ac58	0.02742593
84	0xbd9acb0e	-0.07558261
85	0x3cc10a95	0.023564616
86	0xbd1e5484	-0.03865482
87	0x3ae4fbfe	0.0017470119
88	0xbc8f2e3b	-0.0174781
89	0xbca79901	-0.0204587
90	0xbc2f55ae	-0.01070158
91	0x3d869b07	0.06572538
92	0xbd8a4c3e	-0.06752823
93	0x3d856734	0.06513825
94	0xbc108b25	-0.008822237
95	0xbb5396ac	-0.0032285852
96	0xbd9e5f28	-0.07732993
97	0x3cadff8b	0.021240016
98	0x3d6a99fa	0.05727575
99	0x3d252454	0.04031785
100	0xbcfa0824	-0.03052146
101	0xbd6931d4	-0.056932285
102	0x3d5b1bf5	0.05349346
103	0x3d8ddc9d	0.06926844
104	0xbd87ca2b	-0.06630357
105	0xbb413966	-0.0029483675
106	0x3d02e978	0.031960934
107	0xbcc3d6e0	-0.023906171
108	0xbd0207b8	-0.031745642
109	0x3c8278d5	0.015926758
110	0xbc6cb322	-0.014447005
111	0x3d7f360a	0.062307395
112	0xbd79b509	-0.060963664
113	0xbd380641	-0.04492784
114	0xbda4f886	-0.080552146
115	0xbca3b531	-0.01998386
116	0xbc02e5c0	-0.007989347
117	0xbd7b0968	-0.061288267
118	0xbcb29f97	-0.021804614
119	0xbd0fe8d7	-0.035134163
120	0xbbccd91d	-0.006251468
121	0x3c253066	0.01008234
122	0xbd02b814	-0.03191383
123	0x3d33ba38	0.043878764
124	0x3c8725d8	0.016497537
125	0xbb0d69ea	-0.0021578022
126	0xbdaa77a9	-0.083236046
127	0x3d816539	0.06318135
128	0x3d64fc33	0.05590458
129	0xbca1fd10	-0.01977399
130	0x3d41151f	0.047139283
131	0x3ccad35f	0.024758993
132	0x3daccf5a	0.08437987
133	0x3bfd04b7	0.0077215093
134	0xbd9a28ad	-0.075272895
135	0xbb5019bc	-0.003175362
136	0x3d356794	0.044288233
137	0x3d632aa8	0.055460602
138	0xbd991581	-0.07474805
139	0x3cc9266d	0.024554456
140	0xbc892dfb	-0.016745558
141	0xbcf66b0f	-0.030080346
142	0xbd287958	-0.041131347
143	0xbda09150	-0.07840216
144	0x3d36b34a	0.044604577
145	0xbd39970b	-0.04531006
146	0xbd19677c	-0.037452206
147	0xbd811292	-0.0630237
148	0x3d008d51	0.03138477
149	0x3cfc84ed	0.030825103
150	0x3b375e3d	0.0027979754
151	0xbcf2e5f8	-0.029650673
152	0xbd41f6bd	-0.04735445
153	0x3da2d6a4	0.07951096
154	0xbbfa5bba	-0.007640329
155	0x3a9a8783	0.0011789653
156	0x3d59b7f0	0.053153932
157	0x3d778c44	0.060436502
158	0x3d3efd6f	0.04662841
159	0x3d937a93	0.072011136
160	0x3d5ed073	0.05439801
161	0x3d4225c3	0.047399294
162	0xbc2823d9	-0.010262453
163	0x3d31d7eb	0.043418806
164	0xbc13d8e1	-0.009023876
165	0xbcbf3498	-0.023340508
166	0x3bd7ed8e	0.006589598
167	0xbd581bfe	-0.05276107
168	0xbd0491ef	-0.032365736
169	0xbd1c8a8d	-0.03821807
170	0xbd00a6cc	-0.03140907
171	0x3c397781	0.011319996
172	0xbace8d59	-0.0015758678
173	0x3c87bb82	0.016568903
174	0x3d879616	0.066204235
175	0xbaad7296	-0.0013233002
176	0xbd588908	-0.05286506
177	0xbd0c4fd3	-0.034255814
178	0x3d6546d3	0.055975746
179	0x3d817300	0.06320763
180	0x3da7e7a6	0.0819848
181	0xbc11a1ae	-0.008888645
182	0x3d7963ad	0.060886074
183	0xbcd9b81a	-0.026577044
184	0x3c6a2903	0.0142920045
185	0xbc9a3069	-0.018821912
186	0xbd62b73f	-0.05535054
187	0xbd46442c	-0.048404858
188	0x3d979188	0.07400805
189	0xbb3034df	-0.0026886982
190	0xbc3c896f	-0.011507376
191	0x3dae0f05	0.084989585
192	0x3c9a6ebb	0.018851629
193	0x3da16033	0.07879677
194	0x3c92f680	0.017939806
195	0x3d5ac6a7	0.053412106
196	0x3d85d735	0.06535188
197	0xbd8d9950	-0.06914008
198	0x3ce2917d	0.027657265
199	0xbca25562	-0.019816104
200	0xba94b907	-0.0011346646
201	0xbd26f45a	-0.040760376
202	0x3d8fb697	0.07017248
203	0xbd7e50d6	-0.06208881
204	0x3d33cd61	0.043897036
205	0x3d732e7c	0.059370503
206	0xbd8be5bd	-0.068309285
207	0xbd952364	-0.07282141
208	0x3d126cda	0.03574834
209	0xbd529021	-0.051406983
210	0xbcefd1d0	-0.029274851
211	0x38e619b9	0.00010972046
212	0x3d8c45f3	0.06849279
213	0xbd1d68e6	-0.038430117
214	0xbd06c51a	-0.032902814
215	0xbd8caabc	-0.068685025
216	0x3d1f2646	0.03885486
217	0xbb33aab7	-0.0027414986
218	0xbd4f86f9	-0.05066583
219	0xbcd457c0	-0.025920749
220	0xbc9bc513	-0.01901487
221	0xbc6a4b6e	-0.01430021
222	0xbda03387	-0.07822328
223	0x3c1c0ddd	0.00952479
224	0xbd06291a	-0.03275404
225	0xbd540f68	-0.051772505
226	0x3d75c5e3	0.060003173
227	0x3c937f61	0.018005075
228	0xbd663543	-0.056203138
229	0x3c12c708	0.008958586
230	0xbd9a2ce7	-0.07528096
231	0x3948d749	0.00019153686
232	0x3d221962	0.03957499
233	0x3afd2a7a	0.0019315027
234	0x3d973c1b	0.07384511
235	0x3d91a839	0.07112164
236	0x3d507747	0.050895
237	0xbd6c343f	-0.057667013
238	0x3d02ddd5	0.031949837
239	0xbda4aa9b	-0.08040353
240	0x3d859228	0.06522018
241	0x3cf16359	0.029466318
242	0x3d0bcd76	0.03413149
243	0x3d8af98a	0.06785877
244	0xbc98e550	-0.018664032
245	0x3d0d4ecd	0.03449898
246	0x3d8d1026	0.06887846
247	0xbbc24017	-0.0059280503
248	0xbd99c9ef	-0.07509219
249	0xbd96062c	-0.07325396
250	0xbca5f7b6	-0.02025972
251	0x3d581f63	0.052764308
252	0x3d4a1630	0.049337566
253	0xbc97f331	-0.01854858
254	0xbd6d530b	-0.057940524
255	0xbcdaa0d2	-0.026688013

bias f4 [64]
0	0xbcfdbaea	-0.030972917
1	0xbd98986b	-0.074509464
2	0x3cd66277	0.026169999
3	0xbbabd8dc	-0.0052443575
4	0xbcc491f0	-0.02399537
5	0x3ce5ed75	0.02806733
6	0x3d4bc408	0.049747497
7	0x3c5876f0	0.013211951
8	0xbd389245	-0.04506137
9	0xbd55965c	-0.052145347
10	0xbc5a778e	-0.013334168
11	0xbd21e62b	-0.039526146
12	0x3d1a9e64	0.03774871
13	0x3da0b5ee	0.078472
14	0x3d9630a0	0.07333493
15	0x3d2e7387	0.042590644
16	0x3cc6b830	0.02425775
17	0xbc5a5cde	-0.013327805
18	0xbcb8a7ad	-0.022540892
19	0xbd5d48fa	-0.054024674
20	0xbccac62e	-0.024752703
21	0xbd3edd22	-0.046597607
22	0xbcf6b58d	-0.030115867
23	0x3d6dcdc5	0.058057565
24	0x3bbc537a	0.005747256
25	0x3ba715b1	0.0050990214
26	0x3d1b7c21	0.037960175
27	0x3d9b64c4	0.07587579
28	0xbccff789	-0.025386589
29	0xbd6402e1	-0.055666808
30	0xbd62dfc9	-0.0553892
31	0xbd8f25bc	-0.06989619
32	0x3d82bd87	0.06383806
33	0x3cb3219c	0.021866612
34	0xbd353564	-0.04424037
35	0xbbe864c8	-0.007092092
36	0xbd82a84f	-0.063797586
37	0xbcf9a8e6	-0.030476045
38	0xbd5d6208	-0.054048568
39	0xbd43c74f	-0.047797497
40	0xbcb9274d	-0.022601748
41	0x3c85df6d	0.01634189
42	0xbd205f40	-0.039153337
43	0xbd8c5341	-0.06851817
44	0xbd144007	-0.036193874
45	0x3d5ddd4d	0.054166127
46	0x3c1691be	0.009190021
47	0x3d3ae3e8	0.045627505
48	0x3d7eafe5	0.062179465
49	0xbd2bac3b	-0.0419123
50	0xbb99fcff	-0.004699349
51	0xbd46fc5b	-0.04858051
52	0xbc523e9b	-0.012832309
53	0xbd86a146	-0.06573729
54	0x3d7717b1	0.06032533
55	0xbd1a0284	-0.037600055
56	0xbd9eaa2e	-0.07747303
57	0x3da03bd5	0.07823912
58	0xbc8d701b	-0.01726537
59	0xbcb505c1	-0.02209747
60	0xbc502585	-0.012704258
61	0xbb7f6bb0	-0.00389741
62	0xbd1df550	-0.038564026
63	0xbd88762d	-0.06663165

weight f4 [32, 64]
0	0xbdb43884	-0.08799842
1	0xbc68c2ea	-0.014206627
2	0x39cc58d3	0.0003897609
3	0xbdc1f44f	-0.09470426
4	0x3d13a542	0.036046274
5	0x3d84e46a	0.06488879
6	0xbde86fc5	-0.11349443
7	0x3dd56676	0.104199335
8	0xbda150ee	-0.07876764
9	0x3d1891d6	0.037248455
10	0x3d079a34	0.033106044
11	0xbd3b223c	-0.045686945
12	0xbd84a77f	-0.0647726
13	0xbb122632	-0.0022300598
14	0xbde29e14	-0.11065307
15	0xba1e81ba	-0.00060465524
16	0xbcbf4ebb	-0.023352971
17	0xbd54916c	-0.051896498
18	0xbdd9a158	-0.10626477
19	0x3de7c1c0	0.11316252
20	0xbdbb0416	-0.09131639
21	0x3dc87b7b	0.09789177
22	0xbd4b0e1c	-0.049574003
23	0x3dd3a212	0.10333647
24	0x3da43ba5	0.08019189
25	0x3dc8c953	0.098040245
26	0xbd852571	-0.06501282
27	0x3c59da00	0.013296604
28	0xbcbd151f	-0.02308136
29	0xbd5470ab	-0.05186526
30	0xbd84a840	-0.06477404
31	0x3ccb57ed	0.0248222
32	0x3cbe69c8	0.0232438
33	0xbdaa5d8c	-0.08318624
34	0x3da05cd4	0.078302056
35	0xbdccb7a9	-0.09995968
36	0x3c511df6	0.012763491
37	0x3c887897	0.016659064
38	0xbd839e28	-0.0642665
39	0xbaeb9293	-0.001797276
40	0x3d80471c	0.06263563
41	0xbd2a775c	-0.041617736
42	0xbde4d17c	-0.111727685
43	0xbd7b26df	-0.061316367
44	0xbd9d7cde	-0.07689832
45	0xbd4b4111	-0.0496226
46	0xbdd76347	-0.105169825
47	0x3d8d50d1	0.0690018
48	0x3d98fdb2	0.074702635
49	0xbdcaeeeb	-0.09908851
50	0xbd3e200b	-0.046417277
51	0x3d8ef2c4	0.069798976
52	0xbcca4e97	-0.024695678
53	0xbdc16b31	-0.09444273
54	0xbd35a633	-0.044347953
55	0xbd8920b2	-0.06695689
56	0x3dca7db7	0.098872595
57	0x3d932658	0.07185048
58	0x3d94fc27	0.07274657
59	0x3d90eceb	0.070764385
60	0x3dcf61d3	0.1012608
61	0xbde97fa8	-0.114013016
62	0x3db20bf4	0.08693686
63	0xbcdc6902	-0.02690554
64	0xbca63db3	-0.020293092
65	0xbda3f974	-0.08006564
66	0x3d097b04	0.033564582
67	0x3d941de7	0.07232266
68	0xbaa12cee	-0.0012296715
69	0xba233841	-0.0006226339
70	0xbbb9b4ae	-0.0056672907
71	0xbdb32d80	-0.08748913
72	0xbba383f7	-0.0049900967
73	0x3d17c3a5	0.037051816
74	0xba56f2e5	-0.0008199646
75	0x3d891100	0.066926956
76	0xbdb46c47	-0.08809715
77	0xbd44a31f	-0.048007127
78	0xbce5b3f7	-0.028039915
79	0xbcb1ffed	-0.02172848
80	0x3b1f411b	0.002430028
81	0xbde3884d	-0.11109982
82	0xbda50cb6	-0.08059065
83	0xbdb1d3b3	-0.086829565
84	0xbd621dd1	-0.055204216
85	0x3badbfe5	0.0053024166
86	0x3dc205f1	0.094737895
87	0x3da02d15	0.07821099
88	0x3d27af95	0.040938932
89	0x3d79e40e	0.061008506
90	0x3cd27205	0.025689134
91	0xbd4a26bb	-0.049353343
92	0x3d377ccf	0.04479676
93	0x3dbaef02	0.09127618
94	0xbde1f094	-0.11032215
95	0x3dd9ac20	0.10628533
96	0xbdd8a8fc	-0.10579106
97	0xbd907a20	-0.070545435
98	0xbda3670f	-0.07978641
99	0x3de93160	0.11386371
100	0x3d09ea43	0.033670675
101	0x3d7a9e41	0.06118608
102	0xbd142f5f	-0.03617799
103	0x3aa21278	0.0012365123
104	0xbd4cd8b5	-0.050011355
105	0x3d13c521	0.03607667
106	0x3cf01e3c	0.029311292
107	0xbc1029f8	-0.008799069
108	0x3cb20ba8	0.021734074
109	0xbddc12c3	-0.10745766
110	0xbd252f70	-0.040328443
111	0xbcf228fd	-0.02956056
112	0xba3d5fb0	-0.00072240364
113	0x3dc4ee71	0.096157916
114	0x3ce55ef4	0.027999379
115	0x3d15b32c	0.036547825
116	0xbcedb64c	-0.02901759
117	0x3d072525	0.03299441
118	0x3d9ad18d	0.075595
119	0xbd325f9d	-0.043548215
120	0x3ddef78d	0.1088706
121	0xbddd722e	-0.10812794
122	0xbd98ce07	-0.074611716
123	0xbb77da76	-0.0037819422
124	0xbd784e81	-0.060621742
125	0xbbab2221	-0.0052225743
126	0x3d8bafa5	0.06820611
127	0xbba69be7	-0.005084503
128	0x3cddd2cf	0.02707806
129	0x3df87f0f	0.121336095
130	0x3cda4b43	0.026647216
131	0x3cca3179	0.024681794
132	0xbd43dbe2	-0.04781712
133	0xbde56b55	-0.112021126
134	0xbdc15ecb	-0.094419084
135	0x3c6b3e6a	0.014358142
136	0xbbbe8719	-0.0058144447
137	0x3d9ed086	0.077546164
138	0xbdc9ae05	-0.09847645
139	0x3d433693	0.047659468
140	0xbdb4549f	-0.08805203
141	0xbd1e2484	-0.038609043
142	0x3bd8ef9e	0.0066203615
143	0x3d4c9525	0.049946923
144	0x3ddfca8e	0.10927306
145	0x3c35963c	0.011083182
146	0xbdddfe7b	-0.10839554
147	0x3dd9beb8	0.1063208
148	0xbb115b9d	-0.002217985
149	0x3ca0191e	0.019543227
150	0x3d60d3af	0.054889377
151	0xbd8774bf	-0.066140644
152	0x3db63308	0.08896452
153	0x3deec399	0.11658401
154	0x3dede293	0.11615481
155	0xbdbbef99	-0.09176559
156	0xbd7443da	-0.05963502
157	0x3b01735c	0.0019752597
158	0x3d543693	0.05180986
159	0x3c98961d	0.018626267
160	0x3dc74ee9	0.09731848
161	0xbd51b9f9	-0.051202748
162	0x3d241895	0.040062506
163	0xbc4cdab7	-0.012503318
164	0x3db0fe65	0.08642272
165	0xbc6d957b	-0.014500971
166	0x3c9bd98a	0.01902463
167	0x3cd0a453	0.02546898
168	0xbda4e948	-0.08052307
169	0x3d92287f	0.0713663
170	0x3d17c455	0.03705247
171	0xbd0a5c52	-0.03377945
172	0x3db6c8e9	0.08925039
173	0xbd2d93cd	-0.042377282
174	0xbd7075db	-0.058706146
175	0x3d13fa78	0.036127537
176	0xbdc0bead	-0.094113685
177	0x3db6468d	0.08900175
178	0xbd10fed4	-0.035399273
179	0xbdf12012	-0.11773695
180	0x3cb7acde	0.022421297
181	0xbd3a09fe	-0.045419686
182	0xbd9f36c6	-0.07774119
183	0xbccc9579	-0.024973618
184	0xbbbe0ee0	-0.005800113
185	0xbdd3ade8	-0.10335904
186	0x3dee1884	0.1162577
187	0x3dd5914c	0.10428104
188	0x3da1b0fd	0.07895086
189	0xbae11bb0	-0.0017174389
190	0x3d37104d	0.04469328
191	0xbc7ff21a	-0.015621686
192	0xbd942e8a	-0.07235439
193	0xbd2fb7fb	-0.042900067
194	0x3cf35832	0.02970514
195	0xbdbd20f2	-0.092347994
196	0x3d6f4b44	0.05842139
197	0x386760f4	5.5164986e-05
198	0x3d38ce70	0.04511875
199	0xbcd18f6b	-0.025581082
200	0xbd87b90b	-0.06627091
201	0xbdd9c7e5	-0.1063383
202	0x3da06a71	0.07832802
203	0x3cf629be	0.030049201
204	0x3d161fa2	0.03665126
205	0x3d8dbe02	0.06921007
206	0xbbcfadbe	-0.0063378504
207	0xbcf965e2	-0.03044409
208	0x3da00e61	0.078152426
209	0xbdd5b678	-0.10435194
210	0x3d672d2f	0.056439575
211	0xbd28c925	-0.04120745
212	0xbd05d91c	-0.032677755
213	0xbc47a53a	-0.012185389
214	0x3dd6950f	0.104776494
215	0x3c2a315e	0.010387747
216	0x3ccfd49c	0.025369935
217	0x3d99279d	0.07478259
218	0xbdbc6696	-0.09199254
219	0x3d4bd249	0.04976109
220	0xbdc278f3	-0.094957255
221	0x3d7c08c4	0.061531797
222	0xbcfe5636	-0.031046968
223	0xbd047dd8	-0.032346576
224	0xbde31fa4	-0.11090019
225	0x3db6fbf2	0.089347735
226	0xbaa0e90f	-0.0012276488
227	0x3a8e18b4	0.0010841102
228	0xbdd77746	-0.105207965
229	0xbd88462b	-0.066540085
230	0xbcccaa1d	-0.02498346
231	0xbd78fd28	-0.060788304
232	0x3d093c0c	0.03350453
233	0xbd66c5de	-0.056341045
234	0x3d63a4b7	0.055577006
235	0xbd64cf97	-0.055862036
236	0xbbe577a7	-0.007002789
237	0x3d5dab73	0.054118585
238	0xba73b377	-0.00092964567
239	0xbd16f0c6	-0.036850713
240	0xbd9e199e	-0.0771973
241	0xbd2b4414	-0.04181297
242	0xbccad38a	-0.024759073
243	0x3deb040f	0.114753835
244	0xbd276366	-0.040866278
245	0x3dd63a2c	0.10460314
246	0x3de126bb	0.109937154
247	0x3d62e55f	0.055394527
248	0x3d53d1ce	0.051713757
249	0x3dc86b9a	0.09786148
250	0xbda61e1e	-0.08111213
251	0xbdde7ce2	-0.10863663
252	0xbdeada7d	-0.114674546
253	0xbcf88ef2	-0.0303416
254	0x3aa5cd6c	0.0012649721
255	0xbdc83602	-0.09775926

bias f4 [32]
0	0xbd3a6b3f	-0.045512434
1	0x3cf55511	0.02994779
2	0x3e011553	0.12605791
3	0xbd121db3	-0.035672855
4	0x3d1f9c3b	0.038967352
5	0xbd9b0e6d	-0.07571111
6	0x3dbc7673	0.0920228
7	0xbd8cafea	-0.068694904
8	0x3bd71f6a	0.006565024
9	0x3d4bbb1b	0.049738985
10	0x3c5069f2	0.012720572
11	0xbd6b9fac	-0.05752532
12	0xbdd5f09a	-0.10446282
13	0x3c91c624	0.017794676
14	0xbd97ee89	-0.07418544
15	0x3dd7b946	0.10533385
16	0xbd914c58	-0.070946395
17	0x3bc44d87	0.0059906873
18	0xbd35d6da	-0.04439435
19	0x3da666b1	0.081250556
20	0xbd16eadf	-0.036845084
21	0xbde96a74	-0.113972574
22	0x3dba51ed	0.09097657
23	0xbd102839	-0.03519461
24	0x3c649b33	0.013953018
25	0x3ce6289f	0.028095542
26	0x3d9d9e39	0.07696194
27	0x3c12ae1a	0.008952642
28	0xbd2d272e	-0.042273693
29	0x3da980dd	0.08276532
30	0x3d7beabc	0.061503157
31	0xbda9d6b6	-0.08292906

weight f4 [10, 32]
0	0x3d53d0ba	0.05171273
1	0x3cee47e3	0.029087013
2	0x3dffeec8	0.12496716
3	0x398a53eb	0.00026383935
4	0x3cc08442	0.023500565
5	0xbe28adfa	-0.16472617
6	0x3e2a228d	0.16614743
7	0xbe0cb48f	-0.13740753
8	0x3d741346	0.059588693
9	0x3df9841c	0.12183401
10	0x3d1bf550	0.038075745
11	0x3d0bcb1f	0.03412926
12	0xbdbd7927	-0.092516236
13	0x3d7279a2	0.05919803
14	0x3e05baf8	0.13059604
15	0x3e21026a	0.15723577
16	0xbd50ff70	-0.051024854
17	0x3ca28d33	0.01984272
18	0x3dffd05d	0.12490914
19	0xbd716f51	-0.05894405
20	0x3dfd2c42	0.12361957
21	0xbda01669	-0.078167744
22	0xbdeb538c	-0.11490545
23	0xbe289b90	-0.16465592
24	0x3cc07e99	0.023497866
25	0x3dd25e80	0.10271931
26	0xbe1bc891	-0.15213229
27	0x3e3bf27c	0.18354219
28	0x3e15ae90	0.14617372
29	0xbe0b7cd6	-0.1362184
30	0x3cfcbac6	0.03085078
31	0x3e3c79c0	0.18405819
32	0xbd69108c	-0.056900546
33	0xbe0f4923	-0.13992743
34	0xbe2a8a5e	-0.16654345
35	0x3da31fed	0.07965074
36	0xbdef286b	-0.11677631
37	0xbe142acd	-0.14469452
38	0xbe20e9aa	-0.15714136
39	0xbde5b87e	-0.1121683
40	0xbcb91388	-0.022592321
41	0x3db182c1	0.086675175
42	0xbc331720	-0.010930806
43	0x3d278eee	0.040907793
44	0xbe105048	-0.14093125
45	0x3c16fdb3	0.00921576
46	0x3d6203fe	0.05517959
47	0x3e043321	0.12910129
48	0x3d7f3df2	0.062314935
49	0x3aaee6fd	0.0013343986
50	0x3c78010a	0.0151369665
51	0xbd906cbd	-0.0705199
52	0xbe192d7b	-0.14958756
53	0x3c653c5a	0.01399144
54	0x3dc9a48c	0.09845838
55	0xbd0dc619	-0.03461275
56	0xbe03ea37	-0.12882315
57	0xbd2c6d20	-0.042096257
58	0x3d035335	0.032061774
59	0xbe073799	-0.13204803
60	0x3dafa9eb	0.08577331
61	0x3c05c875	0.008165468
62	0xbdd6572a	-0.10465844
63	0xbdeff602	-0.11716844
64	0x3e144f9f	0.14483498
65	0xbdfc1da3	-0.1231034
66	0xbde7fb29	-0.11327202
67	0xbb205c72	-0.0024469164
68	0x3e15c16d	0.14624567
69	0xbd6a88db	-0.05725942
70	0xbd410327	-0.047122147
71	0xbd901494	-0.07035175
72	0x3dbf7086	0.09347634
73	0x3c97d427	0.01853378
74	0x3d3d4c76	0.046215497
75	0xbdc1fc18	-0.09471911
76	0xbe10c592	-0.14137867
77	0x3da280fb	0.07934757
78	0x3d3a6fda	0.045516826
79	0xbdc56017	-0.09637468
80	0xbb988749	-0.004654799
81	0x3d43b805	0.047782917
82	0x3bb3d66b	0.005488207
83	0xbd162b95	-0.036662657
84	0xbe264a4f	-0.16239284
85	0xbdbbaf09	-0.09164245
86	0xbd14eebe	-0.036360495
87	0x39db4a3f	0.00041826253
88	0x37ff3c02	3.0426312e-05
89	0xbe02e42b	-0.12782352
90	0xbdfcf63c	-0.12351653
91	0x3e29a88e	0.16568205
92	0xbde3b47a	-0.111184075
93	0x3e017814	0.12643462
94	0x3d8f880c	0.07008371
95	0x3d8f161a	0.069866374
96	0x3ccbcc32	0.024877641
97	0xbe297a76	-0.16550621
98	0x3e211be0	0.1573329
99	0xbdc6a1f0	-0.09698856
100	0x3dcec2cc	0.10095748
101	0xbe259067	-0.16168366
102	0xbc10cd5b	-0.008838023
103	0xbd0d5a74	-0.03451009
104	0xbd0424ec	-0.032261774
105	0xbba2b24a	-0.0049651014
106	0x3e252ec2	0.16131118
107	0x3b08010c	0.0020752577
108	0x3dccc4bd	0.09998462
109	0xbdae5378	-0.08512014
110	0x3e0e5df8	0.13903034
111	0xbd8564b0	-0.06513345
112	0x3ddffd65	0.10937003
113	0x3e225981	0.15854456
114	0x3dcee570	0.101023555
115	0xbd1a9ec8	-0.03774908
116	0x3cf9b456	0.030481499
117	0xbd4cf0a7	-0.05003419
118	0x3c915893	0.01774243
119	0xbdcc01a6	-0.09961252
120	0xbd60d611	-0.05489165
121	0xbd333cdf	-0.043759223
122	0xbe0bc3f4	-0.13648969
123	0xbe266999	-0.1625122
124	0xbd188be0	-0.03724277
125	0xbda62987	-0.081133895
126	0x3e1df6f3	0.15426235
127	0x3c4d665b	0.0125366105
128	0xbd052393	-0.03250463
129	0x3de9b8e9	0.11412222
130	0xbe02e554	-0.12782794
131	0x3d461f24	0.04836954
132	0xbdd7c83a	-0.10536237
133	0xbdb104a2	-0.08643462
134	0x3c5bf7b4	0.013425756
135	0x3e091d8f	0.13390182
136	0xbdcbd1c1	-0.09952117
137	0x3e0c06f5	0.13674529
138	0xbd09dd1a	-0.033658125
139	0x3db376a9	0.08762867
140	0x3cdeb5db	0.027186325
141	0xbab2035d	-0.0013581325
142	0x3e12569f	0.14290856
143	0x3c8bc45a	0.017061401
144	0xbde4c1e7	-0.111697964
145	0xbae794f1	-0.0017668289
146	0x3bf7793d	0.0075522945
147	0xbe19c1b8	-0.15015304
148	0xbdbd7058	-0.092499435
149	0x3e027702	0.1274071
150	0xbd4c63e4	-0.04989995
151	0xbd9d99d3	-0.07695355
152	0xbdbcd20f	-0.09219753
153	0xbdfcf441	-0.12351275
154	0xbd71c3c7	-0.0590246
155	0x3d91ecb1	0.071252234
156	0x3d963a47	0.07335334
157	0xbb1040e5	-0.0022011336
158	0xbdff7af0	-0.1247462
159	0xbe041820	-0.12899828
160	0x3e15e41e	0.14637801
161	0x3de37d5e	0.11107896
162	0x3dc9a786	0.09846406
163	0xbc4f6d6a	-0.012660364
164	0xbdedec6b	-0.11617359
165	0xbd94c5cb	-0.072642885
166	0x3e1c5a28	0.15268767
167	0x3de3cdba	0.111232236
168	0xbdf2761d	-0.118389346
169	0x3bb6b539	0.0055758026
170	0x3d85b9df	0.06529593
171	0x3d07f36d	0.033191133
172	0x3dd4ab2f	0.10384213
173	0xbc09d3ee	-0.008412344
174	0xbe18ca35	-0.14920886
175	0x3cdabddb	0.026701858
176	0xbd9abc65	-0.07555465
177	0xbd920c61	-0.07131267
178	0x3daf1422	0.08548762
179	0xbd95d2ae	-0.073155746
180	0x3d816479	0.06317992
181	0x3df8b437	0.12143748
182	0x3dd35eff	0.103208534
183	0x3d0c832f	0.034304794
184	0x3d5ca9d5	0.053872902
185	0xbc85866b	-0.016299447
186	0x3d8900ae	0.06689583
187	0xbdbcab0e	-0.092123136
188	0x3d3129a4	0.043252602
189	0xbc351550	-0.011052445
190	0xbd902e46	-0.07040076
191	0xba9f1510	-0.0012137014
192	0x3dc7fd0e	0.09765063
193	0x3dc68ed9	0.09695215
194	0x3e1385f6	0.14406571
195	0xbe110c30	-0.14164805
196	0xbd277548	-0.040883332
197	0xbbb3ab9a	-0.005483103
198	0xbce40b35	-0.027837375
199	0xbcdd4e61	-0.027014913
200	0x3da6d06d	0.08145223
201	0x3dcb127e	0.099156365
202	0xbe09df3b	-0.13464062
203	0xbd117f15	-0.035521585
204	0xbd96b2be	-0.07358311
205	0x3df1eb90	0.11812508
206	0xbc3746ef	-0.0111863455
207	0x3da2ee42	0.079556
208	0x3e26fae7	0.16306649
209	0x3cf303a4	0.029664822
210	0xbe241ae4	-0.16025883
211	0xbd1ca010	-0.038238585
212	0x3db29b67	0.08721047
213	0xbd781d3d	-0.06057476
214	0x3bae170a	0.005312805
215	0xbd5d70aa	-0.054062523
216	0xbe16dcc1	-0.14732648
217	0xbdfce877	-0.12349027
218	0x3d69a568	0.05704251
219	0xbe19089d	-0.14944692
220	0x3d02c70c	0.031928107
221	0xbd3ef898	-0.046623796
222	0xbbdf26d0	-0.0068100467
223	0x3df9399e	0.12169193
224	0xbdff542a	-0.12467225
225	0xbdbf25a1	-0.09333349
226	0xbe0e3948	-0.13889039
227	0xbd812f96	-0.063079044
228	0xbd67ebd2	-0.05662138
229	0xbdb9f259	-0.09079427
230	0x3d42cafd	0.047556866
231	0xbd2681a6	-0.040650986
232	0xbe0e3994	-0.13889152
233	0x3c6bbbd2	0.014388042
234	0x3bd94f01	0.0066317325
235	0x3e074556	0.13210043
236	0x3cf1a9c1	0.02949989
237	0xbd963d6c	-0.07335934
238	0x3db70bfa	0.08937831
239	0x3d0f21b7	0.034944262
240	0xbd09d574	-0.03365083
241	0x3dcfd5e9	0.10148222
242	0xbca5dca2	-0.020246807
243	0xbd1f78c3	-0.038933527
244	0x3e179efa	0.14806738
245	0x3e0d93cd	0.13825913
246	0xbdd80ca2	-0.105492845
247	0x3c378a15	0.011202355
248	0xbdac6e60	-0.0841949
249	0x3cc27642	0.02373803
250	0xbc2e082e	-0.010622067
251	0x3cf81b9f	0.030286608
252	0x3e16292a	0.1466414
253	0xbe2117a0	-0.15731668
254	0xbe3068c4	-0.17227465
255	0xbd584bdb	-0.052806716

bias f4 [10]
0	0xbda51ba9	-0.080619164
1	0x3de69fd9	0.11260957
2	0xbd180e5e	-0.037123077
3	0xbdd4bdb4	-0.103877455
4	0x3e01e018	0.12683141
5	0xbda02beb	-0.07820877
6	0xbe17934d	-0.14802285
7	0x3e277f40	0.16357136
8	0xbd4d6dc1	-0.050153498
9	0x3dc34df7	0.09536355
