trained_models/model.pt (torch, 44292 bytes, 10 tensors)

weight f4 [8, 3, 3, 3]
000000 82 3a f9 3c 82 3a f9 3c 82 3a f9 3c 82 3a f9 3c
       0.030423407 0.030423407 0.030423407 0.030423407
000010 82 3a f9 3c 82 3a f9 3c 82 3a f9 3c 82 3a f9 3c
       0.030423407 0.030423407 0.030423407 0.030423407
000020 82 3a f9 3c 98 6d 07 3d 81 b5 06 3d f4 d4 07 3d
       0.030423407 0.0330635 0.03288794 0.033162072
000030 f9 bd 09 3d a6 33 08 3d 0b a6 09 3d ae 2d 09 3d
       0.033628438 0.03325238 0.033605617 0.03349083
000040 61 3f 0a 3d 45 d4 09 3d 54 fa d6 3c 49 a2 d6 3c
       0.03375185 0.0336497 0.026242413 0.02620043
000050 fd 65 d6 3c 9f 8a d7 3c 7b 97 d7 3c bb 5c d7 3c
       0.026171679 0.026311217 0.026317349 0.026289335
000060 75 b5 d7 3c a6 9a d7 3c 10 cb d7 3c 52 3a f9 3c
       0.026331643 0.02631886 0.026341945 0.030423317
000070 52 3a f9 3c 52 3a f9 3c 52 3a f9 3c 52 3a f9 3c
       0.030423317 0.030423317 0.030423317 0.030423317
000080 52 3a f9 3c 52 3a f9 3c 52 3a f9 3c 52 3a f9 3c
       0.030423317 0.030423317 0.030423317 0.030423317
000090 7e 6d 07 3d 9e b5 06 3d d6 d4 07 3d de bd 09 3d
       0.033063404 0.032888047 0.03316196 0.033628337
0000a0 5b 33 08 3d e3 a5 09 3d 95 2d 09 3d 5a 3f 0a 3d
       0.0332521 0.033605468 0.033490736 0.033751823
0000b0 32 d4 09 3d 71 fa d6 3c 40 a2 d6 3c ef 65 d6 3c
       0.03364963 0.026242467 0.026200414 0.026171653
0000c0 a7 85 d7 3c 7b 9c d7 3c c3 5c d7 3c 44 b0 d7 3c
       0.026308848 0.026319733 0.02628935 0.026329167
0000d0 27 9e d7 3c 3a cb d7 3c 63 e1 f1 bc 63 e1 f1 bc
       0.02632053 0.026342023 -0.029526418 -0.029526418
0000e0 63 e1 f1 bc 63 e1 f1 bc 63 e1 f1 bc 63 e1 f1 bc
       -0.029526418 -0.029526418 -0.029526418 -0.029526418
0000f0 63 e1 f1 bc 63 e1 f1 bc 63 e1 f1 bc 55 79 02 bd
       -0.029526418 -0.029526418 -0.029526418 -0.031853992
000100 f8 40 02 bd 35 dd 02 bd 95 75 02 bd 3f 33 02 bd
       -0.03180024 -0.03194924 -0.031850416 -0.031787153
000110 c4 65 02 bd 90 9d 02 bd a6 94 02 bd 8e ee 02 bd
       -0.031835333 -0.031888545 -0.031880043 -0.031965785
000120 53 a6 cb bc 2b ab cd bc 33 9b cd bc 30 d9 cc bc
       -0.024859583 -0.025106033 -0.025098419 -0.025005907
000130 e1 34 cd bc cd d0 cc bc 2b 85 ce bc b1 f0 ce bc
       -0.025049629 -0.025001908 -0.025209984 -0.025261255
000140 e9 68 ce bc 93 be ee bc 92 be ee bc 92 be ee bc
       -0.02519651 -0.029143607 -0.029143605 -0.029143605
000150 92 be ee bc 93 be ee bc 92 be ee bc 92 be ee bc
       -0.029143605 -0.029143607 -0.029143605 -0.029143605
000160 92 be ee bc 93 be ee bc 03 bf 00 bd a5 7a 00 bd
       -0.029143605 -0.029143607 -0.031432163 -0.031366963
000170 0e 1a 01 bd bc b4 00 bd 99 72 00 bd 49 a4 00 bd
       -0.03151899 -0.03142236 -0.03135929 -0.031406675
000180 7f db 00 bd 9c d2 00 bd 0b 29 01 bd d3 31 c9 bc
       -0.031459328 -0.031450853 -0.031533282 -0.02455989
000190 cd 2b cb bc 4e 1a cb bc 55 5f ca bc 90 ba ca bc
       -0.02480116 -0.024792816 -0.024703661 -0.024747163
0001a0 2f 53 ca bc 81 03 cc bc cf 68 cc bc 42 e0 cb bc
       -0.024697868 -0.024904015 -0.02495232 -0.024887208
0001b0 77 fd ef bc 75 fd ef bc 75 fd ef bc 77 fd ef bc
       -0.029295666 -0.029295662 -0.029295662 -0.029295666
0001c0 77 fd ef bc 75 fd ef bc 75 fd ef bc 77 fd ef bc
       -0.029295666 -0.029295662 -0.029295662 -0.029295666
0001d0 77 fd ef bc 23 6d 01 bd ef 35 01 bd fa d3 01 bd
       -0.029295666 -0.03159822 -0.031545576 -0.031696297
0001e0 ab 69 01 bd 2b 27 01 bd be 58 01 bd 1e 91 01 bd
       -0.031594913 -0.031531494 -0.03157877 -0.031632535
0001f0 3f 87 01 bd 7b e0 01 bd 45 24 ca bc ba 24 cc bc
       -0.03162312 -0.031708222 -0.024675498 -0.024919856
000200 75 14 cc bc c5 56 cb bc 96 af cb bc 15 4b cb bc
       -0.024912098 -0.024821648 -0.024864 -0.024816075
000210 20 fd cc bc 88 66 cd bc 9e dd cc bc 0e e5 f7 bc
       -0.025023043 -0.025073305 -0.025008019 -0.030260589
000220 0e e5 f7 bc 0e e5 f7 bc 0d e5 f7 bc 0e e5 f7 bc
       -0.030260589 -0.030260589 -0.030260587 -0.030260589
000230 0e e5 f7 bc 0e e5 f7 bc 0d e5 f7 bc 0e e5 f7 bc
       -0.030260589 -0.030260589 -0.030260587 -0.030260589
000240 15 ca 05 bd cd 8f 05 bd 1f 35 06 bd 71 c8 05 bd
       -0.032663424 -0.032607842 -0.032765504 -0.03266186
000250 01 82 05 bd 4b b4 05 bd fb f0 05 bd 85 e5 05 bd
       -0.032594685 -0.032642644 -0.03270052 -0.03268959
000260 d5 46 06 bd 5c 75 d0 bc 6c 8a d2 bc 2f 80 d2 bc
       -0.032782394 -0.025446586 -0.02570077 -0.025695888
000270 93 b6 d1 bc 81 10 d2 bc 23 ac d1 bc 08 6f d3 bc
       -0.025599753 -0.025642635 -0.025594776 -0.02580978
000280 56 e3 d3 bc 3a 58 d3 bc 88 f5 ed bc 88 f5 ed bc
       -0.025865238 -0.025798906 -0.029047742 -0.029047742
000290 88 f5 ed bc 88 f5 ed bc 88 f5 ed bc 88 f5 ed bc
       -0.029047742 -0.029047742 -0.029047742 -0.029047742
0002a0 88 f5 ed bc 88 f5 ed bc 88 f5 ed bc f3 47 00 bd
       -0.029047742 -0.029047742 -0.029047742 -0.031318616
0002b0 3a 1a 00 bd 96 ac 00 bd 76 45 00 bd 45 04 00 bd
       -0.03127501 -0.03141459 -0.031316243 -0.03125407
0002c0 94 35 00 bd b1 6d 00 bd 17 62 00 bd 73 ba 00 bd
       -0.031301096 -0.03135461 -0.031343546 -0.03142781
0002d0 fd 8d c8 bc cf 88 ca bc dc 77 ca bc e8 ba c9 bc
       -0.024481768 -0.024723439 -0.024715357 -0.024625257
0002e0 e8 10 ca bc e7 b1 c9 bc 19 5e cb bc 01 c3 cb bc
       -0.024666265 -0.024620963 -0.024825143 -0.024873259
0002f0 7b 3c cb bc 76 3a f9 3c 76 3a f9 3c 76 3a f9 3c
       -0.024809113 0.030423384 0.030423384 0.030423384
000300 76 3a f9 3c 76 3a f9 3c 76 3a f9 3c 76 3a f9 3c
       0.030423384 0.030423384 0.030423384 0.030423384
000310 76 3a f9 3c 76 3a f9 3c 90 6d 07 3d b1 b5 06 3d
       0.030423384 0.030423384 0.03306347 0.03288812
000320 12 d5 07 3d f7 bd 09 3d 7e 33 08 3d dd a5 09 3d
       0.033162184 0.03362843 0.03325223 0.033605445
000330 f3 2d 09 3d 65 3f 0a 3d 13 d4 09 3d fb fd d6 3c
       0.033491086 0.033751864 0.033649515 0.026244154
000340 68 a2 d6 3c f0 65 d6 3c 9d 83 d7 3c 87 9c d7 3c
       0.026200488 0.026171654 0.026307875 0.026319755
000350 0e 5d d7 3c cf ae d7 3c ac 9d d7 3c 70 cc d7 3c
       0.02628949 0.026328472 0.026320301 0.0263426

bias f4 [8]
000000 39 44 8d bb 32 44 8d bb dc 27 8b 3b 30 cc 8a 3b
       -0.0043111113 -0.004311108 0.004246695 0.004235767
000010 c9 f0 8a 3b ea d8 8b 3b de b5 8a 3b 38 44 8d bb
       0.0042401296 0.0042678015 0.004233106 -0.004311111

weight f4 [3]
000000 d4 f1 a2 b3 04 b3 08 3b 3d 79 f9 3a
       -7.587701e-08 0.0020858655 0.0019033324

bias f4 [3]
000000 2b f3 80 be 21 0f 8a be 09 87 5b be
       -0.25185522 -0.26964667 -0.2143823

running_mean f4 [3]
000000 00 00 00 00 ed 51 b8 3d ed 51 26 40
       0.0 0.09000001 2.5987504

running_var f4 [3]
000000 04 00 00 00 fd 5f 89 3f cf 06 73 43
       6e-45 1.0732418 243.0266

weight f4 [32, 288]
000000 21 c3 40 39 15 c4 40 39 75 61 40 39 ee d9 41 39
       0.00018383238 0.00018383593 0.00018346852 0.000184871
000010 d1 ae 42 39 2b d3 41 39 15 da 40 39 b2 7e 40 39
       0.00018566406 0.0001848458 0.00018391789 0.00018357745
000020 2b e5 3f 39 8d 66 40 39 14 9c 42 39 a6 7a 42 39
       0.00018300551 0.0001834875 0.00018559425 0.00018546972
000030 f2 5d 41 39 2c d0 41 39 68 ef 40 39 ce e2 3f 39
       0.00018440912 0.00018483464 0.00018399733 0.00018299671
000040 87 ea 41 39 bb c7 41 39 6f 64 41 39 7f bc 41 39
       0.00018493283 0.0001848032 0.00018443329 0.00018476135
000050 08 4d 41 39 1e ac 41 39 5d d9 42 39 ee bc 41 39
       0.0001843461 0.00018470033 0.00018582256 0.00018476296
000060 75 63 41 39 c9 ca 41 39 c0 69 42 39 65 8d 42 39
       0.00018442965 0.00018481458 0.00018540677 0.00018553955
000070 44 20 43 39 e5 a1 42 39 0a db 40 39 11 c7 40 39
       0.00018608669 0.00018561592 0.00018392145 0.00018384705
000080 83 ec 41 39 37 84 42 39 22 7e 42 39 32 11 42 39
       0.00018494022 0.00018550536 0.0001854827 0.00018507687
000090 57 c3 40 39 50 c4 40 39 b4 61 40 39 19 da 41 39
       0.00018383317 0.00018383679 0.00018346944 0.00018487162
0000a0 fd ae 42 39 60 d3 41 39 4d da 40 39 f3 7e 40 39
       0.0001856647 0.00018484658 0.0001839187 0.00018357839
0000b0 75 e5 3f 39 c9 66 40 39 47 9c 42 39 dd 7a 42 39
       0.00018300659 0.00018348837 0.000185595 0.00018547052
0000c0 34 5e 41 39 65 d0 41 39 a0 ef 40 39 1a e3 3f 39
       0.00018441008 0.00018483547 0.00018399814 0.00018299781
0000d0 b4 ea 41 39 f3 c7 41 39 b1 64 41 39 c7 bc 41 39
       0.00018493348 0.00018480401 0.00018443425 0.0001847624
0000e0 2c 4d 41 39 4e ac 41 39 87 d9 42 39 1f bd 41 39
       0.00018434663 0.00018470103 0.00018582317 0.00018476367
0000f0 af 63 41 39 0f cb 41 39 f8 69 42 39 87 8d 42 39
       0.0001844305 0.0001848156 0.00018540758 0.00018554005
000100 7a 20 43 39 16 a2 42 39 32 db 40 39 70 c7 40 39
       0.00018608748 0.00018561663 0.00018392203 0.00018384843
000110 c8 ec 41 39 60 84 42 39 57 7e 42 39 66 11 42 39
       0.00018494122 0.00018550595 0.00018548347 0.00018507763
000120 11 de 46 b9 ac e6 46 b9 0e d1 46 b9 02 e6 46 b9
       -0.00018965478 -0.00018968683 -0.0001896063 -0.00018968436
000130 f6 40 47 b9 29 66 4a b9 d5 9c 46 b9 8b a2 46 b9
       -0.00019002319 -0.00019302279 -0.00018941176 -0.00018943303
000140 01 a7 46 b9 58 e2 46 b9 0c 74 47 b9 b6 5b 48 b9
       -0.00018944965 -0.00018967071 -0.0001902135 -0.00019107651
000150 91 7c 46 b9 ee 2d 46 b9 a9 e0 46 b9 f9 3e 48 b9
       -0.00018929156 -0.00018899862 -0.00018966444 -0.00019096945
000160 4f e1 48 b9 e1 30 49 b9 2e 96 46 b9 58 a3 45 b9
       -0.0001915742 -0.00019187063 -0.00018938698 -0.00018848234
000170 f1 31 46 b9 3d 58 47 b9 6e cd 47 b9 82 df 48 b9
       -0.00018901356 -0.0001901099 -0.00019054647 -0.0001915675
000180 f5 37 45 b9 9e 5f 45 b9 de d4 45 b9 5a 84 47 b9
       -0.0001880823 -0.00018823004 -0.00018866683 -0.00019027424
000190 a7 0b 48 b9 1b bd 48 b9 bd 23 45 b9 fc 0b 45 b9
       -0.00019077827 -0.00019143934 -0.00018800698 -0.00018791849
0001a0 8d 58 45 b9 6f 06 48 b9 65 37 49 b9 f3 9a 48 b9
       -0.00018820372 -0.00019075883 -0.0001918949 -0.0001913121
0001b0 9c 29 48 b9 6f 30 48 b9 f9 1b 48 b9 4c 2c 48 b9
       -0.00019088987 -0.00019091529 -0.00019083907 -0.00019089988
0001c0 16 83 48 b9 c2 7b 4b b9 61 ed 47 b9 ed f1 47 b9
       -0.0001912232 -0.00019405692 -0.0001906655 -0.00019068243
0001d0 f1 f5 47 b9 35 2c 48 b9 0a b3 48 b9 f5 89 49 b9
       -0.00019069739 -0.00019089955 -0.00019140184 -0.00019220247
0001e0 e4 cd 47 b9 4b 81 47 b9 e2 2f 48 b9 57 7f 49 b9
       -0.00019054819 -0.00019026284 -0.00019091324 -0.00019216292
0001f0 88 16 4a b9 37 5e 4a b9 07 e1 47 b9 c7 06 47 b9
       -0.00019272615 -0.00019299319 -0.00019061948 -0.00018980644
000200 8e 92 47 b9 6c aa 48 b9 2e 12 49 b9 0d 10 4a b9
       -0.00019032715 -0.00019136973 -0.00019175626 -0.000192702
000210 62 a5 46 b9 4f c8 46 b9 a9 3a 47 b9 61 d4 48 b9
       -0.00018944361 -0.00018957372 -0.00018999972 -0.00019152604
000220 f5 4f 49 b9 dd f1 49 b9 29 92 46 b9 78 79 46 b9
       -0.0001919864 -0.00019258955 -0.000189372 -0.00018928002
000230 59 bc 46 b9 2f 4c 49 b9 cc 62 4a b9 00 d4 49 b9
       -0.00018952916 -0.00019197234 -0.00019301026 -0.0001924783
000240 c0 c2 47 b9 2e ca 47 b9 4e b5 47 b9 82 c7 47 b9
       -0.00019050669 -0.00019053437 -0.0001904566 -0.00019052441
000250 eb 1f 48 b9 1c 2a 4b b9 93 84 47 b9 8e 89 47 b9
       -0.00019085377 -0.00019375276 -0.00019027507 -0.00019029362
000260 ac 8d 47 b9 01 c6 47 b9 1e 51 48 b9 b1 2e 49 b9
       -0.00019030896 -0.00019051881 -0.00019103705 -0.00019186248
000270 ab 64 47 b9 3c 17 47 b9 7b c7 47 b9 d1 1c 49 b9
       -0.0001901562 -0.00018986774 -0.00019052431 -0.00019179589
000280 94 b8 49 b9 56 03 4a b9 59 7a 47 b9 5a 96 46 b9
       -0.00019237614 -0.00019265464 -0.00019023697 -0.00018938762
000290 55 23 47 b9 d4 40 48 b9 fb ad 48 b9 f2 b3 49 b9
       -0.00018991281 -0.00019097637 -0.00019138299 -0.00019235889
0002a0 f7 30 46 b9 dc 55 46 b9 4b c9 46 b9 b3 6b 48 b9
       -0.00018900992 -0.00018914737 -0.00018957739 -0.00019113607
0002b0 08 ec 48 b9 f6 93 49 b9 7f 1d 46 b9 30 05 46 b9
       -0.00019161415 -0.00019223974 -0.0001889374 -0.00018884684
0002c0 b6 4b 46 b9 9c e7 48 b9 84 08 4a b9 88 74 49 b9
       -0.00018910956 -0.00019159768 -0.00019267394 -0.00019212265
0002d0 dc a3 41 b9 7c b0 41 b9 d2 97 41 b9 60 b6 41 b9
       -0.00018466957 -0.0001847166 -0.00018462472 -0.00018473854
0002e0 56 19 42 b9 e7 95 45 b9 ef 58 41 b9 55 61 41 b9
       -0.0001851072 -0.00018843227 -0.00018439045 -0.00018442173
0002f0 09 66 41 b9 77 ab 41 b9 bb 52 42 b9 8e 5b 43 b9
       -0.00018443925 -0.0001846979 -0.00018532101 -0.00018630756
000300 f1 36 41 b9 ad e4 40 b9 cc 9e 41 b9 a6 19 43 b9
       -0.00018426382 -0.00018395735 -0.00018465071 -0.00018606204
000310 2c d2 43 b9 aa 30 44 b9 05 5f 41 b9 60 3a 40 b9
       -0.00018674944 -0.00018710145 -0.00018441312 -0.00018332293
000320 9c cd 40 b9 fe 0f 42 b9 f2 9f 42 b9 ef d9 43 b9
       -0.00018387142 -0.0001850724 -0.00018560866 -0.00018677836
000330 74 bb 3f b9 92 eb 3f b9 6f 66 40 b9 86 40 42 b9
       -0.00018285011 -0.00018302936 -0.00018348706 -0.00018525319
000340 a4 de 42 b9 35 af 43 b9 1a a5 3f b9 08 8f 3f b9
       -0.00018584222 -0.00018661919 -0.00018276685 -0.00018268463
000350 bf ee 3f b9 01 d7 42 b9 fe 3c 44 b9 46 84 43 b9
       -0.0001830412 -0.00018581377 -0.00018714738 -0.00018645925
000360 28 54 48 b9 77 5a 48 b9 6d 46 48 b9 92 55 48 b9
       -0.00019104837 -0.00019107187 -0.00019099722 -0.00019105364
000370 45 ab 48 b9 05 99 4b b9 2b 19 48 b9 50 1d 48 b9
       -0.00019137289 -0.00019416593 -0.00019082862 -0.00019084406
000380 5a 21 48 b9 68 56 48 b9 95 da 48 b9 48 ad 49 b9
       -0.00019085911 -0.00019105675 -0.00019154914 -0.00019233406
000390 e3 f9 47 b9 af ad 47 b9 4d 5b 48 b9 1d a7 49 b9
       -0.00019071209 -0.00019042821 -0.00019107499 -0.00019231108
0003a0 96 3b 4a b9 6f 81 4a b9 6b 0b 48 b9 0b 37 47 b9
       -0.00019286419 -0.00019312439 -0.0001907774 -0.00018998624
0003b0 3c c2 47 b9 8a d6 48 b9 f4 3a 49 b9 f1 33 4a b9
       -0.00019050477 -0.00019153408 -0.00019190816 -0.00019283571
0003c0 2c d8 46 b9 19 fa 46 b9 a0 6b 47 b9 f1 ff 48 b9
       -0.00018963282 -0.0001897592 -0.00019018212 -0.00019168832
0003d0 c4 78 49 b9 f0 16 4a b9 36 c5 46 b9 79 ac 46 b9
       -0.00019213842 -0.00019272766 -0.00018956218 -0.00018947003
0003e0 c7 ec 46 b9 50 75 49 b9 69 85 4a b9 30 fa 49 b9
       -0.00018970958 -0.00019212556 -0.0001931392 -0.00019262056
0003f0 39 c3 40 39 23 c4 40 39 8c 61 40 39 f9 d9 41 39
       0.00018383273 0.00018383613 0.00018346886 0.00018487115

bias f4 [32]
000000 f0 8f a8 36 14 47 40 13 ba d2 65 b2 fa b8 34 3b
       5.0235467e-06 2.4268851e-27 -1.3377468e-08 0.0027576075
000010 8a d5 90 b2 41 44 a2 3b 5a 87 0c 33 2b 09 21 9e
       -1.6860913e-08 0.004951984 3.271939e-08 -8.525165e-21
000020 ea 11 03 3c a9 15 33 b9 90 23 1a 33 8e eb ac 3b
       0.0079998765 -0.0001707884 3.5888263e-08 0.0052771037
000030 0d 14 d4 1d 55 25 39 b4 66 a3 78 1e 01 00 00 80
       5.6136665e-21 -1.7243049e-07 1.3162801e-20 -1e-45
000040 8c 9d f6 3b f7 ab 7a 3b 56 06 01 3c ec 97 bb 35
       0.0075261053 0.0038249472 0.007875046 1.3976801e-06
000050 a5 94 1b 33 a9 6c 9a 3b 9b 39 11 31 23 e2 a2 3b
       3.622394e-08 0.0047126603 2.1133022e-09 0.0049708053
000060 df cf 4d 19 23 12 a4 3b 02 86 fa 3b 38 08 30 32
       1.0640231e-23 0.005007045 0.0076453695 1.0246417e-08
000070 25 e8 98 b3 c4 74 ff 33 c5 cd 35 3b 50 97 ff 3b
       -7.1202784e-08 1.18956024e-07 0.0027741056 0.0078000203

weight f4 [3, 32]
000000 e0 b7 3a 3d f5 ec 50 3d 77 67 21 3d 1b be 06 3d
       0.045585513 0.05100723 0.039405312 0.032896142
000010 e1 ec 1e 3d 42 c3 57 3d f1 46 23 3d ca 11 89 3d
       0.038800124 0.052676447 0.039862577 0.06692846
000020 3b cb 12 3e 4c 30 fe 3d 71 c9 2a 3d e2 f9 5e 3d
       0.14335339 0.12411556 0.041696016 0.054437526
000030 a0 dc 6f 3d 8b 95 32 3d f2 1e 67 3d 8d 26 3b 3d
       0.058560014 0.043599647 0.056425996 0.04569106
000040 f2 13 a1 3d f3 2c 36 3d 30 f1 15 3e 95 db 5e 3d
       0.078651324 0.04447646 0.14642787 0.05440863
000050 ce 76 2f 3d d0 ee 53 3d 1c 6a 41 3d 46 b5 58 3d
       0.04283791 0.05174142 0.047220334 0.05290725
000060 8a 91 e1 3d 9d 6c 6c 3d ba 1c a3 3d 81 e6 25 3d
       0.110140875 0.05772077 0.079644635 0.04050303
000070 a3 22 3c 3d 17 16 5a 3d 3d 0b 0b 3d 68 5d 0e 3e
       0.04593147 0.053243723 0.033946265 0.13902819
000080 7b d3 ad 3c 11 6f 38 3c 1d 5d 91 bc cc 21 79 bc
       0.021219006 0.011256949 -0.017744595 -0.015205812
000090 9a 3a 8e bc e3 67 0a bd 48 18 c6 bc b5 62 1e bd
       -0.017361928 -0.03379048 -0.0241815 -0.038668353
0000a0 3b e4 c6 bd c1 cc f2 bd 6a c5 b4 bc a2 3f 13 bd
       -0.097115 -0.1185546 -0.02206679 -0.035949357
0000b0 32 7e f5 bc 78 90 9a bc a9 db b1 bc ad 61 4b bd
       -0.029967401 -0.018867716 -0.021711187 -0.049653698
0000c0 91 a0 c7 bc e2 0d 15 bd 05 b5 c6 bd 18 41 bc bc
       -0.024368556 -0.036390193 -0.097024955 -0.022980258
0000d0 c8 b9 df bc a0 3e 1c bd e2 17 06 bd 6d bf 80 bb
       -0.027310267 -0.03814566 -0.03273762 -0.0039290697
0000e0 0e f5 0c be 92 b2 1e bd 50 a8 c1 3c e9 2c 96 bc
       -0.13765356 -0.038744517 0.023639828 -0.018331962
0000f0 e7 f5 c2 bc 5b 1a ee bc 5c 06 88 bc 02 d9 d2 bd
       -0.023798896 -0.029065302 -0.016604595 -0.10295297
000100 f7 eb b0 bd 21 0d 90 bd 3d c2 36 bd 67 45 a6 bc
       -0.08638757 -0.07033754 -0.044618834 -0.020296765
000110 09 b4 37 bd 97 bd 11 bd 83 38 26 bd fa 20 4e bd
       -0.04484943 -0.035581198 -0.040581238 -0.050324418
000120 4c 4e ad bd 22 3c 0e bd 98 1c 31 bd ee c4 1a bd
       -0.084621996 -0.034725316 -0.04324016 -0.037785463
000130 92 ee 39 bd 2f 68 55 bd 2f 4a 41 bd 58 ea 96 bc
       -0.045393534 -0.05210131 -0.047189888 -0.01842229
000140 78 7b bb bd 87 40 e0 bc f0 74 b4 bd 6b 58 91 bd
       -0.09154409 -0.027374519 -0.088113666 -0.070969425
000150 79 a7 2a bd 0e 4a 1d bd b4 5c 44 bd 83 89 61 bd
       -0.04166362 -0.038400702 -0.04793997 -0.055062782
000160 fc da 49 ba 38 03 0e bd 25 82 02 be 67 4f 40 bd
       -0.0007700173 -0.03467104 -0.12744959 -0.046950724
000170 36 ba 18 bd ba 78 50 bd 66 9b b6 bc 49 ca 98 bd
       -0.03728696 -0.050896384 -0.022290897 -0.07460458

bias f4 [3]
000000 42 12 83 3c 14 b3 13 3b 49 13 91 bc
       0.015999917 0.0022537159 -0.017709391
