trained_models/model.pt (torch, 42135 bytes, 6 tensors)

weight f4 [8, 3, 3, 3]
0	0x3d20fa66	0.0393013
1	0xbbee52ea	-0.0072730677
2	0x3e425f3f	0.18981646
3	0x3d2c3fc7	0.04205301
4	0x3d5ba179	0.05362079
5	0x3e112d80	0.14177513
6	0x3e26a051	0.16272093
7	0xbdda5504	-0.10660747
8	0x3e35d5f0	0.17757392
9	0xbdd356ee	-0.10319315
10	0xbcad794d	-0.021176005
11	0x3e2f2573	0.1710413
12	0x3e286f55	0.1644872
13	0x3e02d64f	0.12777065
14	0xbdb5cef0	-0.08877361
15	0xbe346c1a	-0.17619362
16	0xbe1028e9	-0.14078106
17	0xbe2421f4	-0.16028577
18	0xbdfe9ba5	-0.124320306
19	0x3e1c9372	0.15290621
20	0x3de96f00	0.11398125
21	0xbb71bfb7	-0.0036887953
22	0x3cf95994	0.030438222
23	0xbe0da9c1	-0.13834287
24	0x3e0611be	0.13092706
25	0xbd8d03fe	-0.06885527
26	0x3d32dc16	0.04366692
27	0x3db04637	0.086071424
28	0x3ca66273	0.020310616
29	0x3e39807c	0.18115419
30	0x3ca28849	0.019840376
31	0xbd7739f4	-0.060358003
32	0x3e1f4d92	0.15556934
33	0xbccec79c	-0.025241666
34	0x3cc82839	0.024433242
35	0xbdeaea83	-0.11470511
36	0xbdc95944	-0.09831479
37	0xbe400a60	-0.18753958
38	0xba01fb64	-0.00049584196
39	0xbe2b9547	-0.16756164
40	0x3d7b5b65	0.061366457
41	0x3b8f0db6	0.004365648
42	0x3dcff7bb	0.10154673
43	0xbdc42e39	-0.09579129
44	0xbdfd6032	-0.123718634
45	0xbd8f9cab	-0.07012304
46	0xbe3d4756	-0.18484244
47	0xbe2bf962	-0.1679435
48	0xbd3f99b5	-0.046777446
49	0x3e2fd01f	0.17169236
50	0xbd85f1d2	-0.06540264
51	0x3e15dc44	0.14634806
52	0x3d4eea84	0.05051662
53	0x3db9443e	0.09046219
54	0x3d54d544	0.0519612
55	0xbd97476b	-0.07386669
56	0xbd966715	-0.0734388
57	0x3e17a9f2	0.14810923
58	0x3c47d469	0.012196639
59	0x3e28db43	0.16489892
60	0xbe276289	-0.16346182
61	0x3d01bb60	0.031672835
62	0xbce901dc	-0.02844327
63	0xbb2197eb	-0.00246572
64	0x3dfdc918	0.12391871
65	0xbdbc0b4f	-0.091818444
66	0x3d494c19	0.049144838
67	0x3c86458f	0.01639059
68	0x3e045c9f	0.12925957
69	0x3e07e9dd	0.13272806
70	0x3e21e823	0.1581121
71	0xbe19e9d7	-0.15030609
72	0x3d8ffdfd	0.07030866
73	0xbcdff055	-0.027336279
74	0x3cea1aa4	0.028577156
75	0x3c9382c0	0.018006682
76	0xbe068935	-0.13138278
77	0x3e063154	0.13104755
78	0x3d2bf5ed	0.04198258
79	0xbe2aac84	-0.16667372
80	0xbe249bd9	-0.16075076
81	0xbe35678c	-0.17715281
82	0xbdc2156b	-0.094767414
83	0xbe3c71ae	-0.1840274
84	0xbe40f385	-0.18842895
85	0x3c405238	0.0117383525
86	0xbde02679	-0.10944838
87	0xbd6136a2	-0.054983743
88	0xbe3cdc32	-0.18443373
89	0x3ce8d2c1	0.028420808
90	0x3d4d7c36	0.050167285
91	0xbda4e569	-0.08051569
92	0xbe3021e2	-0.17200425
93	0xbe44ef5d	-0.19231935
94	0x3e00bb3a	0.12571421
95	0x3d2c5c42	0.04208017
96	0xbd8e6629	-0.06953079
97	0x3ddcbd2e	0.10778271
98	0xbd3555cd	-0.04427128
99	0x3db5eb71	0.088827975
100	0xbd57d1c0	-0.052690268
101	0xbe1fc6c2	-0.15603164
102	0xbbf7dbf3	-0.007564062
103	0x3dcab92d	0.09898601
104	0xbe298e61	-0.1655822
105	0x3e0478f9	0.12936772
106	0xbe2ed509	-0.17073454
107	0x3db26da2	0.08712317
108	0x3dc03ac6	0.0938621
109	0x3d8883f9	0.06665797
110	0x3dddb66a	0.10825808
111	0xbd0b34fe	-0.033986084
112	0xbd93e9ea	-0.0722235
113	0x3cbdd112	0.023170982
114	0x3d61a6d4	0.05509074
115	0xbd27c548	-0.040959626
116	0xbdcef6d2	-0.10105671
117	0x3db2ab0c	0.08724031
118	0xbd8cdb6f	-0.06877791
119	0xbdbbc529	-0.09168465
120	0x3c01000d	0.007873547
121	0x3e346663	0.17617182
122	0x3d66b23e	0.05632233
123	0x3cb9df7a	0.02268957
124	0x3da02719	0.07819957
125	0xbe3a5a6e	-0.18198559
126	0x3ca88322	0.020570341
127	0x3e1feefe	0.15618512
128	0xbe3b9942	-0.18320182
129	0x3e367261	0.1781707
130	0x3b1eb04a	0.0024213963
131	0x3cfa0a58	0.03052251
132	0xbc9d4946	-0.019199979
133	0xbe35dbb4	-0.17759591
134	0xbd95d19f	-0.07315373
135	0x3e402175	0.18762763
136	0x3d23f4d6	0.040028416
137	0x3dc36ba4	0.09542015
138	0x3e441e50	0.19152188
139	0x3d884ba6	0.06655054
140	0x3d043ca5	0.032284398
141	0xbca27022	-0.01982886
142	0xbe3d4b0f	-0.18485664
143	0xbd9bd2ff	-0.07608604
144	0xbe0755d4	-0.13216335
145	0x3cad4706	0.02115203
146	0x3e0e485c	0.1389479
147	0x3d275070	0.040848196
148	0xbe4025e8	-0.1876446
149	0xbda21b37	-0.07915347
150	0xbd493087	-0.049118545
151	0xbdb36087	-0.087586455
152	0xbd11b438	-0.03557226
153	0xbe25e58e	-0.1620085
154	0x3e284d84	0.1643582
155	0xbce4848c	-0.027895235
156	0x3e26f8b0	0.16305804
157	0x3e3d65be	0.18495843
158	0x3e3f6ff8	0.18695056
159	0xbd9428f7	-0.07234376
160	0x3d855aa3	0.06511428
161	0x3d10d133	0.035355758
162	0x3d39b55b	0.04533897
163	0xbc88c394	-0.016694821
164	0x3e3dbb29	0.18528427
165	0x3d8a5744	0.06754926
166	0xbde3edd8	-0.111293495
167	0xbe3ea629	-0.18618073
168	0x3db11395	0.08646313
169	0xbdd711c2	-0.10501434
170	0x3de12a0d	0.10994349
171	0xbdc7e4d1	-0.0976044
172	0x3e079c80	0.13243294
173	0xbd213325	-0.039355416
174	0x3dfb0761	0.12257267
175	0x3d1d3e79	0.038389657
176	0x3e0146ce	0.12624666
177	0x3c83240d	0.016008401
178	0x3c7e8d87	0.015536672
179	0x3e3c801a	0.18408242
180	0x3e38fb01	0.180645
181	0x3e133e77	0.14379297
182	0xbe2a186b	-0.16610877
183	0x3d1fa855	0.038978893
184	0xbbd23202	-0.006414653
185	0xbe22d26c	-0.15900582
186	0xbe074425	-0.13209589
187	0x3da7b094	0.081879765
188	0xbe0b5bbe	-0.13609216
189	0x3e19229d	0.1495461
190	0x3d84d1b9	0.06485314
191	0x3e2e6b13	0.17033033
192	0x3dcd87bf	0.10035657
193	0x3c462d68	0.012095787
194	0xbe04130c	-0.12897891
195	0xbe06c160	-0.13159704
196	0x3e347404	0.17622381
197	0x3e203489	0.1564504
198	0xbdeb6c5e	-0.11495279
199	0x3d4d8d95	0.05018385
200	0x3e20e54d	0.15712471
201	0x3e15db2e	0.14634392
202	0xbd6c7805	-0.057731647
203	0xbdc594c1	-0.09647513
204	0x3e04f973	0.12985782
205	0x3d2b6540	0.041844606
206	0x3d1f74f3	0.03892989
207	0x3d3e7392	0.046496935
208	0xbd0292f8	-0.03187844
209	0x3d850d11	0.06496633
210	0xbcd83b49	-0.026395457
211	0xbd7a317c	-0.06108235
212	0x3e3bd666	0.18343505
213	0x3e3d40e8	0.18481791
214	0xbd9c7519	-0.07639522
215	0x3d1e9636	0.03871747

bias f4 [8]
0	0x41230c35	10.19048
1	0xc1210b94	-10.065327
2	0x4121ba2a	10.10795
3	0x412364b5	10.212087
4	0xc120b936	-10.0452175
5	0xc1219779	-10.099481
6	0x4120d97b	10.053096
7	0xc120c314	-10.0476265

weight f4 [32, 288]
0	0x411fb086	9.980597
1	0x411ff7d5	9.998006
2	0x411f4cf7	9.95629
3	0x41208e97	10.034812
4	0x411f81d6	9.969198
5	0x411f8794	9.9706
6	0x411f414a	9.95344
7	0x4120219a	10.0082035
8	0x4120342b	10.012736
9	0x412010a5	10.004064
10	0x4120e16f	10.0550375
11	0x4120c052	10.046953
12	0x411f9246	9.973211
13	0x41207064	10.027439
14	0x411f8ea7	9.972327
15	0x411fcc10	9.98732
16	0x411f7dc4	9.9682045
17	0x412021cc	10.008251
18	0x412037d1	10.013627
19	0x4120d19f	10.051177
20	0x411fe015	9.992208
21	0x41201271	10.004502
22	0x411fb006	9.980474
23	0x411f56ef	9.958724
24	0x411f7127	9.965125
25	0x411f1f23	9.945102
26	0x4120610f	10.023696
27	0x41203f2d	10.015424
28	0x411ffd41	9.99933
29	0x411f77fb	9.966792
30	0x411f8ca5	9.971837
31	0x411f5f23	9.960727
32	0x411fffd5	9.999959
33	0x411f5f00	9.960693
34	0x411f2eed	9.9489565
35	0x41205b61	10.022309
36	0xc11fe342	-9.992983
37	0xc12013e8	-10.00486
38	0xc120a49d	-10.040189
39	0xc11fda18	-9.990746
40	0xc11f042a	-9.938517
41	0xc11f282a	-9.947306
42	0xc11f1fd8	-9.945274
43	0xc11f7a95	-9.967427
44	0xc11fa329	-9.977334
45	0xc11f6fea	-9.964823
46	0xc120798c	-10.029675
47	0xc11fdde4	-9.9916725
48	0xc1202335	-10.008595
49	0xc11f309a	-9.949366
50	0xc12005e8	-10.001442
51	0xc11f2f04	-9.948978
52	0xc120a8a0	-10.041168
53	0xc1204582	-10.01697
54	0xc120c49c	-10.048
55	0xc11fcc17	-9.987327
56	0xc1208225	-10.031774
57	0xc1206c5c	-10.026455
58	0xc1205d56	-10.022787
59	0xc1206337	-10.024222
60	0xc11f34b2	-9.950365
61	0xc1208ddf	-10.0346365
62	0xc120c684	-10.048466
63	0xc11f73b6	-9.96575
64	0xc1206f9c	-10.027248
65	0xc11f0d33	-9.940722
66	0xc11f4e1e	-9.956572
67	0xc1209da2	-10.038485
68	0xc11f4c9f	-9.956206
69	0xc11f46fa	-9.954828
70	0xc11faf30	-9.98027
71	0xc1200737	-10.001761
72	0x411fbd58	9.9837265
73	0x4120986c	10.037212
74	0x411f1853	9.943439
75	0x411fc55a	9.985682
76	0x411f8809	9.970712
77	0x41200ea6	10.003576
78	0x411fc4f7	9.985587
79	0x411ff283	9.996707
80	0x411f4cf6	9.956289
81	0x4120273d	10.00958
82	0x411f743d	9.9658785
83	0x4120b7d9	10.044885
84	0x411fce36	9.987844
85	0x411f52bb	9.957698
86	0x4120d440	10.051819
87	0x4120cbbb	10.049739
88	0x411fe05d	9.992276
89	0x411fc65e	9.9859295
90	0x4120ab34	10.041798
91	0x41200166	10.000341
92	0x41207831	10.029344
93	0x411fc9d1	9.986772
94	0x411f6da4	9.964268
95	0x412063ba	10.024347
96	0x411f63f8	9.961906
97	0x411f0b15	9.940206
98	0x41204c12	10.018572
99	0x411efd39	9.936822
100	0x41205613	10.021014
101	0x411f40c6	9.953314
102	0x412086b1	10.032884
103	0x412028d7	10.009971
104	0x411fc42a	9.985392
105	0x411f0773	9.939319
106	0x4120491d	10.01785
107	0x41202488	10.008919
108	0x41206a5c	10.025967
109	0x411f0650	9.939041
110	0x411f65b4	9.96233
111	0x4120e2a8	10.055336
112	0x41209faa	10.0389805
113	0x41207641	10.028871
114	0x411f484c	9.955151
115	0x4120a9cb	10.041453
116	0x411f9df0	9.976059
117	0x41205259	10.020104
118	0x41208cb6	10.034353
119	0x41207d2a	10.030558
120	0x4120811a	10.031519
121	0x4120a7c8	10.040962
122	0x4120aa06	10.04151
123	0x411f14af	9.94255
124	0x4120aa0d	10.041516
125	0x411f677f	9.962768
126	0x411f37fd	9.951169
127	0x4120dc4b	10.053782
128	0x411fe6ed	9.993878
129	0x4120c0e4	10.047092
130	0x411ffef0	9.999741
131	0x411fffda	9.999964
132	0x4120abd3	10.041949
133	0x4120ba1d	10.045438
134	0x4120d8c2	10.052919
135	0x41209278	10.035759
136	0x411ff478	9.997185
137	0x411f5deb	9.960429
138	0x41203798	10.013573
139	0x411f7dad	9.968183
140	0x411f54e1	9.958222
141	0x41200c3f	10.00299
142	0x411fabc5	9.979436
143	0x411fb63b	9.98199
144	0xc1205367	-10.020362
145	0xc1209109	-10.035409
146	0xc1202efe	-10.011473
147	0xc11f40a4	-9.953281
148	0xc11fdf69	-9.9920435
149	0xc1208b77	-10.034049
150	0xc11fcd23	-9.987582
151	0xc120b140	-10.043274
152	0xc120663b	-10.024959
153	0xc1203f00	-10.015381
154	0xc11f28d5	-9.947469
155	0xc11f6592	-9.962297
156	0xc1206a58	-10.025963
157	0xc11fc60a	-9.985849
158	0xc11feee1	-9.99582
159	0xc12089b0	-10.033615
160	0xc11fc406	-9.985357
161	0xc11f963f	-9.974181
162	0xc11f44fc	-9.954342
163	0xc11f24d9	-9.946496
164	0xc1205bd8	-10.022423
165	0xc1203f8f	-10.015517
166	0xc120a760	-10.040863
167	0xc1204fe8	-10.019508
168	0xc1209026	-10.0351925
169	0xc120b086	-10.043097
170	0xc120a8c8	-10.041206
171	0xc1206e08	-10.026863
172	0xc1203be5	-10.014623
173	0xc12062d9	-10.024133
174	0xc1202409	-10.008798
175	0xc120ccc9	-10.049996
176	0xc12025d0	-10.009232
177	0xc11f2334	-9.9460945
178	0xc12069e8	-10.025856
179	0xc11f2fba	-9.949152
180	0xc11f1d8d	-9.944715
181	0xc1200adf	-10.002654
182	0xc120047e	-10.001097
183	0xc120b1de	-10.043425
184	0xc1204393	-10.016498
185	0xc120ca33	-10.049365
186	0xc120afeb	-10.042949
187	0xc120076b	-10.001811
188	0xc11f0f67	-9.94126
189	0xc120a8a5	-10.041173
190	0xc120a515	-10.040303
191	0xc11fd456	-9.98934
192	0xc1202925	-10.010045
193	0xc11f0428	-9.938515
194	0xc11fc22a	-9.984903
195	0xc11fb817	-9.982444
196	0xc1206f90	-10.027237
197	0xc11f6452	-9.961992
198	0xc11f9d65	-9.975926
199	0xc11f10c2	-9.941591
200	0xc11f2945	-9.947576
201	0xc11fcba3	-9.987216
202	0xc11f7b61	-9.967622
203	0xc1209703	-10.036868
204	0xc1202791	-10.00966
205	0xc11f36fb	-9.950923
206	0xc11f8ebf	-9.97235
207	0xc1201acd	-10.006543
208	0xc120015b	-10.000331
209	0xc120c14d	-10.047193
210	0xc11f8b19	-9.971459
211	0xc120bb94	-10.045795
212	0xc11f2106	-9.945562
213	0xc11f40b6	-9.953299
214	0xc1209a74	-10.037708
215	0xc120cd07	-10.0500555
216	0x411f9118	9.972923
217	0x41207382	10.0282
218	0x411fc450	9.985428
219	0x41205caa	10.022623
220	0x41206375	10.0242815
221	0x41207eee	10.030989
222	0x41207498	10.028465
223	0x411fd625	9.989781
224	0x411f597b	9.959346
225	0x41208edd	10.034879
226	0x41208fb2	10.035082
227	0x412024bc	10.008968
228	0x411fbaf1	9.98314
229	0x41207388	10.028206
230	0x41205451	10.020585
231	0x4120c05e	10.046965
232	0x412072cd	10.028028
233	0x411fd041	9.988343
234	0x411f666a	9.962503
235	0x411fe39d	9.99307
236	0x411fee67	9.995704
237	0x412039ef	10.014144
238	0x411f6aec	9.963604
239	0x41208eb5	10.034841
240	0x411f6bad	9.963788
241	0x4120199b	10.006251
242	0x411f5b2e	9.959761
243	0x411f36c3	9.95087
244	0x41207a28	10.029823
245	0x411f6cad	9.964032
246	0x412071fc	10.027828
247	0x412090fa	10.035395
248	0x411fa1b7	9.976981
249	0x411fcaf9	9.987054
250	0x412030db	10.011928
251	0x41205fa4	10.02335
252	0xc11fe73d	-9.993955
253	0xc11fa220	-9.977081
254	0xc11f1a8c	-9.943981
255	0xc11f2755	-9.947103

bias f4 [32]
0	0x41205c25	10.022496
1	0x41211fe0	10.070282
2	0x411f9486	9.973761
3	0xc1210017	-10.062522
4	0xc11f888e	-9.970839
5	0x411f71a9	9.965249
6	0xc1214ada	-10.080774
7	0xc11fc105	-9.984624
8	0xc121275b	-10.072108
9	0x411fda3e	9.990782
10	0x412030a5	10.011876
11	0x41204ccd	10.01875
12	0xc11f7d49	-9.968087
13	0x412071fc	10.027828
14	0xc12043a6	-10.016516
15	0xc1212ef2	-10.073961
16	0xc12075a1	-10.028718
17	0xc120e834	-10.05669
18	0xc12130e7	-10.074439
19	0xc121350f	-10.075454
20	0x41209178	10.035515
21	0xc11f8ea7	-9.972327
22	0x411f9efc	9.976315
23	0x4120c192	10.047258
24	0x411f7ca5	9.967931
25	0xc1213f26	-10.077917
26	0xc120c19a	-10.047266
27	0x41213c96	10.0772915
28	0xc120ea81	-10.057252
29	0x4120345f	10.012786
30	0x412020a9	10.007974
31	0xc120e14f	-10.055007

weight f4 [3, 32]
0	0x411f0722	9.939241
1	0x4121ca41	10.111878
2	0x41206fbb	10.027278
3	0xc12316bb	-10.193049
4	0xc1215bd2	-10.084917
5	0x41221b78	10.131706
6	0xc12310cc	-10.191601
7	0xc121470a	-10.0798435
8	0xc120a743	-10.040835
9	0x4122d25b	10.176356
10	0x41208887	10.033332
11	0x4122c64a	10.17341
12	0xc120c199	-10.047265
13	0x41215da0	10.085358
14	0xc121ed59	-10.120446
15	0xc12136b2	-10.075853
16	0xc122d3b4	-10.176685
17	0xc120e316	-10.055441
18	0xc121124a	-10.066965
19	0xc120b53e	-10.044249
20	0x41222a35	10.135304
21	0xc120e432	-10.055712
22	0x4121cb2a	10.112101
23	0x4121e349	10.11799
24	0x412220cc	10.133007
25	0xc12167f9	-10.087884
26	0xc121068d	-10.064099
27	0x4120d1b7	10.0512
28	0xc12334f5	-10.200429
29	0x41222cbd	10.135922
30	0x41219c8d	10.10072
31	0xc120f3d6	-10.05953
32	0xc121a50a	-10.102793
33	0xc122c0c2	-10.17206
34	0xc1209105	-10.035405
35	0x4122c024	10.171909
36	0x4122b08a	10.1681
37	0xc12322c9	-10.195992
38	0x41227379	10.153192
39	0x41205c4f	10.022536
40	0x412339ec	10.201641
41	0xc1209570	-10.036484
42	0xc122adf1	-10.167466
43	0xc121ddc4	-10.116642
44	0x41201812	10.005877
45	0xc1208c3e	-10.034239
46	0x411f6b5d	9.963712
47	0x4120ed58	10.057945
48	0x41222a0a	10.135263
49	0x411dac52	9.85457
50	0x411f7216	9.965353
51	0x41203912	10.013933
52	0xc11fda7b	-9.99084
53	0x41218bee	10.0966625
54	0xc11f7f29	-9.968545
55	0xc1204783	-10.017459
56	0xc11efe2e	-9.937056
57	0x411f25dd	9.946744
58	0x4122d46a	10.176859
59	0xc12329d2	-10.19771
60	0x41221ef9	10.132562
61	0xc12307f3	-10.189441
62	0xc1233aef	-10.201888
63	0x4122dfef	10.179671
64	0xc1212059	-10.070397
65	0xc11e7262	-9.9029255
66	0xc122d5d9	-10.177209
67	0x4121377b	10.076045
68	0x412101eb	10.062968
69	0xc11f4360	-9.953949
70	0x41209c59	10.038171
71	0x41218527	10.095008
72	0x412268bd	10.150571
73	0xc1205b8d	-10.022351
74	0xc120a722	-10.040804
75	0xc122b639	-10.169488
76	0x41233b02	10.201906
77	0xc11f1eb1	-9.944993
78	0x41207b11	10.0300455
79	0x41204e0e	10.019056
80	0x411e6e37	9.901908
81	0x412274ac	10.153484
82	0x4122a40a	10.165049
83	0x4121ab03	10.104251
84	0xc1226033	-10.148486
85	0x4122fd80	10.18689
86	0xc11fcab5	-9.986989
87	0xc1228191	-10.156632
88	0xc11fa34a	-9.9773655
89	0x4121bda3	10.108798
90	0x41222016	10.1328335
91	0xc1224b62	-10.143404
92	0x4120dc2d	10.053754
93	0xc11ffdf7	-9.999503
94	0xc1201cb1	-10.007005
95	0x41205711	10.021256

bias f4 [3]
0	0x411e225f	9.883391
1	0xc122a939	-10.166314
2	0xc12094a2	-10.036287
