trained_models/model.pt (torch, 45162 bytes, 10 tensors)

weight f4 [8, 3, 3, 3]
000000 0c 00 00 00 2a 00 00 80 46 00 00 00 36 00 00 80
       1.7e-44 -5.9e-44 9.8e-44 -7.6e-44
000010 0b 00 00 00 16 00 00 00 69 00 00 80 05 cb 9a ae
       1.5e-44 3.1e-44 -1.47e-43 -7.039173e-11
000020 17 00 00 00 77 ee ab bc 4c 70 46 bc aa bd 7a 3b
       3.2e-44 -0.020987732 -0.012111735 0.0038260021
000030 23 05 26 3a 1a 3f 9b 3b f2 0d 45 3c 59 b2 5a ba
       0.0006333163 0.004737747 0.012027251 -0.0008342616
000040 c5 57 4c 3d ea ed 18 3b e8 dd b7 3c ab 18 67 ba
       0.04988839 0.0023335167 0.02244468 -0.00088156265
000050 6b 06 b3 3b da 7d 1c bc 85 77 13 bd 24 18 90 3a
       0.0054634116 -0.00955149 -0.036002655 0.0010993523
000060 00 c4 02 3c af 1a 7b 3d 93 ff 04 bd 83 ca 32 33
       0.0079813 0.061304744 -0.032470297 4.1628038e-08
000070 36 00 00 00 03 00 00 00 02 00 00 00 46 00 00 80
       7.6e-44 4e-45 3e-45 -9.8e-44
000080 4c 00 00 80 17 00 00 80 14 00 00 00 1e 00 00 80
       -1.06e-43 -3.2e-44 2.8e-44 -4.2e-44
000090 7f 60 17 3d df 6a 65 bc ce d5 8b bc 59 16 d2 3c
       0.03695726 -0.014002531 -0.017069723 0.025645422
0000a0 e0 5f 98 bb 06 6b 80 3c 19 0a b5 bb 8a 35 58 bb
       -0.004650101 0.015676033 -0.0055248854 -0.0032990896
0000b0 5c 3d cc 3b 0f 9e 07 3d 95 96 73 3c 0c 3f 88 3a
       0.0062329005 0.03310972 0.0148674445 0.0010394766
0000c0 cd b7 ab 3c 87 af 93 bc a3 0e fe 3c 2f 16 02 bc
       0.020961666 -0.018028034 0.031012839 -0.007939859
0000d0 47 3d 24 bd 39 83 00 3d 12 00 00 80 23 00 00 80
       -0.0400975 0.031375144 -2.5e-44 -4.9e-44
0000e0 1d 00 00 80 32 00 00 00 f5 92 db 2b 09 00 00 00
       -4e-44 7e-44 1.5601675e-12 1.3e-44
0000f0 04 ba 2b 29 30 00 00 80 0c 00 00 80 c3 26 35 3a
       3.813097e-14 -6.7e-44 -1.7e-44 0.0006910378
000100 3f f3 03 3b ff 0e aa 3a 75 c1 37 3b 80 4d ec bb
       0.0020134 0.001297444 0.0028038893 -0.007211387
000110 71 ed 51 3b 34 44 2b 3b 64 bd 15 3b 2a 29 62 3a
       0.0032032395 0.0026133182 0.0022848481 0.000862735
000120 e3 a5 21 bd 61 54 17 bd e3 11 25 bd fc fd 14 3d
       -0.039464843 -0.036945704 -0.04030026 0.03637503
000130 24 d1 bd bc e0 52 42 bd d9 c9 67 bd 7b 06 7f bd
       -0.023171015 -0.047442317 -0.05658898 -0.06226204
000140 f7 f7 24 3d 19 00 00 80 5b 00 00 80 15 00 00 00
       0.04027554 -3.5e-44 -1.28e-43 3e-44
000150 05 00 00 80 10 00 00 00 9c 00 00 80 00 01 00 80
       -7e-45 2.2e-44 -2.19e-43 -3.59e-43
000160 4e 00 00 80 15 00 00 80 9b 5d 91 bc c1 1a b7 bc
       -1.1e-43 -3e-44 -0.01774483 -0.022351624
000170 2d 2f c9 3a 0c 7d bf 3c ac ca 40 bc 38 bb 25 bb
       0.0015349142 0.023375057 -0.011767071 -0.0025288593
000180 a6 03 9f ba 3f d9 19 3c 39 c0 8d 3c cd d2 bf 3c
       -0.0012131825 0.009390174 0.017303573 0.023415947
000190 c4 6f d2 bb 52 2e c0 bb c7 70 23 3c f2 81 49 bc
       -0.006422015 -0.005864897 0.009975619 -0.012299048
0001a0 0d f6 d2 bc e3 fb 21 bd 61 9d 46 3c 90 74 5b 3d
       -0.025752092 -0.03954686 0.012122483 0.05357796
0001b0 be 00 00 80 54 00 00 00 20 00 00 80 28 00 00 00
       -2.66e-43 1.18e-43 -4.5e-44 5.6e-44
0001c0 30 00 00 00 02 00 00 00 27 00 00 00 36 00 00 80
       6.7e-44 3e-45 5.5e-44 -7.6e-44
0001d0 33 00 00 00 48 31 80 bc a1 b2 9b bc b2 1d 76 bc
       7.1e-44 -0.0156485 -0.019006075 -0.015021728
0001e0 75 3c bc 3c b9 ac 12 bc 84 48 15 bc bf ba 89 bb
       0.022978047 -0.008952313 -0.009111527 -0.00420317
0001f0 59 0d 67 3b e9 06 21 3d ea ea fa 3b ed aa 8d bb
       0.0035255759 0.03931323 0.0076573985 -0.0043233545
000200 dd f9 98 ba ae 9a 60 3b 4d 9e 90 bc 23 3b 82 bc
       -0.0011671145 0.0034271884 -0.017653609 -0.01589734
000210 e8 3c c8 ba 84 97 fe bc 19 94 8c 3d 1a 00 00 80
       -0.001527694 -0.031078108 0.06864185 -3.6e-44
000220 1c 00 00 00 0e 00 00 80 0f 00 00 00 28 00 00 80
       3.9e-44 -2e-44 2.1e-44 -5.6e-44
000230 1b 00 00 80 45 d7 43 35 00 00 00 00 6e 05 bb af
       -3.8e-44 7.295642e-07 0.0 -3.401896e-10
000240 74 74 23 bc e3 d8 67 3a 33 2f 80 3c 36 b8 e9 bb
       -0.009976495 0.00088442693 0.015647506 -0.0071325554
000250 f1 09 b4 bb 62 a1 6f 3c 02 f9 75 bc ff 9c e4 ba
       -0.005494349 0.014625879 -0.015012981 -0.0017441808
000260 46 cd b9 3c 49 37 39 bc d6 b3 87 bc 0d 92 79 3d
       0.02268089 -0.011304685 -0.016565245 0.0609303
000270 66 fe 28 3c 4c c4 2a bc 75 2c 86 bc e5 cf 1a bb
       0.01031456 -0.010422777 -0.01637862 -0.002362245
000280 a9 c4 41 3b 1b 94 9f bb 20 00 00 80 27 00 00 00
       0.0029566681 -0.0048699505 -4.5e-44 5.5e-44
000290 0c 00 00 00 16 00 00 80 35 00 00 80 06 00 00 00
       1.7e-44 -3.1e-44 -7.4e-44 8e-45
0002a0 86 00 00 00 57 00 00 80 3e 00 00 00 b5 0b 3d 3a
       1.88e-43 -1.22e-43 8.7e-44 0.00072115223
0002b0 c7 bb fc 3a 0a f4 b4 bb 5b 14 71 3a 11 80 06 3b
       0.0019282036 -0.005522256 0.00091964536 0.002052311
0002c0 2d 45 40 3b 10 90 81 3b 3c 1c 10 3b 19 8f 3d 39
       0.0029338107 0.003953941 0.0021989485 0.00018077753
0002d0 11 b8 38 bd 4c 2d 44 bd c9 8c 48 3d 5c 1c 88 ba
       -0.045097414 -0.04789476 0.04896239 -0.0010384428
0002e0 da 64 05 bd ea 94 58 bd 66 94 d6 bc 5c 34 bb bc
       -0.032566883 -0.05287639 -0.026193809 -0.022852115
0002f0 2d d8 3e bd 14 00 00 80 13 00 00 00 87 00 00 80
       -0.04659288 -2.8e-44 2.7e-44 -1.89e-43
000300 23 00 00 00 2f 00 00 00 0a 00 00 80 17 00 00 00
       4.9e-44 6.6e-44 -1.4e-44 3.2e-44
000310 14 00 00 00 13 00 00 80 22 c9 6f ba 26 49 90 ba
       2.8e-44 -2.7e-44 -0.00091470976 -0.0011008128
000320 1e cf 94 bb ec af 98 b9 2d d9 27 bc fc c3 96 3a
       -0.004541292 -0.0002912277 -0.01024465 0.00115025
000330 2a cc 5f 3b 6f 14 30 3b 21 f6 16 ba ad 19 12 bd
       0.003414879 0.0026867648 -0.0005758722 -0.035669018
000340 ce 46 6e bd 1b 7d 83 3d c7 d4 a3 3b 84 23 f7 3b
       -0.058172993 0.06420346 0.0049997303 0.0075420756
000350 84 65 66 bd 44 43 90 bc 47 99 8b bb 1f 04 37 bd
       -0.056249157 -0.0176102 -0.0042602154 -0.044681665

bias f4 [8]
000000 ce ea 1e b2 3f 39 b0 b1 f5 b8 b8 32 95 b3 ba 2e
       -9.250199e-09 -5.1287823e-09 2.1504528e-08 8.490201e-11
000010 38 82 38 37 4f 31 7d ac ca bd e7 32 0b 0f d4 32
       1.0997574e-05 -3.5980834e-12 2.6978245e-08 2.4686889e-08

weight f4 [8]
000000 b4 e2 2b 3f bf c4 1f 3f 98 ea 37 3f 6b 93 1b 3f
       0.67142797 0.62409586 0.71842337 0.60771817
000010 00 f6 49 3f 8a 9d 2f 3f e3 3f 3d 3f 5e 63 31 3f
       0.7889099 0.6859976 0.7392561 0.6929225

bias f4 [8]
000000 6f bf 75 bc ad 4d f3 35 ea cb 28 3e 7c 02 ad 3b
       -0.014999255 1.8127517e-06 0.16484037 0.005279837
000010 19 63 a4 3b e5 e7 c1 bb 71 a1 45 3e 4d 29 21 3e
       0.005016696 -0.0059175366 0.19299866 0.15738411

running_mean f4 [8]
000000 2a 05 c7 3d 8c cb 01 3f 29 39 00 c0 e4 db 53 3e
       0.09717782 0.5070121 -2.0034888 0.2068935
000010 e8 d0 6c 3e 99 a2 fa 3d 4f 3d 08 c0 db 67 ac bf
       0.23126566 0.12238044 -2.128742 -1.3469194

running_var f4 [8]
000000 a9 9d 85 40 50 52 65 40 46 74 96 41 f7 94 98 40
       4.1754956 3.583149 18.806774 4.768184
000010 bc 9f 8e 40 e6 a4 38 40 38 50 8f 41 e0 6b 3d 41
       4.456999 2.8850646 17.91417 11.838837

weight f4 [32, 288]
000000 a1 84 5e bc 96 3c 73 bc e5 15 ab bc b8 a9 94 bc
       -0.013581426 -0.014845988 -0.020884464 -0.018147334
000010 91 65 c7 bc 53 f6 9a bc 2b c2 92 bc 74 97 cc bb
       -0.024340423 -0.018916285 -0.017914852 -0.0062436406
000020 42 b0 d6 bc 77 69 4e bc 10 e8 0b bd 5e 3f 91 bc
       -0.026207093 -0.012598387 -0.03415686 -0.017730411
000030 34 02 57 bb dd c6 00 bc 36 66 9b bc dc 8b 0f bd
       -0.003280771 -0.007859913 -0.018969636 -0.03504549
000040 46 44 99 bc a8 e3 99 bc 31 fa ad bc 0a 4c 87 bc
       -0.018709313 -0.018785313 -0.021237465 -0.01651575
000050 68 3a 2b bc a2 34 bb bc 2f 43 10 bc dc f1 5b 3b
       -0.010450937 -0.022852246 -0.00880508 0.0033560907
000060 26 49 0f bd 1b 10 a7 ba c3 31 15 3c 22 ea 9b 3c
       -0.03498187 -0.0012745889 0.009106102 0.019032542
000070 97 02 34 bd 97 a3 8c bc bb 2b be bc 71 4d 05 bb
       -0.043947782 -0.01716785 -0.023214212 -0.0020340348
000080 66 86 30 3c 8f f5 f1 bc 33 93 22 bd 0a 30 75 bd
       0.010774231 -0.029536037 -0.03969116 -0.059860267
000090 8e 21 b3 bc ff 58 bf bc ae 49 5d bc 3b f7 0f bc
       -0.021866586 -0.023357866 -0.013506336 -0.008786972
0000a0 29 09 f3 3b c9 3c 6f 3c 1d b6 d3 bc 49 33 f0 bc
       0.0074168635 0.014601895 -0.025843674 -0.02932133
0000b0 f8 20 d2 bb 04 b6 45 bc 4e 70 6c 3c c9 60 27 bc
       -0.0064126216 -0.012067322 0.014431072 -0.0102159465
0000c0 3f d0 f1 bc 6a 90 fd bc f8 61 0d bd 1e 79 ae bb
       -0.029518245 -0.030952651 -0.03451726 -0.005324497
0000d0 6d bf 32 3c 24 fe 5b 3c 46 ff 90 bc 3a 8a bd bc
       0.010909897 0.013427291 -0.017699849 -0.0231372
0000e0 b2 46 b9 bc 67 59 5c bc 3d 07 0e 3c 88 b5 b7 3c
       -0.022616718 -0.01344905 0.008668718 0.022425428
0000f0 2e 74 4a b9 f3 a7 75 3b 0b 9e 3b 3c 28 39 86 bc
       -0.00019307501 0.0037484139 0.011451255 -0.016384676
000100 a3 1a a4 bb 34 a8 87 bc 1f f0 03 bc 5b be e1 3c
       -0.005008058 -0.016559698 -0.008052855 0.027556589
000110 f4 14 be bb 3d 4c e1 3b 5e 65 2e bd fb 67 ce bc
       -0.0058008377 0.0068755434 -0.04257714 -0.025196066
000120 07 be f4 3c 60 8d fe 3c b4 b1 55 3c 1b ef c7 3b
       0.029875768 0.031073272 0.013042856 0.0061015016
000130 47 e3 e1 3c c0 8e 80 3c 07 39 93 3c c6 43 5e 3c
       0.027574195 0.015693069 0.017971529 0.013565963
000140 e8 60 fb 3c e4 05 00 3d 9d aa d1 3c 7b ae 8d 3c
       0.030685857 0.031255618 0.02559405 0.017295113
000150 14 a8 9d 3c 0a 90 ce 3c 9e de 18 3d 4d 3e 0a 3d
       0.019245185 0.025215168 0.03732168 0.03375082
000160 4b 93 bb 3c 61 cc 1a 3d a5 e3 43 3c 8f e3 23 3c
       0.022897383 0.037792567 0.01195613 0.010002985
000170 65 b2 f5 3c c1 0e 21 3c 1a 13 e4 3c e6 73 0b 3d
       0.029992292 0.009830178 0.02784114 0.034046076
000180 97 62 b6 3c f8 a1 2a 3d b0 30 2a 3d 02 cf 17 bc
       0.022263808 0.04165837 0.04155034 -0.009265663
000190 47 20 a3 3b e8 50 c0 3c 59 70 1f 3d db c1 15 3d
       0.004978213 0.02347608 0.038925502 0.036561828
0001a0 51 ac a7 3c 7c 28 29 3c 88 86 10 3c 9f 3c cb 3c
       0.020467909 0.010324594 0.008821137 0.02480918
0001b0 61 9e 35 bc f6 59 ba bc 89 3e 45 bc bd aa 89 bc
       -0.011085124 -0.022747975 -0.012038835 -0.016805047
0001c0 12 20 e9 bb e3 63 37 ba 91 3e 8d bc 91 c2 b4 bc
       -0.007114419 -0.000699578 -0.017241748 -0.022065433
0001d0 f8 45 1f bc 28 92 81 bc 3c 9e 80 3b 44 d6 dd ba
       -0.009721272 -0.015816763 0.003925113 -0.0016924818
0001e0 f0 e0 2c bc 74 d2 8b bc 81 3e 30 bb ac 98 4f bc
       -0.010551676 -0.017068125 -0.0026892724 -0.012670677
0001f0 8e 43 5d 3c 1c 61 7c 3c 45 27 b8 bc ac 8d 08 bd
       0.013504876 0.015404012 -0.022479663 -0.033338234
000200 81 66 cb bc 84 23 4a bc c8 a5 36 3c 7e 14 c7 bb
       -0.024829151 -0.012337569 0.011147924 -0.006075441
000210 ff 0a 84 bc 8c 81 f2 3b f5 72 2a 3d 4d 10 88 bc
       -0.016118525 0.007400697 0.041613538 -0.016609335
000220 63 65 6b bc aa 8c 2c bc 3e 71 e9 bb b1 57 30 3c
       -0.014367434 -0.010531584 -0.007124095 0.010763095
000230 57 5b 0a 3c e0 66 3d 3c e9 79 8d bc b9 ca da bb
       0.008444629 0.011560172 -0.017270045 -0.0066769985
000240 4b 71 d9 bb 1a 91 aa bb d6 97 44 bc e6 57 a5 bc
       -0.00663582 -0.0052052857 -0.011999091 -0.020183515
000250 e9 e8 50 3c 44 ff c1 bc aa 54 82 bc f6 1a b3 bc
       0.012750843 -0.02368129 -0.015909512 -0.021863442
000260 7c 11 46 bc d6 84 a2 bc 08 0c c3 3c 14 42 83 bc
       -0.01208913 -0.019838732 0.023809448 -0.01602272
000270 fa df 1a bc cc 78 45 bc 19 54 80 bc e5 72 bd 3b
       -0.009452814 -0.012052726 -0.0156651 0.0057815188
000280 0a 14 da 3c 65 ea 4a 3d 08 8e d6 bc 45 9e b0 bc
       0.026620883 0.049539942 -0.026190773 -0.021559844
000290 2a bc 92 ba 24 c7 92 3b 61 4b c1 3c 7e 2a 7b 3c
       -0.0011194993 0.004479306 0.023595514 0.015329955
0002a0 cf 94 d5 bc 0f 98 a5 3c 2d 41 4e 3d 52 08 cd bb
       -0.026071934 0.020214109 0.050355125 -0.0062570954
0002b0 f5 09 e8 bb c7 9c 7f bb 77 30 2f 3c b5 1d df 3c
       -0.007081265 -0.0039003359 0.010692707 0.027235845
0002c0 4f 15 8c 3c 86 b6 23 bc bc df 14 bd 9c 94 19 bc
       0.017100004 -0.009992247 -0.036346182 -0.00937381
0002d0 82 b9 b3 bc 25 39 15 bc 14 da f6 3a f4 ed 8a 3b
       -0.021939043 -0.009107863 0.0018833303 0.004239792
0002e0 ed 6f 92 3b c6 97 13 3c b9 f8 df bc 1e e9 c1 bc
       0.004468909 0.009008354 -0.02734028 -0.02367073
0002f0 44 e3 44 bc 0e 44 58 3c 22 cc 0b 3d a3 c3 42 bd
       -0.012017075 0.013199819 0.034130223 -0.047549855
000300 6c 59 15 bb 79 fc 62 bb f1 b8 43 bc d7 99 ee bb
       -0.0022788895 -0.0034635349 -0.011945949 -0.0072815227
000310 cd f4 a8 3b f9 bd fb bc c4 80 06 3b 79 53 5f bc
       0.0051561357 -0.030730234 0.0020523528 -0.013630741
000320 88 9e 45 3b 0a 23 96 bc 0f 62 75 3c 3f c2 b3 3b
       0.0030154306 -0.018327255 0.014976992 0.0054858024
000330 e9 53 16 bc 71 ca 89 bc a2 02 8c bc 43 bb 95 bb
       -0.009175279 -0.016820164 -0.0170911 -0.0045694425
000340 4f 74 f7 3c e3 b6 2d 3d 7a d5 58 bc 60 ef 9f bc
       0.030206827 0.042410742 -0.0132344905 -0.019523323
000350 aa 69 48 3c 14 09 2c 3b 2e c9 ff 3c d2 34 2c bc
       0.0122322235 0.0026250528 0.03122386 -0.01051064
000360 80 72 7e 3c a5 88 b7 3c bf 4a 83 3c 19 79 27 3d
       0.015530229 0.022404024 0.016026853 0.040886972
000370 46 0c 13 3d 4c 35 2b 3d d5 01 58 3c 69 fd 81 3c
       0.035900377 0.041798875 0.013184031 0.015867906
000380 86 ef 87 3c f3 e3 1c 3d b9 59 21 3d 26 88 98 3c
       0.016593706 0.038303327 0.039392207 0.018619608
000390 e7 35 e0 3c 70 10 ca 3c 95 bb bf 3c cd 16 ca 3c
       0.027369453 0.024666041 0.023404876 0.024669075
0003a0 69 67 bb 3c 28 57 d4 3c fb 48 e9 3c 1a ac 9b 3c
       0.022876458 0.025920466 0.028477183 0.019002963
0003b0 49 c5 0c 3d 08 53 d3 3c 8d 61 1a 3d 7c 8a b3 3c
       0.034367833 0.025796428 0.037690688 0.02191662
0003c0 9e fc 38 3c 00 4e 1d 3c bc 80 9b 3c 6b 85 fe 3c
       0.011290697 0.009601116 0.018982284 0.031069478
0003d0 da a3 33 3d a7 ac 5a 3d bc 3e 3c 3c 12 25 8f 3c
       0.043857433 0.05338731 0.011489566 0.017473731
0003e0 12 f4 09 3d eb 6c 1f 3d 2d 70 5f 3d 10 b8 21 3d
       0.03368003 0.03892223 0.05455034 0.039482176
0003f0 61 3f 09 3c 01 ef 78 3c f4 d2 33 3c e9 0a e9 3c
       0.008376927 0.015193702 0.010975588 0.028447585

bias f4 [32]
000000 3f ad 32 3a 86 a3 a0 3a b5 ee 09 ba 01 c6 a6 39
       0.0006815977 0.0012255765 -0.00052617054 0.00031809512
000010 df 88 84 3a ff 6a 4d 39 7d ed b6 af cc de f3 39
       0.0010111592 0.00019590183 -3.3274353e-10 0.00046514568
000020 86 fa 83 39 c3 06 2e 3b 5b b7 52 b8 35 77 36 b8
       0.00025172922 0.0026554323 -5.0238665e-05 -4.35032e-05
000030 2c b6 15 3a 4d 64 6f 3a 2c 3a 68 3a a2 07 45 3a
       0.00057110447 0.00091320724 0.0008858766 0.0007516091
000040 01 90 4f 3a 58 c3 04 3b 5e a8 55 39 92 78 bc b9
       0.00079178816 0.0020258036 0.00020375985 -0.00035947986
000050 43 b5 7b b9 de bd bd 38 09 0a a6 39 4b e0 89 b9
       -0.0002400475 9.047588e-05 0.00031669464 -0.00026297788
000060 3b bb f6 16 c3 00 7a 3a 6c 2d 9f 32 18 84 6d ba
       3.9861603e-25 0.00095368567 1.8530692e-08 -0.0009060516
000070 b8 92 03 ba af 42 4d ba cb 35 82 3a e9 c9 f7 39
       -0.0005019116 -0.0007830066 0.0009934244 0.00047261946

weight f4 [10, 32]
000000 b2 9e b3 3d c9 52 49 3d 78 2c b2 3d 17 2e b0 3c
       0.08770503 0.049151216 0.08699888 0.021506352
000010 04 5b 5a 3e cb 8f 39 bc 71 01 c0 bc d8 6f e7 bd
       0.21323782 -0.011325787 -0.023438187 -0.113006294
000020 c8 6e a9 3c 91 f2 db 3d 67 79 0b 3e 5d dd af 3d
       0.020682707 0.10739625 0.1362053 0.085871436
000030 85 3d 99 3c 16 d6 df 3d dc 8b 72 3e e8 10 47 3e
       0.018706093 0.109295055 0.23686165 0.19440043
000040 ef 9a 40 3b a2 a1 77 3e b3 74 a3 bd c4 04 cb 3d
       0.0029389223 0.24182752 -0.07981243 0.09913018
000050 bd c0 6c bd 1b 05 2e be 4d cf d4 bd 6e 27 87 3d
       -0.057800997 -0.16994135 -0.10391102 0.065993175
000060 90 85 b8 bd 36 a2 45 3e f0 d3 8a bd a5 76 fd 3d
       -0.0900985 0.1930016 -0.06778705 0.12376145
000070 21 6b e0 3d 08 a1 d5 3d ff d8 92 bc 1b 27 02 be
       0.10957933 0.10431105 -0.017925737 -0.1271023
000080 28 ca 01 3e c7 16 ba bd 37 db de 3d fd ad 4a bb
       0.12674773 -0.09086376 0.10881656 -0.003092646
000090 1b e0 ad bc 98 28 d4 bd b9 d0 9e 3d 1f d8 2f 3d
       -0.021225026 -0.10359305 0.077546544 0.04293072
0000a0 86 d8 aa bd dd 72 11 bc 3a a8 1c 3e cd ab c8 bc
       -0.0834208 -0.008877483 0.15298548 -0.024495983
0000b0 07 38 1c 3d a7 18 22 be 5f de f8 3c fa f3 5f bd
       0.03813937 -0.15829717 0.030379472 -0.054676034
0000c0 79 cd 03 be 80 87 90 bc 1f f6 0d 3e db 4c f0 bd
       -0.1287135 -0.017642736 0.13863419 -0.11733409
0000d0 5d 23 3d bc 6d 2c 3b bb 70 e8 e6 bc 2c 56 cd 3d
       -0.011544076 -0.0028560415 -0.028187007 0.100262016
0000e0 67 5e ba 3d f8 b9 12 3d 85 85 84 3d 6c 4f 7f 3a
       0.09100037 0.035821885 0.06470779 0.0009739313
0000f0 c3 1e 06 3e f1 46 ff 3c 80 62 ea 3d 3e 1b 05 be
       0.13097672 0.031161757 0.11444569 -0.12998673
000100 7a 70 c5 3d 30 2b 62 3d e0 7d 3a bd fb 0d d8 3d
       0.09640594 0.055216968 -0.0455302 0.105495416
000110 60 22 1e 3b b8 29 21 3d 57 58 1b 3d 9c 8b 56 3d
       0.0024129376 0.039346427 0.037926044 0.052379236
000120 e9 bd 0c 3c 01 1e 21 3e 91 2b 47 bd df 94 b0 3a
       0.0085902 0.15734102 -0.048625533 0.0013472101
000130 a6 82 82 3d 20 87 98 3d dc 6a 8c bd 0e 9d bf ba
       0.063725755 0.07447648 -0.06856319 -0.001461895
000140 be 2e c5 3d 85 5d 8c 3d 14 fa 12 3e 61 29 1e bd
       0.09628056 0.06853775 0.1435321 -0.03861368
000150 4c ae 03 be a4 6e f1 bc 6d 31 c9 3b d6 04 e5 bd
       -0.12859458 -0.029471703 0.006139925 -0.11182563
000160 ca 58 88 bd 26 92 67 bd 88 ba 84 bd cb 5c 0f be
       -0.0665756 -0.056535862 -0.064808905 -0.14000241
000170 36 e9 0f bc 86 5d aa bd 18 c1 e2 3d 82 ae c3 3d
       -0.008783629 -0.083186194 0.11071986 0.09554769
000180 a7 ab fe bd 61 1a b6 bd a7 20 08 3e 8e 5e 16 bd
       -0.12435084 -0.0889175 0.13293706 -0.036711268
000190 13 f6 02 bd 9e d9 cc bd e6 fd 7b bd 0e e6 15 bd
       -0.031972956 -0.10002445 -0.061521433 -0.03659635
0001a0 7c 35 89 3d 56 35 42 bd 96 27 97 bd fe 4b 4b bb
       0.066996545 -0.047414146 -0.07380597 -0.0031020637
0001b0 cc 96 91 bd 65 30 d5 bd cb 7d af bd 83 5e fd bd
       -0.0710884 -0.10409621 -0.08568915 -0.12371542
0001c0 df 0f bb bd 4c 2b c8 bd f2 f9 23 bb 6b 60 90 3d
       -0.091338865 -0.09773883 -0.0025020805 0.0704964
0001d0 f4 d2 8c 3d 67 9d 4f bb 4e b8 09 3e d8 90 c5 3c
       0.068761736 -0.0031679512 0.13449213 0.024116918
0001e0 f6 ee 85 3b 5b 8a 29 bd 97 28 ec bc 98 92 e5 bc
       0.0040873243 -0.04139171 -0.028827948 -0.028024003
0001f0 56 e8 23 be 94 8e f6 bd 50 21 50 bd 98 4d ad bc
       -0.16006598 -0.12038913 -0.05081302 -0.021155164
000200 96 4c 99 bd 0e c4 b0 bd 04 c2 bf bd b8 2c 2b bd
       -0.07485311 -0.086311445 -0.093631774 -0.041790694
000210 54 11 94 bd cd 50 20 bb cd f6 fb bc 95 9e 3e 3c
       -0.072298676 -0.0024462224 -0.030757332 0.011634489
000220 32 9f 95 bd 0c 8b 9e 3c 81 18 b6 bd 8f 00 8c bd
       -0.07305755 0.019353412 -0.088913925 -0.06836044
000230 99 a7 09 bc 7c 69 aa bd 70 d8 a3 bd 13 0d 82 bd
       -0.008401775 -0.08320901 -0.080002666 -0.0635015
000240 61 19 4e bd fd e6 87 bd c9 16 a5 bd 15 e8 b7 bd
       -0.050317172 -0.066358544 -0.080609865 -0.08979813
000250 f9 8e 74 bd b6 0e 5f 3c f5 3f 91 bd 75 19 54 bb
       -0.05970666 0.013614347 -0.07092277 -0.0032363806
000260 2f 46 17 bc fe d3 4b bd e7 43 07 bd 4a fb 28 3d
       -0.009233042 -0.04976272 -0.03302374 0.041255273
000270 53 cc f6 bd d7 7c aa 3c b6 81 0d bd 25 03 2f bd
       -0.120506905 0.020811481 -0.03454753 -0.04272761
000280 ab ec ff ba 3d 61 68 3d 5b 42 15 be d7 59 6c bd
       -0.0019525489 0.05673336 -0.14576094 -0.057702865
000290 45 c6 20 be 94 c6 1f 3c c8 24 25 bd ae 47 20 3d
       -0.15700634 0.009751935 -0.04031828 0.03913086
0002a0 4d 21 9a 3d d9 ff 58 3d df 2c 7d bd e7 1f b6 bd
       0.07525883 0.05297837 -0.06181037 -0.08892804
0002b0 ef 54 1c bd 7e 39 ac bc ea f5 11 3d f2 8b 7a bd
       -0.038166936 -0.021023508 0.035634913 -0.06116862
0002c0 bb ee f5 bc 93 51 cd bd 0a 4a 13 be a4 26 9a bd
       -0.030021062 -0.10025325 -0.14383712 -0.07526901
0002d0 ce 96 8b 3d 03 f0 fa bc 67 52 89 3d be 6b 4d bd
       0.06815873 -0.030632025 0.0670517 -0.05015158
0002e0 7f a4 3c bb bd 27 49 bd 4a f9 83 3d e7 59 b1 3d
       -0.002878457 -0.049110163 0.064440325 0.08659726
0002f0 6b 3b 76 3b 2f ec 11 bd bf ca 33 bd d1 0f b0 bd
       0.0037572037 -0.035625633 -0.043894526 -0.08596767
000300 ed cd ef bd ea 4a b2 bd 5f e1 b8 bd 6e 36 bb bd
       -0.11709199 -0.08705695 -0.09027361 -0.09141241
000310 f3 e9 c6 bd 18 6c ac bd 5f 22 03 bc b8 9c b6 bc
       -0.09712591 -0.08419055 -0.0080038 -0.022291526
000320 5f 63 a2 bd 85 d9 ca bd c4 b0 8f bd 45 a7 09 be
       -0.0792911 -0.0990477 -0.07016137 -0.13442715
000330 d6 5e 3a bd b0 56 e3 bd 31 24 ea bd e5 6a d1 bd
       -0.0455006 -0.11100519 -0.11432684 -0.10225467
000340 49 ee 80 bd c6 ef e4 bd 35 6b ff bd d2 88 d0 bd
       -0.06295449 -0.11178546 -0.1247162 -0.101823464
000350 46 01 db bd 03 82 52 bd f5 4a cb bd 5a 1b 81 bd
       -0.10693602 -0.05139352 -0.09926406 -0.06304045
000360 02 c7 76 b9 1f be ab bd 63 3c df bc 6b d1 08 be
       -0.00023534524 -0.08385872 -0.027250474 -0.13361137
000370 39 9e 36 be 36 c3 e8 bd 64 71 23 bd 7c d2 05 bd
       -0.17833795 -0.113653585 -0.03990306 -0.032671437
000380 5b 22 33 be 29 af 3f 3b 5b e3 18 3e ea eb ee bd
       -0.17493574 0.002924869 0.14930479 -0.11666091
000390 ad 87 9a 3d 5a 59 c3 bc 99 98 ce 3d 5c 80 4a bd
       0.07545409 -0.023846317 0.100876994 -0.04943882
0003a0 83 37 c7 bd df 1a 18 be 84 26 93 3d d4 76 93 bd
       -0.09727385 -0.14854 0.07185081 -0.07200399
0003b0 ab a8 03 bd 2b 28 cd bd e1 15 66 bc ed 46 b1 bd
       -0.032143276 -0.10017427 -0.014043302 -0.08656106
0003c0 0a e7 a5 bc 53 47 e9 bd 6e 2d 46 bd 5c 4e 52 3b
       -0.02025177 -0.11390557 -0.04838317 0.0032090163
0003d0 6b fe f7 bc fe 98 9f 3d af d3 97 bd a6 52 c2 bd
       -0.030272683 0.07792853 -0.07413422 -0.0948842
0003e0 ad d9 3b bc cc 38 53 bd e3 42 64 bb 9d f8 13 be
       -0.011465472 -0.051567838 -0.0034829907 -0.14450307
0003f0 5f 0d 65 be 90 de 2d be 5f f0 8b bd 25 b9 94 3d
       -0.22368382 -0.16979432 -0.068329565 0.07261876

bias f4 [10]
000000 7b 58 80 3b 51 df 91 bb 4e 93 22 3c 49 a8 27 bb
       0.0039167977 -0.00445167 0.0099228155 -0.0025582484
000010 98 3d 32 ba cf 1b 49 3a 3b ac 99 b9 f7 88 c4 38
       -0.00067993393 0.00076716853 -0.00029310756 9.37152e-05
000020 ff 32 24 bb 79 69 25 bb
       -0.002505481 -0.0025239869
