trained_models/model.pt (torch, 45252 bytes, 10 tensors)

weight f4 [8, 3, 3, 3]
000000 e4 a8 eb b6 e1 74 f5 33 c6 1a 86 b4 0f 5d e6 34
       -7.023207e-06 1.1429962e-07 -2.4978925e-07 4.2908547e-07
000010 ac 20 5c 24 28 b6 13 b6 ad ed 21 aa 9a be 06 30
       4.773257e-17 -2.2010736e-06 -1.4382133e-13 4.9019777e-10
000020 f6 5d 08 32 97 1c 47 bd 20 55 13 bd c2 17 e9 bc
       7.937606e-09 -0.04861125 -0.035969853 -0.028453711
000030 af 74 7d bc 6f e5 13 be 4e 25 14 bd 33 15 ac 3c
       -0.015469714 -0.1444299 -0.03616839 0.021006202
000040 f0 1f f5 3b 8e b8 0c 3e 54 2a 0e 3d 04 c4 71 bd
       0.007480614 0.13742277 0.034708336 -0.059024826
000050 64 5d 38 bd 2f c0 2d be 14 60 65 3d d2 bc 5b bd
       -0.04501094 -0.16967843 0.05599983 -0.05364687
000060 d7 02 c4 3d c8 d7 ba 3d 34 1e 8d bc 69 6b 5f b3
       0.09570854 0.09123188 -0.017226316 -5.2018923e-08
000070 32 25 d2 36 52 45 a1 b3 f1 a5 88 33 02 e2 e0 b3
       6.262818e-06 -7.509756e-08 6.363178e-08 -1.04719234e-07
000080 b4 45 4b 2b de a4 6a 36 f1 e8 8f 35 46 b9 a7 b6
       7.221682e-13 3.4964683e-06 1.0722125e-06 -4.9985565e-06
000090 36 7e cf bc 0a 6c a7 bd b2 32 a6 3c f1 4a b6 3d
       -0.025328737 -0.08174904 0.020287845 0.08901013
0000a0 43 af bf bc 57 dd e9 bc 75 b6 fd bc d0 89 dc bc
       -0.023399001 -0.028547926 -0.030970791 -0.026921183
0000b0 cd 70 55 3e 93 2e a3 bd 21 36 19 3d e7 96 35 bc
       0.20843811 -0.07967868 0.037405137 -0.011083341
0000c0 25 76 68 3d b6 67 10 be 6b 11 e1 bc 46 97 2f bd
       0.056753296 -0.14102063 -0.027474126 -0.042868875
0000d0 79 69 c8 bc 37 f6 15 bc 4d b3 b2 2a 38 94 d3 b4
       -0.024464356 -0.0091529405 3.1743567e-13 -3.9409656e-07
0000e0 1a 3a 34 35 b9 e6 eb b5 f1 ff 26 b7 fb 30 0d b4
       6.7139774e-07 -1.7576014e-06 -9.953962e-06 -1.3149467e-07
0000f0 f1 e9 32 b3 53 7a bb b4 4e 44 e5 ae 30 8b 27 3b
       -4.1656623e-08 -3.4920467e-07 -1.0425848e-10 0.002556514
000100 2d c6 5a bb 19 0b 69 bc 3b 37 12 bc fd db 6d 3c
       -0.0033382282 -0.014223837 -0.008924301 0.014517781
000110 a4 7e b1 bc 8f e1 ab bc ab 04 69 3c f4 00 20 bc
       -0.021666832 -0.020981578 0.014222304 -0.009765852
000120 df f2 09 bc ea 33 cf bb c3 b9 1d bc 97 71 96 bb
       -0.008419721 -0.0063233273 -0.009626809 -0.0045911777
000130 61 e7 98 bd 9b 48 37 bc 62 55 b9 bb ba 8c 48 bb
       -0.07466007 -0.011186744 -0.0056559304 -0.0030601458
000140 0c 98 e1 bc 74 0e ba 31 3e 32 98 b0 a8 a8 c2 b3
       -0.027538322 5.4149556e-09 -1.1073735e-09 -9.0645074e-08
000150 78 50 d1 af 73 9d 2b 28 02 12 21 b4 65 16 01 b6
       -3.8074055e-10 9.526548e-15 -1.5000845e-07 -1.9235533e-06
000160 8d 5c 0e ad 00 72 a7 35 ba 79 f6 3d 9f bc cc 3d
       -8.092316e-12 1.2475648e-06 0.12034936 0.09996914
000170 80 ed 79 3d 02 db d7 3d 40 87 18 3d 27 ee aa bb
       0.061017513 0.10539819 0.03723836 -0.0052163783
000180 1c 08 f3 bb 7e bd 83 bd 05 f6 ce 3c 8c 63 86 bd
       -0.007416738 -0.06432627 0.025263796 -0.06561956
000190 36 74 a2 3a c0 7d a4 3d 4e 9d 25 3d a2 75 39 bd
       0.0012394253 0.080317974 0.04043322 -0.0452782
0001a0 9c ff a8 3c 57 40 b9 bd 10 fe d0 3d 8f 1f 98 bd
       0.020629697 -0.09045475 0.102047086 -0.07427894
0001b0 4b 54 31 b1 f7 c6 0d b6 f3 81 9f 2f 54 e6 e8 b1
       -2.5804805e-09 -2.112645e-06 2.9014266e-10 -6.778274e-09
0001c0 5f a3 6b 32 97 20 ff 25 bf c6 a1 35 b9 d2 53 2b
       1.3715947e-08 4.4257532e-16 1.2053277e-06 7.5254695e-13
0001d0 58 5f e5 30 12 4c b4 bc cf ac 35 ba ef bf aa 3d
       1.6689041e-09 -0.02200893 -0.00069303525 0.0833739
0001e0 77 c6 74 bc 54 82 22 bd 80 bd bd 38 de fe e0 bc
       -0.014939896 -0.03967507 9.0475194e-05 -0.02746528
0001f0 7b 24 b3 bc 55 35 1b 3c f7 d5 8d bd fc 2a d9 bb
       -0.021867981 0.009473165 -0.06925576 -0.0066274386
000200 e8 aa 11 bc b0 b6 86 3d d3 5c 05 3d 21 d5 1c bc
       -0.008890845 0.065778136 0.032559227 -0.009572298
000210 ac 35 bc bd e6 87 bf bc c2 2c 3b bb 99 26 a9 b6
       -0.091899246 -0.023380231 -0.0028560613 -5.041086e-06
000220 2b 06 f1 b2 71 e3 ca ad 3e f2 2a b6 d6 b1 64 ae
       -2.8058897e-08 -2.3065745e-11 -2.5472978e-06 -5.1999148e-11
000230 23 d1 06 34 60 6f 80 31 2d 65 a4 b4 92 66 53 2b
       1.2555806e-07 3.737952e-09 -3.0620996e-07 7.5104604e-13
000240 90 dc 9f bc 63 c4 32 bc b1 46 85 bc 94 78 81 3a
       -0.019514352 -0.01091108 -0.01626906 0.0009877854
000250 d9 8f 4b bc fa b4 d6 bc 3e 1f d7 bb ef 45 ae bc
       -0.012424433 -0.026209343 -0.0065650037 -0.021273581
000260 fa 31 c0 bc f4 c8 e5 bd 08 8f 8e bd 74 3b 22 3d
       -0.02346133 -0.112199694 -0.06960875 0.03960748
000270 e4 8d b0 3d f2 0a 5a bd 3c e1 ad bd a8 9b 9e 3d
       0.086208135 -0.053233095 -0.08490226 0.07744533
000280 ae 59 e5 bc cc 53 20 bd c8 f8 7c ab 23 da b2 34
       -0.027996864 -0.039142415 -8.987364e-13 3.33138e-07
000290 66 b6 c1 a7 50 e3 28 27 3d 38 45 27 c4 2d 09 34
       -5.3766018e-15 2.343791e-15 2.7369729e-15 1.2775769e-07
0002a0 45 5b a7 b5 9f 17 df b5 ae 92 e6 b4 9f e9 d4 bd
       -1.2469033e-06 -1.6621669e-06 -4.2947562e-07 -0.10396122
0002b0 1b 8e cd bc 02 11 94 3d 43 dc ae 3c 3f 63 c2 3c
       -0.025092175 0.072298065 0.021345263 0.023728965
0002c0 14 59 34 3d 07 7d 19 3c 11 e7 28 3e aa 4e 80 3e
       0.044030264 0.009368188 0.16494395 0.25060016
0002d0 a5 cb 12 3e 63 e3 19 bd 58 72 ec 3b 2f c0 e3 3a
       0.14335497 -0.03757037 0.0072157793 0.0017376001
0002e0 0d c3 99 bd f6 f0 f3 bd 60 e6 04 be 22 0e a1 3c
       -0.07507906 -0.11911194 -0.12978506 0.01966006
0002f0 1f 4c ab 3d 00 0b 33 34 de 74 f4 b4 d0 62 aa b6
       0.08364128 1.6674676e-07 -4.5533574e-07 -5.077898e-06
000300 0d 8a de 31 18 52 fa 35 73 d5 53 32 9e 55 ea b4
       6.476745e-09 1.8650344e-06 1.2330349e-08 -4.364819e-07
000310 fa 6c dd b6 83 e5 af b4 29 e1 91 3b 85 d3 79 3d
       -6.599e-06 -3.2763282e-07 0.00445189 0.060992736
000320 a9 b2 7d 3c 1f 93 f3 b9 af 48 77 bb ea d3 a5 3b
       0.01548449 -0.00046458186 -0.0037732532 0.0050606625
000330 63 ac 4d 3c 60 f3 52 3d a8 ff 86 bd 83 51 a9 bd
       0.012553307 0.05150163 -0.06591731 -0.082675
000340 10 d4 05 3e 51 72 86 bd 08 a0 ad bd 9e c9 37 bd
       0.13069177 -0.06564773 -0.08477789 -0.04487001
000350 fe b7 8c bc b1 5d 89 bd fd e9 0c bd 15 47 10 3e
       -0.017177578 -0.06707323 -0.034402836 0.14089616

bias f4 [8]
000000 94 a3 be b1 a2 64 64 b1 03 51 12 2f 72 80 e6 ac
       -5.5483245e-09 -3.323557e-09 1.3307404e-10 -6.5512535e-12
000010 02 65 05 b3 16 99 3d b7 f4 10 05 b3 f7 ff 52 31
       -3.105834e-08 -1.1300921e-05 -3.0981894e-08 3.0704521e-09

weight f4 [8]
000000 cc 38 70 3f b6 39 0a 3f dc cf c6 3c 87 ed 87 3f
       0.93836665 0.5399431 0.024269037 1.0619363
000010 c7 d1 14 3f d7 8e 64 3e 7d 8b b4 3f 0a 97 58 3f
       0.58132595 0.22320114 1.4105068 0.8460547

bias f4 [8]
000000 55 a0 84 3c f2 ec 9a 3d 9f 11 e1 3d ed 3a e5 bc
       0.016189734 0.07564725 0.10989689 -0.0279822
000010 c9 98 ce 3c 59 03 17 3e b0 83 36 3d b8 85 c8 3c
       0.025219338 0.14747371 0.04455918 0.024477825

running_mean f4 [8]
000000 b7 35 ac bd 56 25 55 be f7 81 f5 bd ac 22 06 bd
       -0.08408683 -0.20815024 -0.119876795 -0.03274791
000010 5e a8 e3 bd 66 e0 39 be f1 54 d8 bc 31 a4 2b be
       -0.11116098 -0.18152007 -0.02640769 -0.16761853

running_var f4 [8]
000000 d0 3d 42 40 3c d8 2e 40 6f 81 57 3f 60 ff d1 3f
       3.0350227 2.731948 0.84181875 1.6406059
000010 66 52 86 3f f6 d9 83 40 0b 3d 52 40 b1 9c 62 40
       1.0493896 4.1203566 3.2849758 3.5408137

weight f4 [32, 288]
000000 c5 25 0a 3b 1e 1f 1f bd 82 af 37 bd 32 40 c0 3c
       0.0021079641 -0.038848035 -0.04484511 0.02346811
000010 9f d8 d2 bc 17 57 01 3d 28 95 7f 3c d2 bf 73 3c
       -0.025738059 0.031577196 0.015599526 0.0148772765
000020 5f 54 17 bd a5 25 d3 3c 79 bb 6b 3d 33 4a 8a 3d
       -0.036945697 0.025774786 0.057551835 0.06752434
000030 73 82 a4 bd 52 e4 22 bd f2 57 4e 3c 21 b1 83 3d
       -0.08032694 -0.039768524 0.01259421 0.06430269
000040 26 4a 89 3d a4 d4 4b 3d c6 12 07 3d 9c 37 72 bd
       0.06703596 0.049763337 0.032976888 -0.059135064
000050 57 9f b6 bb 22 a1 91 bb 16 73 3f 3d 19 14 91 3d
       -0.005573194 -0.0044442574 0.046740614 0.070839114
000060 88 f7 34 bd e4 b2 10 be 85 ed 84 bd 0d 04 74 bd
       -0.044181377 -0.14130741 -0.06490616 -0.059574176
000070 8c b7 14 3d 6a a4 a9 bc 95 2e 4c bb 4e 16 00 3d
       0.036307856 -0.020708282 -0.0031155695 0.03127127
000080 1a 83 80 3c 40 71 84 3d 5b f8 c3 3c a3 59 67 3c
       0.015687514 0.06466913 0.023922136 0.014120492
000090 a0 8b 3c 3d 9e ce 8b bd 69 5d 27 bd ec ae 9d bd
       0.046031594 -0.068265185 -0.040860567 -0.07699379
0000a0 45 da c5 bc e4 75 38 3c 3d dd d4 bc 26 89 19 bc
       -0.02415193 0.011258576 -0.0259844 -0.009371078
0000b0 60 44 49 3d 02 c9 6c bd 36 f8 06 bd 02 83 a1 bc
       0.049137473 -0.057808883 -0.032951556 -0.01971579
0000c0 a4 75 e8 3d 93 fc 7d 3c 74 5f a6 3c 26 33 33 3c
       0.11350563 0.015502113 0.020309187 0.010937488
0000d0 17 c4 8a 3d 91 e3 9b bb 99 7e c9 3d a1 f6 93 bd
       0.067756824 -0.0047573526 0.098386 -0.07224775
0000e0 a4 38 b4 3c 4a 17 eb 3c 9a 43 17 3d 0d cf 8c bd
       0.021999665 0.028697629 0.036929704 -0.06875429
0000f0 60 5c a7 3d 15 fd 8f bd 73 4f 1e 3c fa 08 7c bc
       0.08171916 -0.070306934 0.009662497 -0.015383
000100 18 bc 80 3c 20 d3 1b bc 5e f2 77 3d b6 93 eb bc
       0.01571469 -0.009510785 0.060533874 -0.028756958
000110 57 1d 4f bb 79 7b 8f bd b5 d1 ce 3d 6a 87 62 3d
       -0.0031603181 -0.070059724 0.10098592 0.055304922
000120 ad 80 48 bc 0a 00 de bb 47 76 13 bc 41 a1 40 bc
       -0.01223771 -0.006774907 -0.0090003675 -0.011757196
000130 61 ca fd bb fe da 25 bc 4f 89 8e bc 52 98 29 bc
       -0.0077450727 -0.010123013 -0.017399458 -0.010351257
000140 0d 0f 53 bc 1b c0 00 bc a2 1b 09 bc 42 7d 34 bc
       -0.012882006 -0.0078583015 -0.008368405 -0.011016192
000150 30 78 88 bc 93 46 66 bc a8 1f 1d bc e8 a1 d8 bb
       -0.016658872 -0.014054912 -0.009590067 -0.0066110976
000160 6a e0 f5 bb a4 4b 69 bc 9e 6c 58 bb ee 2e 06 bc
       -0.007503559 -0.014239226 -0.0033023725 -0.0081899
000170 41 9c 6d bb d5 92 a8 bb 63 ee c1 bb 11 eb 85 bc
       -0.0036256465 -0.005144457 -0.0059183105 -0.01634744
000180 56 f1 32 bb 1c c7 37 bc 5e 46 09 bb f9 f4 d1 bb
       -0.0027304492 -0.011216905 -0.0020946483 -0.006407377
000190 37 e7 09 bc 8f a6 8e bc 1b 9e 95 bb ad 6b c8 bb
       -0.008416942 -0.017413406 -0.004565967 -0.0061163516
0001a0 cb ff 18 3b 84 d7 4e bb 96 cf 39 bb 4c 84 89 bc
       0.0023345824 -0.0031561563 -0.002835249 -0.016786717
0001b0 93 4e 5a 3b 5c 0f 5a 3d 3a 64 b3 bc e7 63 15 3d
       0.0033310994 0.053237304 -0.021898378 0.036472227
0001c0 bd a3 85 bc cd 21 17 3e f4 f5 d4 bc 69 f1 89 3d
       -0.016313428 0.14758988 -0.025996186 0.067354985
0001d0 98 95 c1 3d 6a d7 02 3e bc f1 3a 3d 6e 05 27 3d
       0.09452361 0.12777486 0.045640692 0.040776663
0001e0 f2 4d 57 3d 86 fe 2c 3d 15 af 99 3d 4b a2 57 3d
       0.05256457 0.04223492 0.07504097 0.05264501
0001f0 d5 5e eb 3d ca 03 38 3d c7 e1 2c 3d 4f 73 5e 3d
       0.11492697 0.04492549 0.042207506 0.054309186
000200 c6 1d 3d 3d 8f 86 84 3d bf 0a f4 3d d9 9b 84 bc
       0.046170972 0.064709775 0.11916112 -0.016187595
000210 ae 33 89 3d ee ef c1 3d 08 49 05 3c 36 ff 44 3d
       0.0669931 0.09469591 0.008135088 0.04809495
000220 06 e5 c6 3d 8a de a4 3d 11 d8 72 3b b6 27 72 3d
       0.097116515 0.080502585 0.0037055055 0.059119903
000230 b5 70 b6 3d 7f 60 3b 3e 7b af dc 3d 2d b4 47 3d
       0.08908216 0.18298529 0.10775658 0.048755813
000240 68 bb 11 bc 1c 2b 00 be 10 54 05 be 81 89 08 be
       -0.008894779 -0.12516445 -0.13020349 -0.13333704
000250 4b 12 9b bd 0b 20 36 3c fb 56 e6 3c 51 de 11 3d
       -0.075718485 0.011116038 0.028117647 0.035612408
000260 39 f9 b4 3c 24 28 2e bc 71 04 f7 bc 75 f8 e7 3b
       0.022091495 -0.010629687 -0.030153485 0.007079179
000270 da bb 8d 3d 47 f3 e9 3c 20 54 2c 3d 2d c3 3d 3b
       0.069205955 0.028558386 0.042072415 0.0028955445
000280 45 48 14 3d 8e d9 24 3d 3d 4d 27 3d fd eb 7e 3c
       0.036201734 0.04024654 0.040845145 0.015559194
000290 53 73 01 3d 43 d2 b8 bc 22 ea 42 3c 1f ce 3c 3d
       0.031604122 -0.022561198 0.011896642 0.04609501
0002a0 a0 8c c3 3d c7 b3 c7 bb 7b d4 48 bd b5 a2 74 bd
       0.095483065 -0.006094429 -0.049030762 -0.059725482
0002b0 da 52 99 3d 95 d3 82 3d 4f ed f7 bd 83 c0 bd bd
       0.07486506 0.06388012 -0.1210581 -0.09265234
0002c0 75 d4 f6 bc c8 95 4f bd ac 88 87 3c 0f 80 04 bd
       -0.030130604 -0.050679952 0.016544662 -0.03234869
0002d0 d0 d2 70 bd c6 c3 55 bd 55 60 0f bd 26 8e 0a bd
       -0.058794796 -0.052188657 -0.03500398 -0.03382697
0002e0 7f d0 a5 bb 2a 38 33 3c cc ff 85 ba 8b 7b 1c bc
       -0.005060255 0.0109386835 -0.0010223328 -0.009550939
0002f0 92 39 a5 3b c0 5d c7 bc 86 ca d3 3c e8 9c 8e 3c
       0.0050422633 -0.024336696 0.025853407 0.017408803
000300 ae 6b d2 3b 58 56 7b bd 28 6b fa bc 1c 76 69 bd
       0.006421528 -0.06136164 -0.030568674 -0.056997404
000310 ad 65 80 3c f4 0a 77 3c 50 c4 bd 3c a2 6a 23 bd
       0.015673483 0.015078295 0.023164898 -0.039896615
000320 6a 1e 23 bb 3e cb e1 bc 09 f6 b3 bb c0 fd a0 3b
       -0.0024889954 -0.027562734 -0.005491976 0.004913062
000330 f3 61 e9 3c 68 6a 5b bd 4d a6 da bc 01 1e c9 bd
       0.028489089 -0.053568274 -0.026690627 -0.09820176
000340 04 eb 5a bc 4b 72 6a 3c 38 d2 df 3c 66 e6 0a bc
       -0.013361696 0.014309476 0.02732192 -0.008477783
000350 d4 1a 0d 3c cd 99 9c bc 89 43 04 3d a6 86 78 bc
       0.008612353 -0.019116307 0.03229097 -0.015168821
000360 a0 cd b5 bd b1 4c 86 3d 66 9e e1 bd f3 18 2d be
       -0.088771105 0.065575965 -0.1101654 -0.16904049
000370 73 18 19 be bd 92 24 bd 39 88 bc 3d f5 07 b8 3d
       -0.14950733 -0.040179003 0.0920567 0.08985893
000380 4f ea 7e bd d4 76 2e bd 5e 1e ab bd e8 8b 5a bd
       -0.062235173 -0.042593792 -0.083554015 -0.05335608
000390 f2 87 ad 3d ec 56 ac 3d 7a 09 f0 3d f8 aa b9 bb
       0.08473195 0.084150165 0.117205575 -0.005666133
0003a0 f8 db 0d 3d 91 38 11 bd 55 1d 19 3e 5f 1d 01 bd
       0.034633607 -0.035454337 0.14952596 -0.03152215
0003b0 70 49 66 bc 05 17 c7 3a 06 0e c0 3b e0 89 fe bd
       -0.014055595 0.0015189355 0.0058610467 -0.12428641
0003c0 3e a4 4d 3b 5c 44 64 bd f7 29 4a 3d 94 76 b3 bc
       0.0031378414 -0.055729255 0.049356427 -0.021907128
0003d0 6d ae b1 bb 52 01 ec 3d 31 68 f8 3d f7 f3 66 3c
       -0.0054224045 0.11523689 0.12129248 0.014096252
0003e0 2f a5 07 3e 6f b7 4c 3d d7 f1 57 bd c0 c7 56 bd
       0.13246606 0.049979623 -0.05272087 -0.05243659
0003f0 0c f7 01 bd cb 32 b7 bb 78 c2 8a bd 49 47 32 be
       -0.031729743 -0.005590772 -0.06775373 -0.17410006

bias f4 [32]
000000 be 45 8c 3b b0 46 01 3d 0f 29 62 3c 98 bb 7e bc
       0.004280775 0.031561553 0.013803734 -0.0155476555
000010 b7 95 82 3c 51 6c db 3c 7b 89 bd bb 4d 2a 9e 3b
       0.01594053 0.026785048 -0.005784211 0.00482682
000020 35 28 b0 3c 05 fd 25 3d 5d 9b c9 3c bb 69 c4 bc
       0.021503547 0.0405245 0.024610216 -0.023976197
000030 67 c5 0a 3d a8 e7 81 3c cb 00 38 bc 59 5c 12 3d
       0.033879664 0.015857533 -0.011230658 0.0357326
000040 e5 24 27 3b e0 e4 92 3b e5 0e 95 3b 7c a8 1a 3d
       0.0025504169 0.0044828504 0.0045488947 0.037758335
000050 82 e4 5f bc 70 d1 0f 38 6b db 66 39 32 73 ee 3b
       -0.01366532 3.428891e-05 0.00022016249 0.007276916
000060 2f b0 4e 3c cf 3e e3 3c 0f 4f a2 3b f4 3a 8c 3c
       0.012615248 0.02773991 0.004953272 0.017117955
000070 d9 bd 6e 3c d8 74 bd 3b 98 13 a5 3c 05 5f 41 bb
       0.01457163 0.005781751 0.020150945 -0.00295061

weight f4 [10, 32]
000000 11 01 e9 be 6d 8e 80 3c 7c 99 aa bd 57 62 af bd
       -0.45508626 0.015692914 -0.08330056 -0.08563679
000010 fb ab f5 be c1 db 45 3e 8b ff 22 be 10 39 7e be
       -0.47982773 0.1932211 -0.15917794 -0.24826455
000020 4a da 68 3e 7a 2a da be 96 81 e3 bd 1f e4 2a be
       0.2273952 -0.42610532 -0.11108701 -0.16688584
000030 80 29 0a bf d3 7c f8 be 60 a5 09 bf 50 47 2b 3e
       -0.53969574 -0.48532733 -0.5376797 0.16726422
000040 f0 2e 56 bd 21 4f 04 3e 6f c5 50 3d 72 da 85 bd
       -0.052290857 0.1292081 0.050969537 -0.06535806
000050 11 d8 bb be 6d b5 26 be ff e8 ee 3c 7e 5e 0b 3d
       -0.36688283 -0.16280146 0.029163836 0.03402566
000060 d8 4e 70 be 04 fa 19 be 3e f0 29 be dc 11 94 3e
       -0.23467577 -0.1503678 -0.16595551 0.28919876
000070 6f 87 93 3e 7e 88 a4 bd 38 55 6a be e9 33 80 be
       0.28814265 -0.08033846 -0.22884071 -0.25039604
000080 ac 0c 2a be 94 c3 85 3c b7 89 f5 be 43 4e 86 be
       -0.16606396 0.01632861 -0.4795663 -0.26231584
000090 cf 19 83 be 69 24 07 be 2d e5 2e be da 84 97 bd
       -0.25605628 -0.13197483 -0.17079611 -0.07398386
0000a0 c7 cd 38 3d 86 de 8b bd 6d 0b 60 3e 36 2d 98 be
       0.04511812 -0.06829552 0.21879359 -0.29721993
0000b0 a3 e4 34 3e 0d 8d 2a 3c 56 91 82 be e0 6e 82 bc
       0.17665343 0.010409606 -0.25501508 -0.01592201
0000c0 c7 4b 0c bf 25 51 df bd 09 a0 d2 bc 23 99 20 3e
       -0.5480313 -0.10904149 -0.025711076 0.15683417
0000d0 7c e8 67 3e 8d 16 6b 3e 36 6f f4 3b a5 9e da bc
       0.2264728 0.22957821 0.0074595464 -0.026686976
0000e0 2c 36 0c 3e d3 c9 58 be 3b f3 f0 be 23 94 a2 bd
       0.1369254 -0.2117074 -0.4706057 -0.07938411
0000f0 a7 24 0d 3d c6 40 7d 3d af e1 3c 3c ea db 0f bf
       0.034458783 0.06182935 0.011528417 -0.5619494
000100 bc 4b 62 be 28 a2 d9 bd 63 95 1d 3e 63 fe 5d be
       -0.22099203 -0.10626632 0.15389018 -0.21679072
000110 e9 d6 db 3d 0f fd 8b 3e 05 d9 be be d9 85 25 bf
       0.1073435 0.27341506 -0.37274948 -0.6465736
000120 70 de 03 bf 6f 13 a3 3d 42 92 3d 3e bb ea 12 bf
       -0.5151129 0.07962691 0.18512824 -0.5738942
000130 00 34 59 be c1 e9 d4 bb e3 4e a1 be 93 ce 2b 3d
       -0.21211243 -0.006497592 -0.31505498 0.04194505
000140 21 92 a6 bd d3 09 4a 3c a7 8a 9f be 4c 29 c7 3d
       -0.081333406 0.012331444 -0.3116047 0.09724674
000150 9a e3 c2 bb 50 48 ab be e9 04 cc be 09 1b f6 be
       -0.0059475424 -0.33453608 -0.39847496 -0.480675
000160 3c 63 73 be 59 fe 26 bd ed ca 81 be a6 f4 01 be
       -0.23768324 -0.04076991 -0.25350133 -0.12690982
000170 0d 44 41 bd 5a f9 7e be dd 39 87 3d 6b 10 9c be
       -0.04718404 -0.24899808 0.066028334 -0.30481276
000180 2f b4 df be a1 f7 fe be c9 ce 73 be 18 ea 7b bd
       -0.43692157 -0.497983 -0.23809351 -0.061502546
000190 f3 79 95 bd e7 36 cf be ae ad 3a bd 21 95 7e 3d
       -0.072986506 -0.40471575 -0.04557579 0.06215394
0001a0 88 ff a7 be 2b 98 01 3e 07 83 b8 be 34 a6 02 be
       -0.32812142 0.12655704 -0.36037466 -0.12758714
0001b0 2b c4 1f be c5 5a 8a be 26 eb 0f 3e fe c7 13 bc
       -0.15602176 -0.27022377 0.14054546 -0.00901985
0001c0 1c c7 d9 3d af 46 68 3e e6 29 b7 be 0d 04 0c bf
       0.1063368 0.22683214 -0.35774153 -0.5469368
0001d0 a0 09 12 be d4 15 c6 be 5d ba 0f bf 82 59 e7 3d
       -0.14261484 -0.3868853 -0.5614374 0.11296369
0001e0 4e 9d bb be e7 9a c7 be 02 2a d8 be 10 c5 b6 be
       -0.3664345 -0.3898537 -0.4221955 -0.35697222
0001f0 d5 d7 d6 be a1 6b 8a be a2 ff 15 3e 7b f5 00 be
       -0.41961542 -0.2703524 0.14648297 -0.12593643
000200 85 67 56 bd 87 a5 b4 be 0c 85 d7 be 16 8e 32 3d
       -0.052344818 -0.35282537 -0.42093694 0.043592535
000210 3c 54 0e bf d6 eb e9 be 1b 18 18 3e cc 29 ea be
       -0.5559728 -0.4568774 0.14852946 -0.45735013
000220 8c 3e cb be 23 91 04 bf dd a8 fc be d0 13 40 3e
       -0.39696157 -0.5178396 -0.49347582 0.18757558
000230 35 88 69 be a3 44 a0 be b6 b1 8e 3e 63 92 e4 be
       -0.22805865 -0.31302366 0.27869958 -0.44642934
000240 37 01 2a bf 32 94 c3 be 52 16 26 bf 7b 1e f4 be
       -0.66408104 -0.38199002 -0.6487781 -0.47679505
000250 b2 b8 6b 3d 0e e3 c2 bc 04 f2 95 bc 86 f0 ca be
       0.057549186 -0.023789909 -0.018303879 -0.3963663
000260 04 2c ea bd 73 52 cc be ae d6 cc bd c1 30 1f bf
       -0.114341766 -0.39906654 -0.100018844 -0.6218377
000270 bd 67 b1 be a7 b8 20 be fe 8e e9 3d 95 74 12 3d
       -0.3464946 -0.1569544 0.11404227 0.035755713
000280 da 9d e8 bd 38 7d 14 bf 59 b5 01 3e a0 96 2f 3e
       -0.11358233 -0.5800357 0.12666835 0.17147303
000290 4b c8 14 bf 88 5c 5d bf 20 85 6f be 9b f8 41 3e
       -0.5811812 -0.86469316 -0.23390627 0.18942492
0002a0 95 0c e1 be 07 fc 01 be 2b 04 c4 be d4 5f 05 be
       -0.43954912 -0.12693797 -0.3828443 -0.13024837
0002b0 fc 30 ea be e1 a0 25 3d 6c ba 64 be 42 70 2f be
       -0.45740497 0.04043663 -0.2233674 -0.17132667
0002c0 07 cf 90 3d 1a e2 f4 be 10 fa aa 3d 90 92 e0 be
       0.07070737 -0.47828752 0.08348477 -0.43861818
0002d0 19 9a af be 2c d6 28 bd e7 7c f4 bb a4 43 28 bf
       -0.34297255 -0.041219875 -0.0074611786 -0.6572821
0002e0 cc c8 67 be 62 ca 25 3d c8 ec ab be c1 c7 1f bf
       -0.22635192 0.04047621 -0.33579087 -0.62414175
0002f0 58 f5 20 bf e6 e8 b4 bd c8 b7 5c be af d6 03 bf
       -0.62874365 -0.08833484 -0.21554482 -0.51499456
000300 6a b2 8d 3d 42 09 67 be 2d 54 e8 be a2 48 87 be
       0.069187954 -0.22562125 -0.4537672 -0.26422602
000310 22 19 ea be 34 77 0d bf e0 12 b9 be 78 f8 1f bf
       -0.457223 -0.55260015 -0.36147213 -0.6248851
000320 d8 06 9a be 0c ba b2 be 0d 3d bc be c4 28 0f bf
       -0.30083346 -0.34907568 -0.36765328 -0.5592158
000330 50 7b 7b 3d 35 59 55 be 02 f0 52 be 94 4b bd be
       0.061396897 -0.20834811 -0.20599368 -0.36971724
000340 2d fb 7b be 25 22 da be e1 0d f3 be df 27 00 bf
       -0.24607535 -0.42604175 -0.47471526 -0.5006084
000350 b6 2b 91 be 54 07 b9 be 3b 76 d1 be 9f 48 50 be
       -0.2835366 -0.36138403 -0.40910515 -0.20340203
000360 f8 01 92 be 7f c3 01 bd a5 db 7a be d5 c8 d3 be
       -0.28517127 -0.03168058 -0.2449785 -0.4136416
000370 30 49 11 bf bd 74 f3 bd 2f 8d dd be 82 5d c3 be
       -0.567523 -0.118875004 -0.43271777 -0.38157278
000380 6d 2a de be 0f 1f 78 be 98 98 9f be 38 fd 91 bd
       -0.43391743 -0.24230598 -0.31171107 -0.07128376
000390 44 f9 e9 bd 4f 38 40 bf e6 6e 07 bf da 46 4b 3d
       -0.11424497 -0.7508592 -0.5290359 0.049628116
0003a0 a3 1a 33 be 2a a8 84 be 8c 3e cf be 52 3b dd be
       -0.1749063 -0.2590955 -0.40477407 -0.4320932
0003b0 3f 9a 7b bc 25 8b 8d be 66 3e 3f be 29 fb 46 be
       -0.015356599 -0.2764522 -0.18676147 -0.19431747
0003c0 61 9a b2 be d8 2d d1 be 54 ad 1c bf fb e5 3a 3e
       -0.34883407 -0.40855289 -0.6120198 0.18251793
0003d0 98 d3 78 be de bb 2b be 86 f5 96 be c3 4c f5 be
       -0.24299467 -0.16770884 -0.29484195 -0.47910127
0003e0 dd 5f 34 be 30 27 e8 ba 72 85 94 be 60 a6 2f bf
       -0.17614694 -0.0017711874 -0.2900806 -0.68613243
0003f0 78 a7 23 bf 62 82 fd bd 00 bd f7 be a4 c8 6f 3e
       -0.6392741 -0.12378384 -0.48386383 0.23416382

bias f4 [10]
000000 fd 6e 19 3d c1 9b b5 b7 d4 75 58 3c 79 86 0e bd
       0.037459362 -2.164941e-05 0.013211686 -0.034796212
000010 74 15 4d bd f0 ed 16 bd d1 cd a0 bc 96 58 57 bb
       -0.050069287 -0.03684801 -0.01962939 -0.0032859198
000020 23 a3 52 3d cc bf fe bb
       0.05142511 -0.007774329
