trained_models/model.pt (torch, 5407 bytes, 3 tensors)

weight f4 [8, 3, 3, 3]
0	0x3d338263	0.04382552
1	0xbe3936fe	-0.18087384
2	0x3e240141	0.16016103
3	0x3dc1593d	0.09440849
4	0xbe23961f	-0.15975235
5	0x3e170352	0.1474736
6	0xbcd28993	-0.025700366
7	0x3d87891b	0.06617948
8	0xbe160504	-0.14650351
9	0xbdbfd6d8	-0.0936715
10	0x3c50e5a5	0.012750064
11	0x3e3d96b4	0.1851452
12	0x3d75b66f	0.059988435
13	0x3e1ce43b	0.15321438
14	0x3ddc59b8	0.107593
15	0xbe286a40	-0.16446781
16	0xbe0762f0	-0.13221335
17	0x3e2e2652	0.17006806
18	0x3ceb183e	0.028698083
19	0xbc062907	-0.008188493
20	0x3d59ad7d	0.053143967
21	0xbdfc8ef8	-0.123319566
22	0x3dfcb1ae	0.12338577
23	0x3d77f8d7	0.060540047
24	0xbd3a47dc	-0.045478687
25	0x3ddd7334	0.10812989
26	0x3e083d91	0.13304736
27	0xbe11c791	-0.14236285
28	0x3e07b93a	0.13254252
29	0x3be6a3e1	0.007038579
30	0x3e055301	0.13019945
31	0x3e3db8cc	0.18527526
32	0xbd168f72	-0.036757894
33	0xbc2ef346	-0.010678118
34	0xbd9b5852	-0.07585205
35	0x3e0ee129	0.1395308
36	0xbe0bf5ed	-0.13668032
37	0xbafde618	-0.0019370941
38	0xbe0788eb	-0.13235824
39	0xbca3c360	-0.019990623
40	0x3daa68e0	0.083207846
41	0x3e2c6f0f	0.1683924
42	0x3e22da05	0.1590348
43	0x3ccdeaae	0.025136318
44	0x3d6fc574	0.058537915
45	0xbe21e727	-0.15810834
46	0xbdca757e	-0.09885691
47	0xbc04ad6c	-0.008097988
48	0x3dd347e5	0.10316447
49	0xbdfd166b	-0.123577915
50	0xbe14ba17	-0.14524113
51	0x3dd230f6	0.10263245
52	0x3e30c6b5	0.172633
53	0x3d3b7dc0	0.04577422
54	0xbdb05123	-0.086092256
55	0xbe21476b	-0.157499
56	0x3df42cfb	0.11922642
57	0xbc31197d	-0.0108093
58	0xbe33cc0f	-0.17558311
59	0xbe3f36ac	-0.186732
60	0xbd99fe7d	-0.07519243
61	0x3d4b3ae9	0.049616728
62	0xbda6dfb9	-0.081481405
63	0x3d20dc6c	0.03927271
64	0x3de49662	0.11161496
65	0x3da37cad	0.079827644
66	0x3d9b493d	0.075823285
67	0xbdbdef99	-0.09274215
68	0xbc93575a	-0.017985988
69	0xbdb1a3b7	-0.08673804
70	0xbd4fadb5	-0.05070277
71	0xbe192af1	-0.14957787
72	0xbe27b06f	-0.16375898
73	0xbdce8c87	-0.10085397
74	0x3ca15ef4	0.019698597
75	0x3df3c1e5	0.11902217
76	0xbe3b03ef	-0.1826322
77	0xbe132bf0	-0.1437223
78	0xbcb6c7d6	-0.022312086
79	0xbd85f182	-0.065402046
80	0x3d611d15	0.054959375
81	0x3dedff20	0.11620927
82	0x3df4d17d	0.11954019
83	0xbe314991	-0.1731322
84	0xbd9601c8	-0.073245585
85	0x3e347ee0	0.17626524
86	0x3dca5526	0.09879522
87	0x3d85f01c	0.06539938
88	0x3e0be188	0.13660252
89	0x3dec7bfd	0.115470864
90	0xbcabb742	-0.020961408
91	0x3e0f5dfd	0.14000697
92	0x3e1d7f8c	0.15380687
93	0x3e0e1cf4	0.13878232
94	0x3ce94223	0.02847392
95	0x3e366b4d	0.1781437
96	0x3e245480	0.16047859
97	0x3e2a6448	0.16639817
98	0xbe178322	-0.14796117
99	0xbe058440	-0.1303873
100	0xbdd87c62	-0.10570599
101	0x3db812dc	0.08987972
102	0x3e31aec0	0.17351818
103	0x3d7e2cbf	0.062054392
104	0xbda2ea13	-0.07954802
105	0x3e141bef	0.14463781
106	0xbe01766d	-0.12642832
107	0x3d0c1885	0.03420307
108	0xbdf9d3f7	-0.12198632
109	0x3ccda7da	0.025104452
110	0xbe0916a4	-0.13387543
111	0x3bc0801e	0.0058746478
112	0x3e3c7c4a	0.18406788
113	0xbe03ee87	-0.1288396
114	0xbd39483c	-0.045234904
115	0xbcbb27cc	-0.022846125
116	0xbd1deff0	-0.0385589
117	0x3d05ec43	0.03269602
118	0x3c813ebe	0.015776988
119	0x3ccb143a	0.024789918
120	0xbe3e1ead	-0.1856639
121	0xbd566e27	-0.052351143
122	0xbe02621c	-0.12732738
123	0xbd28f304	-0.041247383
124	0x3d3bbb6e	0.045833044
125	0x3de0288a	0.10945232
126	0x3deae610	0.11469662
127	0x3dbcf74d	0.092268564
128	0xbd2164c6	-0.039402746
129	0x3e364f9e	0.17803809
130	0xbc8698d7	-0.016430302
131	0x3dd4e469	0.10395128
132	0xbd39de28	-0.04537788
133	0xbd8dcd42	-0.069239154
134	0xbe0c8a21	-0.13724567
135	0x3e17bbe6	0.14817771
136	0xbd820f8a	-0.0635062
137	0x3e423f9d	0.18969579
138	0x3e30c0c2	0.17261031
139	0xbda61cd8	-0.0811097
140	0xbcc79409	-0.02436258
141	0xbc243dba	-0.010024482
142	0x3c150593	0.009095567
143	0x3d9027d5	0.07038847
144	0xbdcaff6e	-0.099120006
145	0xbd9b6468	-0.0758751
146	0xbdf1afc1	-0.118011005
147	0x3da90c53	0.08254304
148	0x3e3af863	0.18258815
149	0xbdad9b0e	-0.0847684
150	0xbd9b7f82	-0.075926796
151	0x3dcbdc7f	0.09954166
152	0x3b898e53	0.0041978746
153	0xbe035eaa	-0.1282908
154	0x3df699bd	0.12041042
155	0xbe00dae2	-0.12583497
156	0xbe03b896	-0.12863383
157	0xbdf9f8c2	-0.1220565
158	0x3e29720c	0.16547412
159	0x3e2a8d58	0.16655481
160	0xbdff5e7a	-0.12469192
161	0xbe136515	-0.14394028
162	0xbe290925	-0.16507395
163	0x3e1b8b56	0.15189871
164	0xbdb9a53a	-0.090647176
165	0x3e2b8f87	0.1675397
166	0x3d916f06	0.07101254
167	0x3c999b3b	0.018750777
168	0x3d69f4a8	0.057118088
169	0x3e058334	0.13038331
170	0xbbd7ec18	-0.006589424
171	0xbdbb0eec	-0.091337055
172	0xbdab3619	-0.08359928
173	0xbcd64899	-0.026157664
174	0x3be040d3	0.006843665
175	0xbd7a3259	-0.06108317
176	0xbdced839	-0.10099835
177	0x3dc7deaf	0.097592704
178	0xbdf6603c	-0.12030074
179	0xbe0d277b	-0.13784592
180	0x3d39bd70	0.045346677
181	0x3e242821	0.16030933
182	0xbe445cf0	-0.19176078
183	0xbdd30f91	-0.103057034
184	0x3e369f84	0.17834288
185	0x3e19fde7	0.15038262
186	0x3dca0e9a	0.09866066
187	0x3a130076	0.00056076737
188	0xbdbd1c1c	-0.09233877
189	0x3e367a87	0.17820178
190	0xbe1aa3a5	-0.15101488
191	0x3e233ed8	0.15941942
192	0x3da7db1f	0.08196091
193	0x3d0169cd	0.03159504
194	0xbd689e4a	-0.05679158
195	0x3e237ce7	0.15965615
196	0x3e277e08	0.16356671
197	0xbb36bf14	-0.0027884888
198	0x3dc13807	0.094345145
199	0x3dddf6f2	0.10838117
200	0x3db99409	0.090614386
201	0xbe356422	-0.17713979
202	0x3ce9eaea	0.028554399
203	0x3d7ed646	0.062216066
204	0x3e14516f	0.1448419
205	0xbc3de264	-0.01158962
206	0xbd23db12	-0.040003844
207	0x3d6ed110	0.058304846
208	0x3b832f81	0.0040034656
209	0x3cf89eff	0.030349253
210	0xbd9a0ae3	-0.07521608
211	0xbe1d13c9	-0.15339579
212	0xbcf894f1	-0.030344458
213	0x3de2fb2a	0.11083062
214	0xbdc2e26d	-0.095158435
215	0xbd67c1ab	-0.05658118

bias f4 [8]
0	0xbd25ceae	-0.04048031
1	0x3d7f7344	0.062365785
2	0xbd88b206	-0.0667458
3	0xbbb3d5fd	-0.005488156
4	0x3db89e14	0.09014526
5	0x3d79bad0	0.060969174
6	0xbd0c2fdb	-0.034225326
7	0x3d79eac1	0.061014894

weight f4 [1, 288]
0	0xbd013243	-0.031542074
1	0xbdea8ef0	-0.114530444
2	0xbd86bdd5	-0.06579176
3	0xbb67ec96	-0.003538882
4	0xbc77c0d0	-0.015121654
5	0xbd5a60a4	-0.05331482
6	0xbdd24f9e	-0.10269092
7	0xbcc71bd1	-0.024305256
8	0xbd88a767	-0.066725545
9	0xbccf476c	-0.025302611
10	0xbaaed312	-0.001333805
11	0xbd46a316	-0.048495375
12	0xbcf49163	-0.029854482
13	0xbd553b4d	-0.052058507
14	0xbcddbe65	-0.027068326
15	0xbdbfe39f	-0.09369587
16	0xbbec92e0	-0.0072196573
17	0xbd2d6551	-0.04233295
18	0xbdcabf00	-0.098997116
19	0xbbdf2acd	-0.006810522
20	0xbcad9625	-0.021189759
21	0xbd76fef6	-0.060301743
22	0xbddaf650	-0.10691512
23	0xbcadb3f9	-0.021203982
24	0xbcc97d13	-0.024595773
25	0xbba44977	-0.0050136405
26	0xbc9d5b78	-0.019208655
27	0xbdf35e5b	-0.11883231
28	0xbdeb640c	-0.11493692
29	0xbda352a1	-0.079747446
30	0xbdbf45ec	-0.093395084
31	0xbdefff8a	-0.11718662
32	0xbb3de1c8	-0.0028973687
33	0xbd9be5f9	-0.07612223
34	0xbd8b4600	-0.06800461
35	0xbc9d1d50	-0.019179016
36	0x3d25b1e2	0.040452845
37	0x3d6eac4c	0.058269784
38	0xbc218bf9	-0.009860032
39	0x3dbccd66	0.09218864
40	0x3d01801f	0.031616326
41	0x3d89446f	0.06702506
42	0x3981f0ac	0.00024784112
43	0x3c7b9599	0.015355491
44	0x3c32ee42	0.010921063
45	0x3dd14dd3	0.10219922
46	0x3ccccb6e	0.024999347
47	0x3d5916e2	0.05300034
48	0x3aa7389a	0.0012757957
49	0x3db1d23a	0.08682676
50	0x3dabc3dc	0.083869666
51	0x3be4a06e	0.0069771325
52	0x3cd7f3aa	0.026361305
53	0xbb307a7b	-0.0026928473
54	0x3dc993b9	0.09842629
55	0xbc28e7bb	-0.010309155
56	0x3ccfdf35	0.025374988
57	0x3dcfdec8	0.10149914
58	0x3d482260	0.048860908
59	0x3d8578dd	0.065171935
60	0x3d68d7f8	0.05684659
61	0x3c0726f4	0.008249033
62	0x3dca5c01	0.098808296
63	0x3d85752a	0.06516488
64	0x3d5029e0	0.050821185
65	0x3dc77e73	0.09740915
66	0x3d73f943	0.059563886
67	0x3db0b73d	0.086287
68	0x3cb15c3c	0.021650426
69	0xbc119a56	-0.008886894
70	0x3dc23a40	0.094837666
71	0x3c929291	0.017892154
72	0xbda852e6	-0.082189366
73	0xbd99aac8	-0.07503277
74	0x3beeaf63	0.0072840913
75	0xbd2532e0	-0.04033172
76	0xbd95df47	-0.073179774
77	0xbd3dbd00	-0.046322823
78	0xbd49ac7f	-0.04923677
79	0xbda0c9cf	-0.07850992
80	0x3bc74b78	0.0060819946
81	0xbcf298f4	-0.02961395
82	0xbc4382f2	-0.011933075
83	0x3a30cf4a	0.00067447557
84	0x3cba5d1d	0.022749478
85	0x3c524708	0.012834318
86	0xbc022c1f	-0.00794509
87	0xbd17de97	-0.037077513
88	0xbd5015cc	-0.050802037
89	0x3ca88299	0.020570086
90	0xbd23765e	-0.039907806
91	0xbd3be410	-0.045871794
92	0xbd80fb06	-0.06297879
93	0xbd64126a	-0.055681624
94	0xbdafd7da	-0.08586092
95	0xbd7b3f59	-0.06133971
96	0xbd648165	-0.055787463
97	0x3b9482d5	0.004532198
98	0xbd740e6b	-0.059584063
99	0xbd37ef6f	-0.044906076
100	0xbd481f42	-0.048857935
101	0x3cd2d35d	0.025735551
102	0xbd6b95ec	-0.057516024
103	0xbdaedb71	-0.08537949
104	0x3b80f17e	0.003935038
105	0x3c1ab904	0.009443525
106	0x3cea328f	0.028588561
107	0x3c2adbec	0.01042841
108	0xbd05720a	-0.03257946
109	0x3d6e0e6e	0.05811923
110	0x3d18240b	0.03714375
111	0xbc9842b4	-0.018586494
112	0x3d35c3d5	0.044376213
113	0x3cce09d4	0.02515117
114	0x3d2d3eee	0.042296343
115	0xbd4dc676	-0.050238095
116	0x3d3cfd12	0.046139784
117	0xbd3cb7f9	-0.046073887
118	0xbc63bc28	-0.01389984
119	0xbcf09fb7	-0.029373033
120	0x3cf04214	0.029328384
121	0xbd12bbe2	-0.03582371
122	0x3c271570	0.010197982
123	0x3d6c7063	0.057724368
124	0xbcd62438	-0.026140317
125	0x3c384897	0.0112477755
126	0x3cbe3e91	0.023223193
127	0xbcf301a9	-0.029663878
128	0xbd438d00	-0.04774189
129	0xbc1bdc89	-0.009513029
130	0x3d13d9ef	0.03609651
131	0xbbaf60b5	-0.0053521045
132	0x3d6b191e	0.057397
133	0x3c253a47	0.010084695
134	0xbb71af6c	-0.0036878241
135	0xbbc1a9cc	-0.005910134
136	0x3d0b69eb	0.034036558
137	0xbd17c755	-0.037055332
138	0xbc480ba5	-0.0122098075
139	0x3c4f9eda	0.0126721505
140	0x3d2683e2	0.040653117
141	0xbb436376	-0.0029813922
142	0x3c4ec163	0.012619349
143	0xbbd63519	-0.0065370915
144	0xbc472d54	-0.012156803
145	0x3cf12a3f	0.02943909
146	0xbd4135ef	-0.047170576
147	0xbd4ace37	-0.049513068
148	0x3c2c1850	0.010503843
149	0x3c14e1cc	0.009087037
150	0x3cc90f3c	0.024543397
151	0x3d62ca2b	0.055368584
152	0x3cfeaa4e	0.031087067
153	0x3cc22e2e	0.02370366
154	0xbcd99231	-0.026558967
155	0x3bff2003	0.0077857985
156	0xbc92c696	-0.017916959
157	0xbd235a0c	-0.039880797
158	0xbd181eb9	-0.037138674
159	0x3ce1ce57	0.02756421
160	0xbd530c13	-0.051525187
161	0x3d78bee3	0.06072892
162	0x3bc74593	0.006081292
163	0xbd2e59eb	-0.04256622
164	0x3cfba6ea	0.03071924
165	0x3d7489bf	0.059701677
166	0xbca67f2a	-0.020324308
167	0x3d38ecb6	0.04514762
168	0xbd4998e7	-0.049218085
169	0x3d00b169	0.03141919
170	0x3d5c3909	0.05376533
171	0xbd017583	-0.03160621
172	0xbcd01d80	-0.025404692
173	0x3ca0f9a9	0.019650297
174	0x3d32dbd4	0.043666676
175	0x3c0e9243	0.008701864
176	0x3cf0bbe7	0.029386474
177	0xbc9eface	-0.019406702
178	0xbd22ee88	-0.039778262
179	0xbd576830	-0.052589595
180	0xbd2e12b7	-0.042498317
181	0xbdb6a3e1	-0.08917976
182	0xbde8366c	-0.11338505
183	0xbd238f24	-0.03993143
184	0xbdbcc493	-0.09217181
185	0xbdca5691	-0.098797925
186	0xbcb74e03	-0.022376066
187	0xbcd28235	-0.025696853
188	0xbdcd0882	-0.10011388
189	0xbcab577c	-0.02091574
190	0xbdc7cfe8	-0.09756452
191	0xbdd7b4c3	-0.105325244
192	0xbc01522e	-0.007893128
193	0xbbfe2e7f	-0.0077570076
194	0xbd9eed77	-0.077601366
195	0xbdde01a7	-0.10840159
196	0xbd722c8b	-0.05912451
197	0xbd846557	-0.064646415
198	0xbd435ab2	-0.047693916
199	0xbdc7b4ca	-0.0975128
200	0xbdc73afd	-0.09728048
201	0xbd0d8481	-0.034550194
202	0xbc8ba664	-0.017047115
203	0xbd877f7a	-0.06616111
204	0xbdcfe054	-0.10150209
205	0xbd3f1120	-0.04664719
206	0xbdd64cd1	-0.1046387
207	0xbcd9df17	-0.026595635
208	0xbc830d9a	-0.015997697
209	0xbd4bcab3	-0.049753856
210	0xbd1d51e0	-0.03840816
211	0xbdd5a6de	-0.10432218
212	0xbc8809a7	-0.016606165
213	0xbc8524a0	-0.016252816
214	0xbdc74fd0	-0.0973202
215	0xbc41f8bf	-0.011839091
216	0xbd7b76b5	-0.061392505
217	0xbd0d0f24	-0.034438267
218	0xbda0e311	-0.078558095
219	0x3bd22d65	0.006414103
220	0xbca76e20	-0.020438254
221	0x3d0534ae	0.032520942
222	0xbd1298cb	-0.035790246
223	0xbd662b26	-0.056193493
224	0xbd158e7b	-0.036512833
225	0xbc0aef66	-0.008479929
226	0xbd63184d	-0.055443097
227	0xbd91cb7e	-0.07118891
228	0xbc998221	-0.018738808
229	0x3ca89951	0.02058092
230	0x3cf72929	0.030170994
231	0xbd47d1dd	-0.048784126
232	0xbd94de5e	-0.07268976
233	0xbd48f7a9	-0.049064312
234	0x3cd2e9de	0.025746282
235	0xbcbb6db9	-0.022879468
236	0xbd0a2892	-0.033730097
237	0x3c0460eb	0.008079748
238	0xbd924097	-0.07141226
239	0xbcb81ff2	-0.02247617
240	0xbd4a2ba6	-0.049358033
241	0x3ca4985b	0.02009218
242	0xbd68cfb4	-0.056838706
243	0xbd2f6a80	-0.042826176
244	0xbd10159a	-0.03517685
245	0xbd9cffc6	-0.076659724
246	0xbd0437b2	-0.032279678
247	0xbd95d113	-0.07315268
248	0xbd50078b	-0.050788444
249	0xbd95bdd6	-0.07311599
250	0xbc0565cc	-0.008141946
251	0xbd8d1705	-0.06889156
252	0x3d86e3b8	0.06586403
253	0x3d4f666c	0.050634786
254	0x3cbb656f	0.022875516
255	0x3dd6fec0	0.104978085
